best_parameters.pt (torch, 448984 bytes, 117 tensors)

features.0.weight f4 [70, 31]
-0.00020492097 -0.02490396 0.00047822707 0.00023911893 0.0032852204 -0.012662564 -0.021383401 -0.0017751211
0.0034748768 0.010638858 0.0019316331 0.00621596 0.014760571 0.0139601 -0.019005433 0.00620069
-0.009481227 0.008366822 0.008150132 0.031969804 -0.0048943027 0.029834433 0.0039680656 -0.004492957
0.013485271 -0.006295702 0.024429997 0.0043546003 0.0013253468 -0.011977028 -0.0013676289 -0.0013173143
-0.028594878 4.93813e-40 0.02435895 4.91634e-40 -0.0073700473 -0.13414451 -0.02335139 -0.5420323
-0.0051323385 0.8146404 0.83136386 -0.020732313 -0.0081209475 -0.011703941 0.05221061 0.021366898
-0.019576838 -0.06917647 0.0226341 0.02937983 0.04474037 0.041852362 -0.161291 -0.007432009
-0.00030251415 -0.0019646138 0.027887024 -0.008924535 -0.008968604 0.0005928486 0.013700541 0.11751763
0.00032840174 0.30546254 -0.0022262316 -0.08966246 -0.06309471 -0.05700738 -0.1385438 0.03466469
-0.025907528 -0.032006048 -0.013905039 -0.04440562 -0.04498345 0.0015974221 0.0179829 -0.024285343
-0.02423563 -0.041776273 0.0017088542 0.007294453 -0.044952214 -0.013608507 0.006281993 -0.045352638
0.008953495 -0.055732865 -0.011436911 -0.0069288835 -0.006060043 0.001729179 0.052807353 0.00076092867
0.0350577 0.0060159354 0.029602783 0.012698711 0.0054516885 0.0054612025 -0.079021856 -0.10209917
-0.10999556 -0.021479564 -0.005741302 -0.012587794 0.014609601 -0.007937611 -0.016037006 -0.0030115831
-0.006849661 -0.017134119 -0.009224495 -0.010531885 -0.0002556949 -0.025746992 -0.022132155 0.06008417
-0.51121527 0.00038017353 -0.024996452 0.008089653 0.0010361539 0.0075025074 0.0041790092 0.074614346
0.0050030923 0.0087706 -0.32941943 0.019335613 1.8375906 -0.07401093 0.21691823 0.18382473
-0.08201814 -0.057628896 -0.0523362 -0.09203148 -0.0066624056 0.015591857 -0.029935637 -0.029536061
-0.03995682 -0.11471575 -0.06873406 -0.0003995644 -0.00060046965 -0.000365781 -0.0013444003 -0.40953624
0.0030454497 -0.12291245 -0.0034226286 -0.0026071763 -0.09383841 -4.95153e-40 -0.021111378 4.93431e-40
-0.120851785 -0.23084407 -0.044907767 -1.1266475 0.09250973 -0.5435459 -0.48705274 -0.11667342
-0.15207763 -0.15439649 -0.17734185 -0.13930255 -0.112918705 -0.07912699 -0.10650366 -0.14722876
-0.12221763 -0.16785431 -0.02162954 -0.009690146 0.0007031308 -0.0047713188 -0.24760316 0.003123663
-0.22235668 -0.001077008 -9.422467e-05 0.026447909 0.000916465 -0.013931129 -0.030194854 0.09025062
0.08483971 0.028067999 -1.6793327 -0.3351637 0.7502519 0.65887016 0.19370455 0.16943967
0.28836164 0.16475411 0.18546826 0.300166 0.18095998 0.14724389 0.13905849 0.13151336
0.14914457 -3.3342225e-05 -7.0962065e-05 0.00026220703 0.00028836698 0.4918438 0.007373432 0.10777124
0.015673056 0.0006757841 0.015061943 0.0043295324 0.015432977 0.012900467 -0.023067724 0.19489656
-0.050319713 1.9331154 -0.42523158 0.464708 0.4295341 0.11063014 0.042688727 0.09753403
0.08644584 -0.015996715 0.1072566 0.06884725 0.1544453 0.114076465 0.13871574 0.06292957
6.429551e-06 -5.8378496e-06 -0.00018538935 0.00036978122 0.05535419 0.015656838 0.06381001 0.0063685533
0.004423099 0.012454637 0.001362972 0.033947714 0.0018187221 0.042234894 0.087645434 0.032692336
00000000: 0ee0 56b9 6403 ccbc 8dba fa39 00bc 7a39
00000010: da4c 573b a576 4fbc 3e2c afbc 2eab e8ba
00000020: c2ba 633b 9b4e 2e3c da2e fd3a 40af cb3b
00000030: 52d6 713c e7b8 643c 48b1 9bbc 282f cb3b
00000040: 2657 1bbc ff14 093c 2288 053c c5f2 023d
00000050: 6360 a0bb 5767 f43c 8c06 823b a839 93bb
00000060: 53f1 5c3c 2d4c cebb 6b21 c83c 09b1 8e3b
00000070: 42b7 ad3a 4c3b 44bc 0342 b3ba bca9 acba
00000080: ce3f eabc 8d60 0500 6c8c c73c 7a5a 0500
00000090: 7080 f1bb 2e5d 09be 6a4b bfbc a1c2 0abf
000000a0: 2d2d a8bb 468c 503f 43d4 543f d0d6 a9bc
000000b0: b90d 05bc e3c1 3fbc cbda 553d a209 af3c
000000c0: 9b5f a0bc 65ac 8dbd 266b b93c f8ad f03c
000000d0: ae41 373d 626d 2b3d 7829 25be 3688 f3bb
000000e0: c39a 9eb9 c0c0 00bb 5473 e43c 3638 12bc
000000f0: 0df1 12bc 6569 1b3a 3c78 603c 15ad f03d
00000100: 562d ac39 9665 9c3e f8e5 11bb f4a0 b7bd
00000110: cd37 81bd 9280 69bd 6dde 0dbe 90fc 0d3d
00000120: 063c d4bc c618 03bd f6d1 63bc abe2 35bd
00000130: 9140 38bd 9760 d13a e050 933c 0ef2 c6bc
00000140: cd89 c6bc 991d 2bbd a2fb df3a 4f06 ef3b
00000150: d01f 38bd 37f6 5ebc 2dd9 cd3b b0c3 39bd
00000160: aeb1 123c 2548 64bd e261 3bbc b00b e3bb
00000170: 5393 c6bb 9fa5 e23a 864c 583d 0f79 473a
00000180: aa98 0f3d 5321 c53b 8981 f23c 410e 503c
00000190: 14a4 b23b e3f3 b23b 36d6 a1bd 5f19 d1bd
000001a0: 5a45 e1bd e9f5 afbc 8821 bcbb 093d 4ebc
000001b0: 1c5d 6f3c c10c 02bc 0a60 83bc fb5d 45bb
000001c0: 1f73 e0bb da5c 8cbc 5622 17bc ed8d 2cbc
000001d0: ca0e 86b9 5beb d2bc 7e4e b5bc d21a 763d
000001e0: 01df 02bf 0752 c739 5cc5 ccbc 778a 043c
000001f0: 8ecf 873a 98d7 f53b 12f0 883b 68cf 983d
00000200: fbf0 a33b 90b2 0f3c aaa9 a8be b865 9e3c
00000210: 2b36 eb3f 0b93 97bd d01f 5e3e 8d3c 3c3e
00000220: 20f9 a7bd 470c 6cbd 7c5e 56bd 007b bcbd
00000230: 4f50 dabb fd74 7f3c 953b f5bc 9cf5 f1bc
00000240: c3a9 23bd 17f0 eabd 71c4 8cbd a07c d1b9
00000250: d668 1dba 4bc6 bfb9 9736 b0ba bcae d1be
00000260: 2b96 473b 86b9 fbbd 2e4e 60bb 29dd 2abb
00000270: 5a2e c0bd 4964 0580 c5f1 acbc 7c5f 0500
00000280: 2481 f7bd 6362 6cbe 35f1 37bd fc35 90bf
00000290: be75 bd3d d325 0bbf fa5e f9be 79f2 eebd
000002a0: 3dba 1bbe 1d1a 1ebe 1a99 35be 54a5 0ebe
000002b0: ec41 e7bd 550d a2bd 971e dabd 23c3 16be
000002c0: 3d4d fabd 00e2 2bbe 6f30 b1bc 6bc3 1ebc
000002d0: 4f52 383a b958 9cbb af8b 7dbe 5eb6 4c3b
000002e0: 78b1 63be 642a 8dba 7c9a c5b8 49a9 d83c
000002f0: ed3e 703a 643f 64bc 335b f7bc 51d5 b83d
00000300: 71c0 ad3d dcee e53c 60f4 d6bf 949a abbe
00000310: 8210 403f b7ab 283f 7c5a 463e 9881 2d3e
00000320: 23a4 933e 4db5 283e 64eb 3d3e 5caf 993e
00000330: 934d 393e 1ac7 163e 5965 0e3e 70ab 063e
00000340: 5bb9 183e f1d8 0bb8 78d1 94b8 d578 8939
00000350: f62f 9739 f3d2 fb3e d59c f13b 2bb7 dc3d
00000360: c864 803c 1a27 313a 5ec6 763c c0de 8d3b
00000370: 99da 7c3c 7b5c 533c 86f8 bcbc f792 473e
00000380: 0b1c 4ebd 5370 f73f f4b7 d9be 35ee ed3e
00000390: e5eb db3e 0e92 e23d 60da 2e3d ecbf c73d
000003a0: 840a b13d 8b0b 83bc 59a9 db3d c9ff 8c3d
000003b0: e926 1e3e eca0 e93d 800b 0e3e 38e1 803d
000003c0: 6cbd d736 bfe2 c3b6 1365 42b9 32df c139
000003d0: 13bb 623d c542 803c d3ae 823d 4caf d03b
000003e0: a5ef 903b 890e 4c3c c0a5 b23a c20c 0b3d
000003f0: 3062 ee3a 7ffe 2c3d 737f b33d 66e8 053d

features.0.bias f4 [70]
0.0038083408 0.05664336 -0.00971996 -0.004276112 -0.0036556805 -0.09368123 0.088449016 0.0853197
0.009518844 0.009080361 0.2575167 -0.005081095 -0.006301983 -0.0044534826 0.010289686 0.12550345
-0.0027688048 0.23709708 -0.057404045 0.00042774185 0.0005723929 0.0062952773 -0.7359998 0.00046859775
-0.07112075 -0.24253985 -0.002228739 5.7762492e-05 0.06616025 -0.0004537839 0.0034625407 -0.0017507408
1.1587363 0.1310127 0.0007098788 0.0034653333 0.004121234 -0.004192159 0.49223018 -0.01495979
-0.03921818 0.14278658 -0.00073339406 -0.027825657 0.669026 -0.0002049508 0.15620922 -0.01053592
-0.016611079 -0.0058016977 -0.007624159 -0.040670015 0.006372854 -0.0032066416 -0.03406118 -0.0024674584
0.00030230815 0.004011911 -0.30471453 -1.0292301 0.0075739864 0.16177855 -0.0018460734 -0.0041049486
0.0007861757 -0.68646586 1.3512942 0.017578416 -0.0041271006 0.012548045
00000000: 5b95 793b de02 683d 7840 1fbc a11e 8cbb
00000010: 2494 6fbb f2db bfbd c224 b53d 18bc ae3d
00000020: edf4 1b3c cbc5 143c 3bd9 833e 507f a6bb
00000030: dd80 cebb 85ee 91bb 1296 283c fa83 003e
00000040: d674 35bb 94c9 723e 8120 6bbd 8a42 e039
00000050: a30c 163a 9d48 ce3b 7c6a 3cbf 20ae f539
00000060: c1a7 91bd 5e5c 78be 0910 12bb 0146 7238
00000070: 067f 873d d8e9 edb9 cbeb 623b 1d79 e5ba
00000080: 7951 943f 3128 063e 2917 3a3a a51a 633b
00000090: 6b0b 873b 615e 89bb 9805 fc3e e819 75bc
000000a0: 3ea3 20bd a536 123e 3e41 40ba a2f2 e3bc
000000b0: 4a45 2b3f 10e8 56b9 4ff5 1f3e da9e 2cbc
000000c0: f513 88bc 2b1c bebb 15d4 f9bb 9a95 26bd
000000d0: 60d3 d03b 8526 52bb bc83 0bbd 15b5 21bb
000000e0: 1d7f 9e39 5976 833b 8b03 9cbe d0bd 83bf
000000f0: 342f f83b 47a9 253e f2f7 f1ba ce82 86bb
00000100: 5c17 4e3a 3abc 2fbf 35f7 ac3f 9c00 903c
00000110: a13c 87bb 5196 4d3c

features.2.weight f4 [70, 70]
0.012345549 -0.058052886 -0.02530681 -0.030339465 0.09868171 0.02753955 -0.43502137 0.06418876
0.0030189788 0.018363804 -0.1291657 -0.021723052 -0.006925193 -0.019785784 -0.06386376 0.0820162
-0.0788466 0.088187784 0.021344185 -0.06474319 0.0074288654 -0.021420212 0.16839066 -0.0068983864
0.03760899 0.16966726 0.01314125 0.045731816 0.017454004 0.018846555 0.009864182 -0.005101391
0.13838123 0.19572392 -0.019220399 0.0015326745 -0.030794717 -0.026554618 -0.56331587 0.017705008
0.07776666 -0.08416455 -0.050460964 0.021444492 -0.08386507 0.039405935 -0.0009183615 0.031326044
0.018490477 0.028849881 -0.044129416 -0.0840604 0.057694424 0.076941006 0.0076537756 0.06176642
0.026194217 0.0036902265 0.14093477 -0.20742665 0.01703635 -0.031799242 -0.010646958 0.0111688925
-0.005319763 0.31915823 1.3016206 0.025164163 0.011986462 -0.019593043 -0.0041694604 -0.15845992
0.034807723 0.05098403 0.033648502 -0.027052391 -0.029735168 0.32711992 -0.005153199 -0.009620056
-4.9058e-40 0.006967668 -0.018221147 0.046638865 -0.011117184 0.2751596 0.07613816 0.11171604
0.09513028 -0.040778853 0.012422695 0.008935876 0.008673398 0.0057846783 0.13169612 0.023132041
-0.10642851 0.10882592 0.044251725 0.039440397 -0.10802527 0.013986806 -0.018878113 -4.94021e-40
0.04317019 -0.0063598976 -0.0010551157 0.032793425 -1.1213399 0.055205382 -0.025879694 -4.90724e-40
0.0067438986 -0.036604762 -0.32610065 -0.022128783 -0.56218374 -0.07378006 0.03990416 0.052205317
-0.018295228 -0.27356562 -0.0068094926 -0.053479213 -0.018415764 -0.018837396 -0.01066447 -0.011723241
-0.068816304 -0.5381808 -0.0631712 0.08123493 0.040229313 -0.056221943 -0.006801214 -0.15835436
-0.2799942 -0.37024885 0.034519684 -0.108782485 -0.031313755 0.29325452 0.024323912 -0.006085843
-0.046635225 -0.20227432 -0.3261288 0.03851686 -0.011618484 0.000471932 0.024629911 0.0151838185
-0.07519324 -0.03626251 0.072096124 0.2654747 0.04508316 0.008698778 -0.08879304 0.028456738
-0.0018051498 0.026295044 0.07317392 0.0001640486 -0.019216664 0.24810053 -0.18802607 0.03867673
0.027432777 0.008397784 0.030147374 -0.0135683585 0.055289585 -0.099449754 0.0035279854 0.00064721424
0.03447378 -0.059444502 -0.044308238 -0.031132732 -0.034959685 -0.15692689 0.112744465 0.00606499
0.37957743 0.033162124 0.092966415 -0.036677085 0.0051015834 0.05346158 0.051123794 -0.008249496
0.010397311 -0.007621885 -0.016337005 -0.09526346 -0.008471389 -0.04057856 0.20450835 -0.0060446505
-0.09107069 0.049175363 0.002691811 0.050659936 0.0018303088 0.083020546 1.3909945 -0.031818505
-0.027053578 -0.01575923 -0.003789241 -0.15051098 0.154243 0.085012645 -0.033743784 -0.19995916
-0.17603193 -0.57274395 -0.01664592 -0.017954191 -0.15228239 -0.016416738 0.0740076 -0.09469213
-0.02098127 -0.08424063 0.117874116 0.037437532 -0.07310117 0.09004256 0.014883228 -0.045733362
0.23687679 -0.057216536 -0.0066595105 0.24001093 0.02071679 0.013119205 0.06996884 0.02090829
0.083671674 0.024092993 0.8310061 0.37306044 0.1621591 -0.013133404 0.025871519 -0.044400383
0.3824969 -0.018463662 0.03526279 0.3192471 -0.033647213 -0.058061182 -0.20518722 -0.06922267
00000000: fc44 4a3c ddc8 6dbd 3a50 cfbc 788a f8bc
00000010: a319 ca3d 9f9a e13c 1fbb debe 6675 833d
00000020: 0fda 453b b06f 963c 0344 04be 8bf4 b1bc
00000030: bbec e2bb cc15 a2bc 01cb 82bd 1cf8 a73d
00000040: 547a a1bd cc9b b43d 00da ae3c 1498 84bd
00000050: d76d f33b 7179 afbc 9a6e 2c3e dc0b e2bb
00000060: e20b 1a3d 41bd 2d3e 664e 573c 4951 3b3d
00000070: b3fb 8e3c 1764 9a3c 619d 213c 9229 a7bb
00000080: cfb3 0d3e da6b 483e 1974 9dbc 06e4 c83a
00000090: 3445 fcbc 1289 d9bc 7835 10bf 180a 913c
000000a0: 2044 9f3d 775e acbd 28b0 4ebd 5cac af3c
000000b0: 73c1 abbd 1e68 213d 32be 70ba bd4f 003d
000000c0: 5779 973c 9656 ec3c 0cc1 34bd dc27 acbd
000000d0: fd50 6c3d 3f93 9d3d 86cc fa3b c9fe 7c3d
000000e0: 4195 d63c bad7 713b 3451 103e a767 54be
000000f0: d18f 8b3c ec3f 02bd 9470 2ebc bbfd 363c
00000100: 6851 aebb b568 a33e 819b a63f 1325 ce3c
00000110: de62 443c 9781 a0bc f89f 88bb 5143 22be
00000120: 8b92 0e3d a1d4 503d 03d3 093d fa9c ddbc
00000130: 2b97 f3bc 437c a73e 2bdc a8bb 709d 1dbc
00000140: 8a57 0580 0951 e43b 8444 95bc 6508 3f3d
00000150: d924 36bc b8e1 8c3e 53ee 9b3d 61cb e43d
00000160: aad3 c23d ba07 27bd 8f88 4b3c c867 123c
00000170: de1a 0e3c 668d bd3b 59db 063e 687f bd3c
00000180: 31f7 d9bd 20e0 de3d 4c41 353d 418c 213d
00000190: 5a3c ddbd eb28 653c 46a6 9abc 2161 0580
000001a0: 3ad3 303d b066 d0bb cf4b 8aba 6652 063d
000001b0: 1188 8fbf 0a1f 623d a701 d4bc f057 0580
000001c0: ecfb dc3b e0ee 15bd aaf6 a6be 6c47 b5bc
000001d0: 46eb 0fbf 001a 97bd 8b72 233d 3ed5 553d
000001e0: e0df 95bc cb10 8cbe 2a22 dfbb 050d 5bbd
000001f0: a8dc 96bc e250 9abc 07ba 2ebc d612 40bc
00000200: 90ef 8cbd 38c6 09bf e75f 81bd 805e a63d
00000210: 7ec7 243d fb48 66bd b8dc debb a527 22be
00000220: 665b 8fbe 4291 bdbe 8364 0d3d 5ac9 debd
00000230: da42 00bd 7525 963e f142 c73c c06b c7bb
00000240: 9404 3fbd 0021 4fbe 5bfa a6be dbc3 1d3d
00000250: 745b 3ebc a46d f739 abc4 c93c 8dc5 783c
00000260: eafe 99bd ff87 14bd 22a7 933d 4dec 873e
00000270: 1fa9 383d 5285 0e3c 20d9 b5bd 1b1e e93c
00000280: c79a ecba b468 d73c 35dc 953d 7604 2c39
00000290: 446c 9dbc 110e 7e3e e889 40be 7e6b 1e3d
000002a0: b4ba e03c dc96 093c a0f7 f63c d24d 5ebc
000002b0: 5577 623d 50ac cbbd c635 673b d0a9 293a
000002c0: 6134 0d3d 147c 73bd 8e7c 35bd 120a ffbc
000002d0: e331 0fbd 71b1 20be 92e6 e63d d3bc c63b
000002e0: f957 c23e 02d5 073d 2d65 be3d b63a 16bd
000002f0: 2f2b a73b 88fa 5a3d 2f67 513d e528 07bc
00000300: 7c59 2a3c 01c1 f9bb 2fd5 85bc 7d19 c3bd
00000310: 95cb 0abc b435 26bd a36a 513e 3412 c6bb
00000320: 4583 babd 1b6c 493d 1869 303b cb80 4f3d
00000330: f9e6 ef3a ad06 aa3d 1c0c b23f 1f54 02bd
00000340: 779f ddbc 8019 81bc ea54 78bb 8d1f 1abe
00000350: e1f1 1d3e 1c1b ae3d ec36 0abd 18c2 4cbe
00000360: b741 34be 599f 12bf 065d 88bc ab14 93bc
00000370: eaef 1bbe 657c 86bc 4c91 973d f3ed c1bd
00000380: eae0 abbc 5a86 acbd fc67 f13d 1958 193d
00000390: 11b6 95bd 3c68 b83d c8d8 733c e852 3bbd
000003a0: d48f 723e e35b 6abd 0638 dabb 6dc5 753e
000003b0: 42b6 a93c eff1 563c d34b 8f3d dd47 ab3c
000003c0: 0e5c ab3d ab5e c53c d1bc 543f c701 bf3e
000003d0: 090d 263e 7d2d 57bc 82f0 d33c 2ddd 35bd
000003e0: a2d6 c33e 1b41 97bc b76f 103d 5b74 a33e
000003f0: a9d1 09bd 90d1 6dbd 991c 52be 9dc4 8dbd

features.2.bias f4 [70]
1.2551171e-06 0.016482659 -0.0048774392 -0.043790385 -0.018914973 0.028695313 -5.136022e-07 0.0005048528
-0.03362124 -0.013320709 -0.0026728641 -0.0034497662 -0.050982803 -0.00289943 -0.034011494 -0.043891914
0.11901642 0.08665965 -0.25587863 -0.05800426 0.0022888978 -0.0060746055 -0.0019947572 0.006432784
0.0344418 -0.009925779 0.0009342486 -0.014916734 -0.029180368 0.0004006233 0.06638429 -0.014672308
-0.0014639945 0.080869414 -0.001070907 -0.025578117 -0.075124286 -0.10211186 -0.017251736 0.070350364
-0.03726008 0.003153265 -0.03668064 1.45933e-07 0.0085238 -0.37418082 0.10391502 -0.09289409
-0.1013084 -0.015516495 -1.0091918e-07 0.090355076 0.032822162 -0.0007230349 -0.07020393 0.00022801646
-0.0022432012 0.00018428265 7.8215e-07 -0.05279029 0.0008570425 -6.0673312e-05 4.8805344e-07 -0.0008662033
0.0596812 -0.021006888 0.00024796554 -0.027792888 0.0037903078 0.039721195
00000000: 7f75 a835 a406 873c edd2 9fbb 8c5d 33bd
00000010: 93f3 9abc 6f12 eb3c 79de 09b5 1958 043a
00000020: 6db6 09bd 1a3f 5abc 382b 2fbb 7915 62bb
00000030: 58d3 50bd 5d04 3ebb a34f 0bbd 02c8 33bd
00000040: e1be f33d 9d7a b13d 8602 83be e095 6dbd
00000050: 5501 163b 7c0d c7bb 79ba 02bb 1aca d23b
00000060: d812 0d3d bc9f 22bc 5de8 743a 5165 74bc
00000070: ab0b efbc c00a d239 7df4 873d 1f64 70bc
00000080: 81e3 bfba dd9e a53d ad5d 8cba 3389 d1bc
00000090: c3da 99bd 0620 d1bd 8353 8dbc da13 903d
000000a0: 079e 18bd 02a7 4e3b 703e 16bd c2b1 1c34
000000b0: 69a7 0b3c a194 bfbe 66d1 d43d 423f bebd
000000c0: c77a cfbd e638 7ebc e8b8 d8b3 150c b93d
000000d0: 8870 063d 0d8a 3dba 14c7 8fbd b417 6f39
000000e0: ac02 13bb ff3b 4139 f0f4 5135 a23a 58bd
000000f0: 26ab 603a 797b 7eb8 c702 0335 eb11 63ba
00000100: 4674 743d a316 acbc 5f01 8239 e9ad e3bc
00000110: d066 783b b1b2 223d

features.4.weight f4 [70]
-0.32607093 0.39864227 0.3368618 0.39221165 0.35978907 0.5714998 0.35163394 0.36062583
-0.30784515 -0.62757665 0.28503045 0.29543555 0.549351 0.31700087 0.377029 0.36932507
0.6657767 0.4531277 0.74318045 -0.4360709 0.43600568 0.3130568 0.25346407 0.43337765
0.4284194 0.34923324 0.3578863 0.5309808 0.6677749 0.27620137 0.53502107 0.59029007
0.27599555 0.4790808 0.2576548 0.2958623 0.3724405 0.70846814 0.36601523 0.4357029
0.2814235 0.31197947 0.30181846 -0.2573521 0.4339432 1.0691686 -0.68312854 0.42579857
-0.3794549 0.3449616 -0.31865537 0.41952989 0.9607965 0.24693023 0.32284603 0.34693468
0.29682532 0.25550684 0.33462685 0.30271885 0.45015725 -0.2571661 -0.25007674 0.32536328
0.36416852 0.29743874 0.25773576 0.41897845 0.35729682 -0.40923604
00000000: c5f2 a6be d71a cc3e 2679 ac3e f7cf c83e
00000010: 4636 b83e d04d 123f 5d09 b43e f3a3 b83e
00000020: e19d 9dbe dda8 20bf 83ef 913e 5443 973e
00000030: 44a2 0c3f f04d a23e f209 c13e 2d18 bd3e
00000040: 5870 2a3f 5b00 e83e 1341 3e3f af44 dfbe
00000050: 233c df3e fb48 a03e 0bc6 813e ade3 dd3e
00000060: ca59 db3e b3ce b23e e03c b73e 5cee 073f
00000070: 4cf3 2a3f 446a 8d3e 24f7 083f 401d 173f
00000080: 4a4f 8d3e 144a f53e 54eb 833e 437b 973e
00000090: 85b0 be3e 2b5e 353f 5966 bb3e 7314 df3e
000000a0: be16 903e c6bb 9f3e f387 9a3e a8c3 83be
000000b0: ce2d de3e 84da 883f 83e1 2ebf 4502 da3e
000000c0: ea47 c2be cf9e b03e cc26 a3be 9fcc d63e
000000d0: c2f6 753f 47db 7c3e 134c a53e 6ca1 b13e
000000e0: 7df9 973e cbd1 823e 3654 ab3e f7fd 9a3e
000000f0: 037b e63e 46ab 83be 0f0a 80be 0496 a63e
00000100: 4c74 ba3e e449 983e f1f5 833e 5884 d63e
00000110: 9cef b63e 6387 d1be

features.4.bias f4 [70]
-0.15380967 0.19769104 -0.27588624 0.0001363358 0.16208574 0.29773468 0.09057037 0.19837968
0.02277079 -0.14424951 0.007625068 0.058175955 0.26177135 0.08713205 0.2383086 0.09970147
0.39892155 0.16983688 0.50921035 -0.09673602 0.088817015 0.10495168 -0.002260378 0.21582411
0.20833805 0.059608303 0.11913956 0.10745748 0.32920834 0.02504636 0.33156237 0.14873604
0.048466578 0.32290635 0.007187938 0.10393209 0.103432216 0.3198863 0.051798154 0.17247544
0.095955215 0.13762361 0.09070517 -0.028879344 0.16614358 0.44739342 -0.17395651 0.18477093
0.006584739 0.13150358 -0.14124359 0.18502481 0.34971783 -0.097401075 0.04898897 0.14484385
-0.14514667 -0.005210541 0.098864734 0.0943065 0.16565329 0.007416185 -0.037719324 -0.17145602
0.14431162 0.11956376 0.024266277 0.15681724 0.19578992 -0.17817889
00000000: 4880 1dbe 856f 4a3e f640 8dbe 5df5 0e39
00000010: cef9 253e ae70 983e f57c b93d 0b24 4b3e
00000020: cf89 ba3c 25b6 13be b5db f93b e949 6e3d
00000030: e506 863e 4a72 b23d 2b07 743e 4930 cc3d
00000040: 723f cc3e b8e9 2d3e 9c5b 023f 891d c6bd
00000050: b2e5 b53d e8f0 d63d da22 14bb ff00 5d3e
00000060: 9256 553e d627 743d 71ff f33d ab12 dc3d
00000070: ff8d a83e 062e cd3c 8bc2 a93e 434e 183e
00000080: e484 463d fb53 a53e cb88 eb3b 59da d43d
00000090: 45d4 d33d 23c8 a33e 4d2a 543d 679d 303e
000000a0: 2b84 c43d 34ed 0c3e a2c3 b93d 6094 ecbc
000000b0: 8b21 2a3e c010 e53e a821 32be 9734 3d3e
000000c0: cbc4 d73b e0a8 063e 29a2 10be 2577 3d3e
000000d0: 370e b33e 377a c7bd a9a8 483d f251 143e
000000e0: 54a1 14be 30bd aabb 9879 ca3d c423 c13d
000000f0: 04a1 293e 7803 f33b 947f 1abd 2b92 2fbe
00000100: 6dc6 133e d8dd f43d 12ca c63c b394 203e
00000110: 277d 483e 8774 36be

features.4.running_mean f4 [70]
79.6849 9.538227 96.339806 57.68284 9.470866 10.6333685 121.91688 22.182808
64.07299 4.2959 104.4008 98.99979 13.420828 90.48681 12.330849 13.534036
11.977535 9.258033 18.058207 2.4045513 1.2183506 15.665232 120.328255 11.296541
13.040001 1.1486708 2.0973048 2.079006 18.877354 117.68432 16.595242 3.6851308
111.03454 18.517218 116.90994 5.7693863 3.5243027 9.757816 1.0985433 4.4666977
12.153485 8.469873 5.0210032 125.65473 9.958497 5.487388 3.7765985 10.358903
34.511845 6.197458 95.52965 9.3199215 3.1606102 110.13015 4.1489344 117.722496
108.636955 142.80525 108.09745 26.89161 7.5004373 120.391365 119.73226 111.14245
8.824348 6.525224 124.374725 9.188845 23.037834 14.182508
00000000: ab5e 9f42 949c 1841 fbad c042 3abb 6642
00000010: ab88 1741 4722 2a41 71d5 f342 6476 b141
00000020: 5f25 8042 0378 8940 36cd d042 e4ff c542
00000030: b6bb 5641 3ff9 b442 284b 4541 698b 5841
00000040: fca3 3f41 e720 1441 3577 9041 2be4 1940
00000050: eaf2 9b3f caa4 7a41 11a8 f042 a2be 3441
00000060: d8a3 5041 a507 933f 3e3a 0640 6f0e 0540
00000070: d204 9741 5f5e eb42 0ec3 8441 2fd9 6b40
00000080: af11 de42 4323 9441 e4d1 e942 d09e b840
00000090: 2d8e 6140 0420 1c41 119d 8c3f 30ef 8e40
000000a0: ad74 4241 9a84 0741 0fac a040 394f fb42
000000b0: 0156 1f41 af98 af40 cab3 7140 11be 2541
000000c0: 210c 0a42 9351 c640 2e0f bf42 661e 1541
000000d0: 7047 4a40 a342 dc42 12c4 8440 eb71 eb42
000000e0: 1f46 d942 25ce 0e43 e531 d842 0422 d741
000000f0: 9503 f040 61c8 f042 eb76 ef42 ef48 de42
00000100: 8830 0d41 a3ce d040 dcbf f842 8205 1341
00000110: 7c4d b841 8eeb 6241

features.4.running_var f4 [70]
311.17044 145.99936 381.49594 540.1914 130.99803 242.91553 284.29944 562.9076
735.1856 190.50362 321.63028 430.75098 386.5421 303.0363 146.26736 204.81108
225.33617 229.97993 571.8964 23.761482 26.054155 337.5306 993.04474 249.36461
336.38962 32.772728 17.70709 60.71461 1081.1204 718.24054 427.783 150.09276
410.13748 462.37247 764.4954 96.339455 35.704617 341.07993 30.446049 54.27457
123.36325 178.67084 29.161875 1291.6694 277.28943 166.02129 113.06569 271.76093
191.13626 117.11749 340.52686 172.60179 74.86458 527.30853 50.230553 339.19406
576.96716 2466.9204 397.90286 251.6568 155.49622 705.978 887.3661 549.8276
141.81424 108.385544 1497.7223 244.88844 617.5697 306.50543
00000000: d195 9b43 d6ff 1143 7bbf be43 400c 0744
00000010: 7fff 0243 60ea 7243 5426 8e43 16ba 0c44
00000020: e1cb 3744 ed80 3e43 add0 a043 2060 d743
00000030: 6445 c143 a584 9743 7244 1243 a3cf 4c43
00000040: 0f56 6143 ddfa 6543 5ff9 0e44 8417 be41
00000050: e96e d041 ebc3 a843 dd42 7844 575d 7943
00000060: df31 a843 4617 0342 1fa8 8d41 c3db 7242
00000070: da23 8744 658f 3344 39e4 d543 bf17 1643
00000080: 9911 cd43 ad2f e743 b51f 3f44 cdad c042
00000090: 87d1 0e42 3b8a aa43 8291 f341 2919 5942
000000a0: fcb9 f642 bcab 3243 854b e941 6c75 a144
000000b0: 0ca5 8a43 7305 2643 a221 e242 66e1 8743
000000c0: e222 3f43 283c ea42 7043 aa43 0f9a 2c43
000000d0: aaba 9542 bfd3 0344 16ec 4842 d798 a943
000000e0: e63d 1044 ba2e 1a45 91f3 c643 24a8 7b43
000000f0: 087f 1b43 987e 3044 6ed7 5d44 f774 0944
00000100: 72d0 0d43 66c5 d842 1d37 bb44 71e3 7443
00000110: 7664 1a44 b240 9943

features.6.weight f4 [65, 70]
-0.009351979 0.015367706 0.014585414 -0.0838452 0.04049808 -0.012077224 -0.011749862 0.047856774
-0.04757278 0.043690976 0.055067405 0.04604427 -0.07686096 0.03713936 -0.0028396735 0.007186408
-0.0024206003 -0.005939791 -0.0076832767 0.25322792 -0.1280535 0.047780313 -0.010909856 0.077505894
-0.01611585 -0.13077883 0.090070724 -0.008608538 0.09216807 0.040802166 -0.012087513 -0.10351368
0.02913567 -0.012187288 -0.015477347 0.09825625 0.031137904 -1.4477557 -0.04077356 0.031855285
0.008421669 0.11539792 0.014256514 0.01110616 0.03517573 -0.3742137 -0.08864595 0.0013514651
-0.033064578 0.086786754 -0.03697001 -0.006110096 -0.0333554 0.021883793 0.0043167504 0.0485794
0.049667656 -0.013073845 -0.0139331585 0.03732204 -0.05423456 0.025373366 0.008040366 0.034211412
0.056611095 0.1095198 -0.019938689 0.080693565 0.051142607 -0.06922456 0.12580006 -0.01388116
-0.0043141274 -0.035414472 0.10485459 0.016583368 -0.027793357 0.09057041 -0.27452686 0.005205477
0.42684364 0.47315684 0.008227049 -0.20401634 0.009270591 0.012994266 0.009769633 0.0124065485
0.0027711687 -0.10308938 -0.0700354 -0.05185658 0.14484951 0.07756979 0.0072362893 -0.150411
0.07422065 -0.11601988 0.011658014 0.4352514 0.02256079 -0.17696804 0.4475237 0.031119749
-0.019342966 0.064200126 -0.020449562 -0.0032244045 -0.1562589 -1.0278987 0.021059236 0.09425648
0.0049165934 -0.008352533 0.0151927965 0.0066776844 0.12068891 0.01391865 0.244866 0.084834106
-0.06857716 0.010333558 0.079558805 -0.005594156 0.0068926415 0.0563826 -0.025148204 0.06677069
0.05540345 -0.16230375 0.031028524 0.0008303516 0.00392281 -0.016462978 0.052537184 0.058626156
-0.015955692 0.0658984 0.087007865 -0.07697167 -0.21141803 -0.0042807325 0.027287077 -0.14125507
-0.07011931 -0.018764036 -0.19536878 0.02455737 -0.062863156 0.16126864 -0.06708818 0.08997049
-0.28328168 -0.16305897 -0.027850933 -0.18001574 -0.0052519627 0.074609175 -0.27766484 0.01063434
-0.071347296 0.093650974 -0.13314615 -0.13784124 0.041994933 -0.041371204 -0.21882674 -0.008424319
-0.50353044 -0.003731807 0.011490501 -0.029182881 -0.04434351 0.053430323 -0.07815217 0.0042078863
-0.07816331 -0.5480307 -0.05677304 -0.010490734 -0.24411958 -0.09380963 0.0013407188 0.13028398
-0.27467903 0.055326067 0.08224686 -0.12749492 -0.24646676 0.017914554 0.06791068 -0.014081062
-0.31310058 -0.020047475 -0.23466328 -0.07777245 -0.01896249 -0.112386025 -0.2996078 0.20470892
0.0022998916 0.09569959 0.11305441 -0.025566489 -0.0011827413 -0.055921424 -0.11101028 -0.4270746
0.03446208 -0.06512741 -0.06791144 0.018726736 -0.000681832 -0.13757503 -0.2863721 -0.06454354
-0.18194298 0.094968185 0.10863647 -0.012042664 -0.029742835 -0.1140105 -0.44624397 0.21834123
0.0018047949 -0.09773872 -0.044157688 0.02057833 -0.023003818 0.16221152 0.05904624 -0.13675101
-0.07681333 -0.30282477 0.025742613 0.08972508 0.08388008 -0.022411276 -0.03358568 -0.059823174
-0.050442982 -0.026316704 -0.092757456 -0.021044798 -0.026599351 0.099569894 -0.039809518 0.039356634
0.1122552 0.013637629 0.09307477 0.10802956 -0.036152266 0.035868745 0.14706284 -0.034513623
00000000: 0b39 19bc d5c8 7b3c a9f7 6e3c 08b7 abbd
00000010: 51e1 253d 8ddf 45bc 7e82 40bc 7705 443d
00000020: addb 42bd 4ff5 323d 5c8e 613d eb98 3c3d
00000030: 4769 9dbd 711f 183d d119 3abb f67b eb3b
00000040: efa2 1ebb 94a2 c2bb ffc3 fbbb 17a7 813e
00000050: 7520 03be 4ab5 433d 41bf 32bc 69bb 9e3d
00000060: 6305 84bc e3ea 05be 0077 b83d d30a 0dbc
00000070: 9dc2 bc3d 2c20 273d b40a 46bc fbfe d3bd
00000080: eead ee3c 31ad 47bc b394 7dbc 933a c93d
00000090: eb14 ff3c 0f50 b9bf 2d02 27bd b07a 023d
000000a0: 0afb 093c bf55 ec3d 2794 693c 9cf6 353c
000000b0: 6d14 103d f098 bfbe 028c b5bd a523 b13a
000000c0: b96e 07bd 41bd b13d dd6d 17bd 3337 c8bb
000000d0: ac9f 08bd a445 b33c 8773 8d3b 31fb 463d
000000e0: 5070 4b3d ae33 56bc e747 64bc ffde 183d
000000f0: 0f25 5ebd cedb cf3c bdbb 033c 4421 0c3d
00000100: 09e1 673d eb4b e03d 7656 a3bc ab42 a53d
00000110: e97a 513d 9bc5 8dbd bbd1 003e ce6d 63bc
00000120: 865d 8dbb c40e 11bd 01be d63d d8d9 873c
00000130: e5ae e3bc fb7c b93d c98e 8cbe b592 aa3b
00000140: 408b da3e 9d41 f23e bfca 063c a9e9 50be
00000150: ade3 173c e7e5 543c d010 203c d644 4b3c
00000160: 7f9c 353b 8620 d3bd b86e 8fbd 9167 54bd
00000170: 6e53 143e e9dc 9e3d 651e ed3b 5705 1abe
00000180: ff00 983d d59b edbd 4101 3f3c 46d9 de3e
00000190: 68d1 b83c 1c37 35be d421 e53e d8ee fe3c
000001a0: 2475 9ebc 5b7b 833d d785 a7bc 8850 53bb
000001b0: 5502 20be 2f92 83bf 6b84 ac3c 8b09 c13d
000001c0: 601b a13b 10d9 08bc 35eb 783c 7ad0 da3b
000001d0: bf2b f73d 0d0b 643c 27be 7a3e 81bd ad3d
000001e0: 2f72 8cbd 154e 293c baef a23d 2f4f b7bb
000001f0: abdb e13b 71f1 663d 9b03 cebc 12bf 883d
00000200: baee 623d f432 26be 882f fe3c f4ab 593a
00000210: ea8a 803b 5edd 86bc 3b31 573d fb21 703d
00000220: 83b5 82bc bef5 863d 2e31 b23d 53a3 9dbd
00000230: f87d 58be 6345 8cbb 2689 df3c 2ba5 10be
00000240: b69a 8fbd 09b7 99bc c10e 48be 8a2c c93c
00000250: 66be 80bd 9b23 253e 8765 89bd 7342 b83d
00000260: 4c0a 91be eef8 26be a427 e4bc 0c56 38be
00000270: a818 acbb b2cc 983d 162a 8ebe a83b 2e3c
00000280: 881e 92bd 15cc bf3d 7757 08be 4126 0dbe
00000290: e102 2c3d da74 29bd 1e14 60be 2806 0abc
000002a0: 5fe7 00bf 5591 74bb a842 3c3c f010 efbc
000002b0: 8aa1 35bd c1d9 5a3d 3f0e a0bd 4fe2 893b
000002c0: 1614 a0bd bd4b 0cbf d98a 68bd 54e1 2bbc
000002d0: 7cfa 79be 431f c0bd 0fbb af3a 2a69 053e
000002e0: bba2 8cbe 969d 623d 0b71 a83d 078e 02be
000002f0: c861 7cbe 8bc1 923c c114 8b3d 41b4 66bc
00000300: b84e a0be 9a3a a4bc 924b 70be 2a47 9fbd
00000310: 3957 9bbc a52a e6bd 3266 99be 379f 513e
00000320: c7b9 163b 26fe c33d 1289 e73d d070 d1bc
00000330: 3606 9bba dd0d 65bd 5c59 e3bd 86a9 dabe
00000340: 1c28 0d3d 8561 85bd 2715 8bbd d068 993c
00000350: f9bc 32ba 78e0 0cbe 5d9f 92be 672f 84bd
00000360: 434f 3abe ae7e c23d cc7c de3d 984e 45bc
00000370: 3fa7 f3bc 567e e9bd 177a e4be d894 5f3e
00000380: de8e ec3a 3d2b c8bd b1de 34bd e393 a83c
00000390: 8172 bcbc c71a 263e 78da 713d 7508 0cbe
000003a0: 4f50 9dbd d90b 9bbe 2ce2 d23c c8c1 b73d
000003b0: 52c9 ab3d da97 b7bc 2391 09bd 2509 75bd
000003c0: 4d9d 4ebd 2196 d7bc 9ff7 bdbd 2466 acbc
000003d0: e2e6 d9bc 4deb cb3d 4e0f 23bd 6c34 213d
000003e0: 0ee6 e53d 5d70 5f3c fc9d be3d 9a3e dd3d
000003f0: 6614 14bd 1beb 123d a497 163e 285e 0dbd

features.6.bias f4 [65]
-0.09520271 -0.092699744 0.08478252 -0.3901268 -0.18134348 -0.140907 -0.5203036 0.14319064
0.3168133 0.12722856 0.04400865 0.1830275 -0.16366988 -0.27583742 0.4391796 0.07296377
0.018990304 0.16438113 0.049740154 0.18996184 -0.21074933 0.2111808 -0.026213463 -0.04818217
-0.1343068 -0.21190687 -0.21436876 -0.64014363 -0.4468879 -0.11633827 0.09863732 0.014167003
-0.021280974 0.21041276 -0.10484162 -0.25017995 -0.5953591 0.23438755 -0.2698791 0.07694531
0.057020072 0.010106369 0.020310028 -0.38803545 -0.43178388 0.08634423 0.17008843 -0.018843113
-0.19862142 -0.046218943 0.16173862 -0.16324425 -0.19162343 -0.11206732 -0.3780701 -0.2715245
-0.18161838 0.23717436 0.08306054 0.13639048 -0.0043893266 0.11684903 -0.013364878 -0.30861363
-0.22068632
00000000: a3f9 c2bd 5dd9 bdbd 75a2 ad3d b3be c7be
00000010: 1bb2 39be ed49 10be 9e32 05bf 91a0 123e
00000020: 5a35 a23e 3448 023e 6a42 343d 906b 3b3e
00000030: 1499 27be 903a 8dbe 26dc e03e 076e 953d
00000040: 8e91 9b3c 8753 283e 55bc 4b3d 5b85 423e
00000050: acce 57be c83f 583e 9ebd d6bc ab5a 45bd
00000060: b987 09be 1dfe 58be 7c83 5bbe 74e0 23bf
00000070: 7ece e4be c242 eebd 5d02 ca3d b81c 683c
00000080: 7055 aebc 7176 573e 34b7 d6bd 9617 80be
00000090: 7469 18bf 4a03 703e 982d 8abe 8195 9d3d
000000a0: e18d 693d 2f95 253c 3761 a63c 95ac c6be
000000b0: c712 ddbe 3ed5 b03d a92b 2e3e df5c 9abc
000000c0: 6a63 4bbe 1350 3dbd cf9e 253e 8029 27be
000000d0: ef38 44be 8d83 e5bd 6792 c1be 4205 8bbe
000000e0: 2bfa 39be d6dd 723e a51b aa3d f2a9 0b3e
000000f0: 57d4 8fbb 8b4e ef3d 5cf8 5abc 9b02 9ebe
00000100: 98fb 61be

features.8.weight f4 [60, 65]
0.03426554 -0.022394741 0.099187694 0.15030837 0.00075089996 -0.22080292 0.084716424 -0.043068044
-0.0053280005 -0.17105028 0.04435807 0.08795851 0.3436303 -0.08198501 -0.060994286 0.021033458
-0.08402222 -0.03160888 0.017934944 -0.09069114 0.03245747 -0.20525606 -0.012781634 0.06081582
0.19168487 0.0064040627 0.012624152 -0.15274699 0.26394612 -0.065491065 -0.0044396813 -0.11806142
0.04183408 0.08600149 -0.027826207 0.032204393 0.008681084 -0.12937616 0.34089696 -0.015442812
-0.09238022 0.06088604 0.09849497 -0.08692837 0.11680358 -0.02377683 -0.035416614 -0.15059994
0.07428876 0.06763471 -0.031373378 -0.03138019 -0.04352272 0.078649215 -0.1303753 0.082329735
-0.066006586 0.09657286 0.050968163 -0.15613411 0.11979595 0.04887369 0.054013286 -0.023632437
0.007803544 0.52929485 0.04776802 0.0935756 -0.17740639 0.010851814 -0.008578391 0.17392325
-0.11847792 0.025165271 0.11661404 0.02842483 -0.044522855 0.021058412 0.05139153 0.015328558
-0.03777999 0.14722085 -0.023198659 -0.09803163 0.024181388 0.12577125 0.09601793 -0.08367809
0.18753546 -0.025045844 0.08757821 -0.2649845 0.037645623 -0.31974933 -0.056112662 -0.045303706
0.010958803 0.005038445 -0.18756129 -0.2786992 0.020973286 -0.090992495 -0.7176933 -0.036853805
0.02481199 0.15185913 0.11662632 0.117303126 -0.13165204 -0.031689942 -1.1308198 0.076861136
-0.16056612 -0.036972616 -0.01496574 0.10664787 0.103674054 0.020911843 -0.38990507 -0.008901975
-0.08463714 -0.2137872 -0.0036944281 0.1680303 -0.21607779 0.121161886 -0.13155054 -0.029800517
0.012525674 -0.07507134 -0.06904479 0.038171433 0.013706955 -0.15791321 -0.53602403 0.049496926
-0.0051136184 -0.036176044 -0.289832 -0.15510866 -0.042329993 -0.19196528 0.1067027 0.030644393
-0.12238014 -0.12424669 -0.24956769 0.06377015 -0.2735439 -0.5266506 -0.22953072 0.051914137
-0.012778522 -1.0840333 -0.0032198736 -0.016424924 -0.055458523 -0.13378888 0.00037337875 -0.04478531
-0.09296636 -0.20329209 0.08687196 -0.19896361 -0.1786281 -0.18194333 -0.18789726 0.09948902
-0.0044175955 -0.12666708 0.37744996 0.10322417 -0.08404067 -0.0005784016 -4.91683e-40 0.119229175
-0.046244584 0.17110735 -0.17132622 -0.030142244 -0.15110675 -0.046549443 -0.013522404 -0.0027349635
-0.046354905 -0.05318725 -0.2641814 -0.1086532 -0.24488172 -0.0022920368 0.17832334 -0.016246198
0.07797105 -0.118577965 0.14405924 -0.06919597 0.10851288 -0.14348598 0.055426907 -0.06306647
0.32362732 -0.03961077 -0.1231044 -0.11811862 -0.062404055 0.17087528 0.101911716 -0.09500033
-0.04632724 -0.06532017 -0.0021299312 -0.032795325 0.13602138 0.0041891956 -0.42242184 0.16217297
-0.2791787 -0.14569275 -0.04934867 -0.33373612 0.057290375 -0.08327661 -0.12888184 -0.1867919
-0.10319424 0.090752214 -0.047069926 0.1190575 -0.030874632 -0.17420658 -0.14283346 -0.030781498
0.014349288 -0.21797633 0.0493415 0.0046928795 -0.07492226 -0.019590724 -0.024138853 -0.15675606
-0.071878195 0.0015375118 -0.039173473 0.03611025 -0.13093823 -0.024652047 -0.20146355 -0.027202068
0.13205905 -0.12503055 0.025556032 0.04290288 0.24971981 -0.07823115 -0.059809074 0.13127823
00000000: 065a 0c3d 2d75 b7bc eb22 cb3d 70ea 193e
00000010: 0bd8 443a 291a 62be ce7f ad3d 1e68 30bd
00000020: 8296 aebb ce27 2fbe cfb0 353d 9723 b43d
00000030: 50f0 af3e c2e7 a7bd 25d5 79bd 5c4e ac3c
00000040: d713 acbd 5078 01bd 4eec 923c 47bc b9bd
00000050: 20f2 043d a52e 52be 0f6a 51bc 021a 793d
00000060: 0a49 443e 2cd9 d13b 88d5 4e3c b569 1cbe
00000070: f223 873e 2e20 86bd bf7a 91bb 30ca f1bd
00000080: 365a 2b3d 8d21 b03d c9f3 e3bc c1e8 033d
00000090: 1b3b 0e3c 2f7b 04be 0c8a ae3e d903 7dbc
000000a0: d731 bdbd a463 793d bbb7 c93d 8007 b2bd
000000b0: b736 ef3d a0c7 c2bc 0311 11bd df36 1abe
000000c0: b524 983d 1184 8a3d 5f81 00bd 8488 00bd
000000d0: e144 32bd d712 a13d 1a81 05be 7e9c a83d
000000e0: 762e 87bd fec7 c53d fec3 503d 9fe1 1fbe
000000f0: 9457 f53d c72f 483d 093d 5d3d d098 c1bc
00000100: dfb4 ff3b de7f 073f 66a8 433d 90a4 bf3d
00000110: 05aa 35be cfcb 313c 618c 0cbc f018 323e
00000120: 8da4 f2bd 6627 ce3c 58d3 ee3d 30db e83c
00000130: 995d 36bd b182 ac3c ed7f 523d a224 7b3c
00000140: 31bf 1abd 10c1 163e 1d0b bebc cfc4 c8bd
00000150: 0c18 c63c 2eca 003e 0ca5 c43d 6b5f abbd
00000160: 4c09 403e f12c cdbc 345c b33d 0cac 87be
00000170: 4c32 1a3d 2fb6 a3be 64d6 65bd 6190 39bd
00000180: 8d8c 333c 8a19 a53b 1110 40be a9b1 8ebe
00000190: 2bd0 ab3c 465a babd c0ba 37bf 04f4 16bd
000001a0: 8442 cb3c f680 1b3e c8d9 ee3d 9f3c f03d
000001b0: cbcf 06be 50cd 01bd b4be 90bf 5f69 9d3d
000001c0: 726b 24be 9970 17bd dd32 75bc 336a da3d
000001d0: 1053 d43d 504f ab3c a3a1 c7be 97d9 11bc
000001e0: 3d56 adbd 08eb 5abe 381e 72bb 2310 2c3e
000001f0: 7f43 5dbe b923 f83d 2fb5 06be 3720 f4bc
00000200: 7c38 4d3c 01bf 99bd 5b67 8dbd a659 1c3d
00000210: 2393 603c 00b4 21be df38 09bf 4abd 4a3d
00000220: 2490 a7bb 552d 14bd dc64 94be ced4 1ebe
00000230: 3762 2dbd 8c92 44be f286 da3d f309 fb3c
00000240: 70a2 fabd 0c75 febd ac8e 7fbe ed99 823d
00000250: f20d 8cbe 93d2 06bf 1a0a 6bbe eba3 543d
00000260: 025d 51bc 9ac1 8abf 8404 53bb 908d 86bc
00000270: 7a28 63bd f4ff 08be 0cc2 c339 cd70 37bd
00000280: 2665 bebd cd2b 50be ede9 b13d 1ebd 4bbe
00000290: 49ea 36be 5a4f 3abe 2468 40be e6c0 cb3d
000002a0: 7ac1 90bb 04b5 01be 1f41 c13e 3267 d33d
000002b0: 841d acbd e09f 17ba 9d5a 0580 6d2e f43d
000002c0: f66a 3dbd c436 2f3e 2470 2fbe deec f6bc
000002d0: babb 1abe a1aa 3ebd 138d 5dbc 133d 33bb
000002e0: a4de 3dbd e0da 59bd c942 87be 9285 debd
000002f0: 46c2 7abe ff35 16bb 659a 363e bf16 85bc
00000300: 49af 9f3d 01d9 f2bd 4484 133e 9eb6 8dbd
00000310: 003c de3d fded 12be 5307 633d fe28 81bd
00000320: 7bb2 a53e e73e 22bd 291e fcbd 2de8 f1bd
00000330: 659b 7fbd eef9 2e3e 17b7 d03d 888f c2bd
00000340: a2c1 3dbd 95c6 85bd 5196 0bbb 6454 06bd
00000350: 3049 0b3e 8545 893b ad47 d8be ac10 263e
00000360: 83f0 8ebe 7b30 15be d521 4abd 76df aabe
00000370: 50a9 6a3d ed8c aabd 9af9 03be 6046 3fbe
00000380: 8057 d3bd 4cdc b93d 65cc 40bd 6bd4 f33d
00000390: ccec fcbc 3663 32be ef42 12be 7b29 fcbc
000003a0: 4719 6b3c 3035 5fbe 501a 4a3d bac6 993b
000003b0: d870 99bd ba7c a0bc d8be c5bc a984 20be
000003c0: e034 93bd 5686 c93a 5d74 20bd 57e8 133d
000003d0: ac14 06be 17f3 c9bc 764c 4ebe dfd6 debc
000003e0: 7d3a 073e 0208 00be e25a d13c eeba 2f3d
000003f0: 8db6 7f3e a737 a0bd 5cfa 74bd cd6d 063e

features.8.bias f4 [60]
-0.015356368 0.0015094312 0.14338529 0.10787785 0.015286549 0.02200143 -0.02665136 -0.032158483
-0.044151444 0.011808657 0.010645622 -0.15546972 0.06384385 -0.12840457 -0.10119256 0.05608247
0.10761367 0.213658 -0.10866572 0.013262638 -0.26443112 0.114641935 -0.013549254 0.03000023
0.10635242 0.044209376 -0.11301065 -0.016613852 0.08201377 0.0035938004 0.21520106 -0.021829529
-0.12657686 -0.13951893 0.057402957 -0.27796152 -0.14433482 -0.145536 -0.1694391 -0.29788846
-0.079156585 0.18245316 0.17677376 -0.10096941 0.027823908 -0.23072119 0.19009133 0.04137353
-0.12650134 0.10909457 0.04015794 -0.09805809 0.24578924 0.037606828 0.045401607 -0.12893198
0.022229305 -0.34369537 -0.030648757 -0.04741935
00000000: 4799 7bbc 1bd8 c53a 98d3 123e 10ef dc3d
00000010: 6f74 7a3c 583c b43c f453 dabc 9db8 03bd
00000020: 25d8 34bd 1979 413c fa6a 2e3c 7433 1fbe
00000030: 90c0 823d 7d7c 03be 0b3e cfbd bbb6 653d
00000040: 8e64 dc3d 2ac9 5a3e 228c debd 894b 593c
00000050: 8463 87be 64c9 ea3d b1fd 5dbc 0bc3 f53c
00000060: 4ccf d93d e414 353d 2172 e7bd c619 88bc
00000070: d6f6 a73d f785 6b3b ab5d 5c3e d7d3 b2bc
00000080: 5d9d 01be 0dde 0ebe 5d1f 6b3d f950 8ebe
00000090: 82cc 13be 6407 15be 7281 2dbe d684 98be
000000a0: d91c a2bd 00d5 3a3e 2e04 353e 0dc9 cebd
000000b0: f7ee e33c 2d42 6cbe 4da7 423e 4a77 293d
000000c0: 9189 01be f96c df3d a77c 243d aed2 c8bd
000000d0: 2db0 7b3e 9e09 1a3d 09f7 393d bf06 04be
000000e0: 3b1a b63c d7f8 afbe 1a13 fbbc cb3a 42bd

features.10.weight f4 [60, 60]
-0.054073103 -0.17836575 4.94015e-40 -4.91426e-40 -0.11758905 -0.1256016 0.029935047 -4.9406e-40
-4.91103e-40 4.93065e-40 0.015228872 0.061305434 -0.08379768 0.032902878 9.804446e-05 0.006128121
-0.0011302624 0.005842689 0.1187882 -1.4322215e-07 0.040250693 0.07487359 0.13313153 -0.035269033
0.0013426039 0.0028055245 4.91283e-40 4.90785e-40 0.00015225878 0.00016741059 -4.90722e-40 0.0013280207
4.93902e-40 -0.027949473 4.94283e-40 0.011624208 0.007490067 0.077537686 0.003781078 0.19123554
9.348397e-05 -0.00019560865 4.94441e-40 -0.024672706 -0.00082695275 0.10589918 4.90534e-40 0.106046066
-0.016562536 4.91228e-40 0.0005436122 0.12117551 0.0026239539 -0.050850123 0.039646998 -0.19315358
4.93756e-40 0.10052878 0.016845327 0.00019144296 -0.24760093 -0.3458072 -0.0056729233 0.002766529
-0.1733598 -0.09111305 0.018667568 -0.050196737 -0.23633337 -0.10558854 0.1294689 -0.111538455
0.18944755 -0.12327678 0.028663224 -0.1768305 -0.026130723 0.07724319 -0.1076441 -0.009789397
-0.0912708 0.037177864 0.053361647 0.11843548 -0.040932473 -0.0863035 -0.017589347 -0.0008750511
0.0015105047 -0.013928563 0.27150282 -0.0019887064 -0.27367365 -0.06273328 -0.044885848 -0.18704544
-0.12917617 -0.122146286 -0.24763024 0.046759803 0.1734834 -0.08567423 -0.17133132 -0.024843728
-0.081572466 0.24224769 0.025094531 0.16645859 -0.0019529761 -0.21996464 -0.0011715188 0.030035712
0.048374232 -0.35583627 -0.025306622 -0.15814023 0.036208052 -0.09983811 -0.0036458638 -0.2196324
-0.029484957 -0.07456026 -0.18193194 -0.16097423 0.09493226 0.121040896 0.0015220796 -0.05792857
-0.021431215 0.27200097 -0.12194399 -0.029494967 0.2478393 0.15155849 0.20553684 0.18233341
-0.14128031 -0.20292003 -0.11210566 0.02758253 -0.0957563 -0.18006332 -0.26862842 0.1589481
0.04996433 0.2037925 0.2706971 0.011209655 -0.06281449 -0.05316806 -0.12069687 0.019577742
0.12081551 0.042139295 0.015060592 -0.0055997143 -0.035894822 0.07764958 -0.032136105 -0.093199566
0.07522346 0.05611244 -0.062171575 -0.11939962 -0.16795228 -0.051443074 -0.080443725 -0.3517627
-0.03257752 0.06388773 0.066199444 -0.117166415 0.22128418 0.029332776 -0.15254264 0.06717587
0.27090168 -0.15654546 0.034960374 -0.27031076 0.056588538 -0.08617903 0.0016778619 -0.23194261
0.106031485 -0.035211477 0.012426904 -0.05418858 -0.019108783 -0.017102603 -0.015550236 0.04690515
0.11551251 0.10647918 0.08250372 0.10587698 -0.11796848 -0.33244714 -0.17575067 -0.118958555
0.058183134 -0.30555707 -0.2341899 0.18975316 0.12601078 0.25431788 -0.00034109424 -0.09964761
0.05650153 -0.03285546 0.04289333 -0.18111756 -0.20866221 -0.04668747 -0.100211106 0.10545178
0.107461594 -0.21837081 -0.17936522 0.10318028 -0.06728254 0.0718851 -1.0367882e-05 0.10106998
0.07140345 0.05954923 -0.0077437027 -0.4540321 -0.07467901 0.056481633 0.2900999 -0.08719531
0.08189825 -0.051066093 0.14255369 0.07888958 -0.09796787 -0.06943313 0.008731628 -0.19008438
-0.006824661 0.2494827 -0.0051557836 -0.016465107 -0.08156042 -0.5812129 0.00020420777 -0.046262268
0.048680577 -0.06552273 -0.046015576 -0.024892366 0.009258733 -0.2098018 0.013694527 0.08958661
00000000: c27b 5dbd 83a5 36be 1d61 0500 e559 0580
00000010: 87d2 f0bd b59d 00be 583a f53c 3d61 0580
00000020: ff58 0580 775e 0500 8582 793c 681b 7b3d
00000030: 1e9e abbd 2bc5 063d 389d cd38 68ce c83b
00000040: 5025 94ba 0774 bf3b 3a47 f33d 9bc8 19b4
00000050: e9dd 243d 5357 993d a253 083e 4376 10bd
00000060: 50fa af3a e4dc 373b 7f59 0500 1c58 0500
00000070: a8a7 1f39 f08a 2f39 ef57 0580 fb10 ae3a
00000080: cc60 0500 4bf6 e4bc dc61 0500 7673 3e3c
00000090: 3c6f f53b 14cc 9e3d f6cb 773b 40d3 433e
000000a0: d30c c438 4c1c 4db9 4d62 0500 6a1e cabc
000000b0: dcc7 58ba abe1 d83d 6957 0500 ae2e d93d
000000c0: 28ae 87bc 5859 0500 3281 0e3a de2a f83d
000000d0: a4f6 2b3b 3848 50bd e464 223d 0dca 45be
000000e0: 6460 0500 08e2 cd3d 36ff 893c 14be 4839
000000f0: 198b 7dbe a40d b1be eee3 b9bb a84e 353b
00000100: 3b85 31be 7b99 babd baec 983c 189b 4dbd
00000110: 6001 72be ce3e d8bd 7f93 043e 466e e4bd
00000120: 8afe 413e 8978 fcbd 23cf ea3c 0e13 35be
00000130: 1910 d6bc ad31 9e3d 8374 dcbd b563 20bc
00000140: 2fec babd d147 183d be91 5a3d 4d8e f23d
00000150: cfa8 27bd e4bf b0bd 8917 90bc af63 65ba
00000160: 21fc c53a a134 64bc 6b02 8b3e f554 02bb
00000170: f41e 8cbe 4e7a 80bd 39da 37bd d788 3fbe
00000180: c246 04be d527 fabd c892 7dbe 3587 3f3d
00000190: a2a5 313e f875 afbd 7a71 2fbe 1385 cbbc
000001a0: 770f a7bd c70f 783e 0c93 cd3c 1f74 2a3e
000001b0: 01fb ffba 693e 61be a68d 99ba 740d f63c
000001c0: 0f24 463d 2c30 b6be d54f cfbc 83ef 21be
000001d0: e54e 143d ec77 ccbd 72ef 6ebb 51e7 60be
000001e0: 708a f1bc 0db3 98bd 5e4c 3abe 6ed6 24be
000001f0: d86b c23d 4ae4 f73d 8480 c73a 8246 6dbd
00000200: 8490 afbc b643 8b3e c5bd f9bd 6e9f f1bc
00000210: 96c9 7d3e 2632 1b3e 4078 523e 9cb5 3a3e
00000220: c9ab 10be 45ca 4fbe a797 e5bd c2f4 e13c
00000230: e11b c4bd 8562 38be aa89 89be 4ac3 223e
00000240: 66a7 4c3d fbae 503e cf98 8a3e b3a8 373c
00000250: e2a4 80bd c0c6 59bd ec2f f7bd 8061 a03c
00000260: 1f6e f73d 419a 2c3d b4c0 763c cf7d b7bb
00000270: 7306 13bd be06 9f3d 26a1 03bd 6adf bebd
00000280: c20e 9a3d 28d6 653d 9fa7 7ebd ca87 f4bd
00000290: affb 2bbe f9b5 52bd aebf a4bd 3e1a b4be
000002a0: 0170 05bd 92d7 823d 9393 873d f2f4 efbd
000002b0: 5298 623e 4a4b f03c 2334 1cbe 8193 893d
000002c0: a0b3 8a3e 744d 20be 9c32 0f3d 2c66 8abe
000002d0: 62c9 673d a27e b0bd b4eb db3a 5d82 6dbe
000002e0: 0927 d93d e939 10bd 379a 4b3c d8f4 5dbd
000002f0: 068a 9cbc c21a 8cbc 6bc6 7ebc 9d1f 403d
00000300: d391 ec3d c211 da3d b6f7 a83d 08d6 d83d
00000310: 7599 f1bd 8336 aabe fcf7 33be 8ba0 f3bd
00000320: 7051 6e3d fa71 9cbe 7acf 6fbe a74e 423e
00000330: f808 013e f435 823e e5d4 b2b9 0c14 ccbd
00000340: 266e 673d 7293 06bd ebb0 2f3d e276 39be
00000350: 8cab 55be 5c3b 3fbd 7b3b cdbd 1af7 d73d
00000360: d314 dc3d 999c 5fbe 84ab 37be 2f50 d33d
00000370: 6ecb 89bd 7f38 933d b7f1 2db7 c7fd ce3d
00000380: f93b 923d e5e9 733d e3be fdbb e576 e8be
00000390: 4ff1 98bd 4959 673d f987 943e 7493 b2bd
000003a0: 45ba a73d ae2a 51bd 98f9 113e dc90 a13d
000003b0: 61a3 c8bd f532 8ebd 1a0f 0f3c 7ba5 42be
000003c0: 68a1 dfbb 6578 7f3e d9f1 a8bb d5e1 86bc
000003d0: 2609 a7bd 5eca 14bf 9b20 5639 817d 3dbd
000003e0: 4965 473d c830 86bd d47a 3cbd 13eb cbbc
000003f0: f1b1 173c 48d6 56be 025f 603c 2f79 b73d

features.10.bias f4 [60]
-0.5215262 -0.010971208 0.02596073 0.01382277 0.020194955 0.3349034 0.09202653 0.07524729
0.085692555 0.2580037 0.03015879 -0.12070969 0.14858833 -0.109572984 -0.016344925 0.013154594
-0.051910575 -0.031712234 -0.0024770338 0.09479443 0.002288696 -0.019705983 0.096369274 -0.169237
-0.09929334 0.067152835 -0.03943087 0.040318858 -0.014184928 0.05803999 -0.04861109 0.07831521
-0.00024010395 0.087803505 0.012274378 0.09842786 0.25140876 0.280797 -0.029527787 -0.15668441
0.027901832 -0.028407818 0.07773122 -0.037167914 -0.09256085 -0.016121628 0.0068914313 -0.014852086
-0.0055722827 0.029324058 0.00981503 0.30348036 0.030274713 0.051740162 0.1539964 0.21514998
-0.03968425 0.0938979 -0.056071065 -0.022066
00000000: be82 05bf 95c0 33bc 99ab d43c e678 623c
00000010: e46f a53c 7578 ab3e 6878 bc3d 401b 9a3d
00000020: 947f af3d 1019 843e 910f f73c a436 f7bd
00000030: 8a27 183e cd67 e0bd cbe5 85bc 5e86 573c
00000040: 2fa0 54bd b0e4 01bd bb55 22bb 9523 c23d
00000050: f2fd 153b 716e a1bc 415d c53d 774c 2dbe
00000060: 4f5a cbbd 6d87 893d 4482 21bd 6325 253d
00000070: e667 68bc 57bb 6d3d 6c1c 47bd ba63 a03d
00000080: 6ac4 7bb9 53d2 b33d 791a 493c 8c94 c93d
00000090: a6b8 803e a0c4 8f3e 42e4 f1bc e171 20be
000000a0: 6292 e43c 83b7 e8bc 8c31 9f3d 623d 18bd
000000b0: 8b90 bdbd 8111 84bc 84d1 e13b 2a56 73bc
000000c0: b297 b6bb 0239 f03c 38cf 203c c761 9b3e
000000d0: ad02 f83c 7eed 533d 3bb1 1d3e 4750 5c3e
000000e0: f48b 22bd 8b4d c03d c6aa 65bd c2c3 b4bc

features.12.weight f4 [60]
0.9447585 0.2950581 0.3057553 0.37517262 0.36349326 0.4232053 0.27959564 0.36628717
0.37916815 -0.41090414 0.29824615 0.9404534 0.35447896 -0.32941929 0.40672937 0.31135964
-0.34373832 0.35757962 0.37556654 0.39832532 0.35262164 0.2306344 -0.35280886 0.32040703
0.26072705 0.3719584 0.37027508 0.439773 0.36330834 -0.34488556 0.3724694 0.29772437
0.35696322 -0.3949451 0.29518244 0.36389953 0.42082337 0.46273655 0.3375345 0.6052501
0.28298402 0.40002173 0.37588188 0.3511937 0.30792475 0.38906416 0.32160974 0.34124506
0.25493196 0.36476025 0.37888426 0.4067478 0.26460773 0.4435742 0.36897582 0.42765945
0.4756711 0.32206514 0.281097 0.26142272
00000000: b1db 713f db11 973e f58b 9c3e a016 c03e
00000010: ca1b ba3e 5dae d83e 2927 8f3e fe89 bb3e
00000020: 5422 c23e 0762 d2be b8b3 983e 8ec1 703f
00000030: 447e b53e a5a9 a8be d53e d03e 886a 9f3e
00000040: 78fe afbe ad14 b73e 424a c03e 4cf1 cb3e
00000050: d38a b43e 6d2b 6c3e 5da3 b4be 640c a43e
00000060: 047e 853e 5571 be3e b294 bd3e ed29 e13e
00000070: 8d03 ba3e d794 b0be 4fb4 be3e 546f 983e
00000080: e2c3 b63e 3f36 cabe 2722 973e 0a51 ba3e
00000090: 2976 d73e ceeb ec3e 52d1 ac3e acf1 1a3f
000000a0: 48e3 903e a6cf cc3e 9773 c03e a9cf b33e
000000b0: 50a8 9d3e 6b33 c73e 08aa a43e acb7 ae3e
000000c0: 7186 823e dbc1 ba3e 1efd c13e 3f41 d03e
000000d0: aa7a 873e 281c e33e 66ea bc3e 2ef6 da3e
000000e0: 2a8b f33e b9e5 a43e f2eb 8f3e 33d9 853e

features.12.bias f4 [60]
0.097316824 0.003201234 0.01836767 0.076641865 0.09852292 -0.045437105 -0.095343485 0.07560658
0.15619795 0.005549722 0.033080008 0.22827673 0.08790912 -0.03309014 0.06975291 0.06321078
-0.07435954 -0.009647777 0.13291842 0.15944065 0.047902673 -0.031606186 -0.13894334 0.04013144
0.014967371 0.019032894 0.12432341 0.1412373 0.08426353 0.0009086132 0.061233126 -0.013124715
0.10753956 -0.16893688 0.017005436 0.059977256 0.106006324 0.057445716 0.108127385 0.15208116
-0.015208444 0.124989785 0.116235204 0.07884048 0.024601234 0.1005096 0.018768387 0.02447429
-0.034913965 0.019291908 0.06290072 -0.10364012 -0.023760308 0.172746 -0.0021801495 -0.059179526
0.11323123 -0.054182 0.009119656 -0.0038746584
00000000: 0b4e c73d cbcb 513b cc77 963c 69f6 9c3d
00000010: 62c6 c93d 421c 3abd 7243 c3bd 9fd7 9a3d
00000020: 5bf2 1f3e 71da b53b e77e 073d 60c1 693e
00000030: b209 b43d 8789 07bd 9dda 8e3d a774 813d
00000040: d149 98bd b611 1ebc c41b 083e 6944 233e
00000050: 9835 443d 7d75 01bd 2a47 0ebe dd60 243d
00000060: b439 753c dfea 9b3c 469d fe3d 83a0 103e
00000070: 5c92 ac3d 0030 6e3a 96cf 7a3d 0b09 57bc
00000080: b33d dc3d cafd 2cbe fc4e 8b3c b6aa 753d
00000090: d819 d93d 334c 6b3d e471 dd3d 2abb 1b3e
000000a0: d62c 79bc a5fa ff3d b90c ee3d 1e77 a13d
000000b0: 8788 c93c fad7 cd3d 29c0 993c 4e7e c83c
000000c0: f201 0fbd 100a 9e3c 18d2 803d 4541 d4bd
000000d0: faa4 c2bc 54e4 303e d7e0 0ebb 3b66 72bd
000000e0: c6e5 e73d f2ed 5dbd 9c6a 153c fbed 7dbb
