best_parameters_silu.pt (torch, 450577 bytes, 117 tensors)

features.0.weight f4 [70, 31]
-0.23417793 0.2094344 0.0031143455 -0.108339734 0.0019440309 -0.018328128 0.020781277 0.005622708
-0.11885575 -0.027638566 0.025464918 0.024053393 -0.028776787 0.013238516 -0.010938618 -0.0033727826
-0.008071592 0.012511783 -0.040915705 0.014511894 -0.017811686 -0.0252123 -0.01068127 -0.003354386
-0.10708082 -0.044779714 -0.16088872 0.3102799 -0.004820098 -0.08119086 0.0014119552 0.0005792388
-0.009631327 -0.11025643 -0.021275856 -0.3557599 0.025913328 -0.0899706 0.16497764 7.0508246
-0.0686085 -2.188535 -1.5145158 -0.045866456 -0.19709487 0.24218154 0.07572114 -0.06219175
0.14308569 0.010374642 0.21012627 0.1737375 -0.0699749 0.110818386 0.00037012904 0.00017374622
0.00035068288 9.583137e-05 0.016861845 -0.16008289 -0.01232359 -0.07355396 0.026296366 -0.061350744
0.0009816012 0.30941203 -0.0001019819 0.024221262 0.04057153 0.015047356 0.15426941 -0.023755845
0.022130724 0.009880272 0.027328974 -0.0017866505 -0.0074446066 -0.0072933473 0.020733291 0.045158908
0.0060873698 0.012750354 0.03001464 0.024250716 0.016304875 -0.051370863 0.034310307 -0.040910892
-0.209521 0.09930552 -0.007374045 0.07251181 0.0019764893 -0.26374793 0.3387197 -0.0012351489
0.025767721 0.007010768 -0.015578113 6.0991275e-05 -0.013526517 0.06337017 -0.010234833 -0.0023144872
-0.005317833 0.0065022083 -0.001390069 0.00181782 0.0121821435 0.0050217095 -0.014286559 -0.01327434
-0.0023369803 -0.002074877 -0.0009880966 -0.0026062357 -0.19803888 -0.2360865 -0.0020708498 -0.010123944
-0.1267621 0.0058439765 0.00728177 -0.0017030962 -0.0074176807 0.014669493 0.0026523792 0.014663349
0.0035541928 0.0007270659 -0.0006979292 -0.0015829477 -0.0015757483 0.00024239391 0.0015807746 0.001980117
0.000105698586 -0.0011079808 -0.0015694123 0.001403958 0.0018780967 -0.0020132402 -0.00093653845 -0.0005426004
-0.0004206742 0.00011603413 0.00090228993 -0.0014716767 0.0042718644 -0.01316215 -0.006757732 -0.014637156
-0.0008685909 0.012735693 0.0009722175 -0.011678534 -0.010635893 9.35223e-05 0.0007064706 -0.003639581
-0.007119361 -0.0051059504 -0.0008716203 -0.01280488 -0.016602887 -0.011422939 -0.010788826 -0.009256464
-0.008370171 -0.0071366997 -0.008287676 -0.008945488 -0.008345277 -0.008270346 -0.0057113133 -0.008503775
-0.008482912 -0.008034244 -0.011451821 0.01577331 -0.016525423 -0.01999263 -0.024579233 0.00012771333
-0.013291526 -9.311904e-05 -0.17608824 0.14758496 -0.0050567975 0.012308284 0.0026857846 0.022794107
-0.003955528 -0.00053361064 -0.2604721 0.0257485 0.045977887 0.037097618 -0.017420404 0.006362942
-0.008429679 0.00041667762 -0.017617255 -0.011188933 -0.01562518 -0.0019257352 -0.005950519 -0.0148558635
-0.011590751 -0.006589852 0.03482632 -0.47823837 -0.26448157 0.19640954 0.0027023964 -0.010493264
-0.00048367033 0.00023844047 0.006085294 0.012268846 0.01127049 -0.13433777 0.30510962 0.1202821
0.054516528 0.101805404 -0.82057226 6.1099787 6.1148643 0.09437291 0.1582027 0.19048226
0.27414656 0.22589381 0.07201403 0.109796524 0.05327691 0.29067433 0.20805608 0.2644927
-0.0005058358 0.00032673246 0.00034607013 0.00033092411 0.022937302 -0.053003088 0.01882022 0.051952552
-0.0007060619 -0.19716941 -1.2988364e-30 -0.14634341 -2.5976729e-30 -0.09132551 0.021490365 -0.0061467183
00000000: 57cc 6fbe f975 563e 0c1a 4c3b 39e1 ddbd
00000010: dace fe3a df24 96bc 7f3d aa3c b13e b83b
00000020: a56a f3bd 466a e2bc ce9b d03c 9f0b c53c
00000030: 4cbd ebbc 5ce6 583c e437 33bc e709 5dbb
00000040: b63e 04bc 39fe 4c3c 3a97 27bd 4cc3 6d3c
00000050: d0e9 91bc 068a cebc 7e00 2fbc 42d5 5bbb
00000060: 304d dbbd ef6a 37bd 03c0 24be 02dd 9e3e
00000070: eaf1 9dbb 6547 a6bd 5b11 b93a 0fd8 173a
00000080: b7cc 1dbc 20ce e1bd b44a aebc 2926 b6be
00000090: 3048 d43c 8242 b8bd e6ef 283e 5ba0 e140
000000a0: 9d82 8cbd f510 0cc0 a7db c1bf 77de 3bbd
000000b0: 3dd3 49be 70fe 773e af13 9b3d c7bc 7ebd
000000c0: 0e85 123e 67fa 293c 572b 573e 3ee8 313e
000000d0: 004f 8fbd c0f4 e23d e10d c239 a52f 3639
000000e0: dcdb b739 13f9 c838 da21 8a3c c5ec 23be
000000f0: e2e8 49bc 75a3 96bd 7a6b d73c eb4a 7bbd
00000100: 12a9 803a 416b 9e3e 1edf d5b8 ab6b c63c
00000110: 552e 263d 2f89 763c cdf8 1d3e 9e9b c2bc
00000120: 7e4b b53c dde0 213c 03e1 df3c 0b2e eaba
00000130: e3f1 f3bb 08fd eebb ddd8 a93c 8cf8 383d
00000140: 8f78 c73b dce6 503c 43e1 f53c 70a9 c63c
00000150: cd91 853c 416a 52bd f788 0c3d 2e92 27bd
00000160: ac8c 56be b160 cb3d f9a1 f1bb 1281 943d
00000170: fd87 013b f809 87be ab6c ad3e b8e4 a1ba
00000180: d416 d33c 96ba e53b 573b 7fbc e2d0 7f38
00000190: 539e 5dbc 38c8 813d 00b0 27bc a7ae 17bb
000001a0: 3741 aebb 7a10 d53b fa32 b6ba eb43 ee3a
000001b0: 9d97 473c 278d a43b 2c12 6abc 9e7c 59bc
000001c0: 0628 19bb a9fa 07bb 0583 81ba 61cd 2abb
000001d0: b4ca 4abe a9c0 71be 18b7 07bb e6de 25bc
000001e0: edcd 01be d47e bf3b ea9b ee3b 6d3a dfba
000001f0: 0410 f3bb 5058 703c 8ad3 2d3b 8b3e 703c
00000200: 76ed 683b 9198 3e3a 3cf5 36ba e97a cfba
00000210: 5789 ceba 1f2b 7e39 fe31 cf3a dac4 013b
00000220: 7faa dd38 ab39 91ba bdb4 cdba 0305 b83a
00000230: 782a f63a 91f0 03bb 0882 75ba 4c3d 0eba
00000240: ef8d dcb9 5957 f338 a787 6c3a 47e5 c0ba
00000250: fffa 8b3b 0fa6 57bc f76f ddbb afd0 6fbc
00000260: 26b2 63ba 5ea9 503c 69dc 7e3a 5257 3fbc
00000270: 2b42 2ebc 6721 c438 7032 393a 0986 6ebb
00000280: 8749 e9bb d14f a7bb 737d 64ba 8fcb 51bc
00000290: c702 88bc 4727 3bbc 9ec3 30bc 6da8 17bc
000002a0: 0b23 09bc fada e9bb 08c9 07bc 1990 12bc
000002b0: a1ba 08bc 5880 07bc f825 bbbb 6b53 0bbc
000002c0: e9fb 0abc 10a2 03bc 6ba0 3bbc 0737 813c
000002d0: 5360 87bc 96c7 a3bc 635a c9bc c9ea 0539
000002e0: b3c4 59bc e748 c3b8 7a50 34be 8320 173e
000002f0: 7eb3 a5bb afa8 493c fd03 303b b5ba ba3c
00000300: 609d 81bb 01e2 0bba 995c 85be 85ee d23c
00000310: 4f53 3c3d acf3 173d 3cb5 8ebc 3a80 d03b
00000320: a31c 0abc 8675 da39 1052 90bc c951 37bc
00000330: 6100 80bc f368 fcba 92fc c2bb 0266 73bc
00000340: 22e7 3dbc afef d7bb 0ba6 0e3d a9db f4be
00000350: 216a 87be 951f 493e b01a 313b f0eb 2bbc
00000360: 2295 fdb9 e005 7a39 2567 c73b 4503 493c
00000370: dca7 383c d78f 09be 5437 9c3e 7656 f63d
00000380: b94c 5f3d 5a7f d03d 0611 52bf f284 c340
00000390: f8ac c340 9646 c13d e3ff 213e c80d 433e
000003a0: f05c 8c3e b550 673e 177c 933d 00dd e03d
000003b0: e438 5a3d 44d3 943e a70c 553e 966b 873e
000003c0: 119a 04ba 4a4d ab39 bf70 b539 e27f ad39
000003d0: 02e7 bb3c c419 59bd dd2c 9a3c 33cc 543d
000003e0: 0317 39ba c7e6 49be 8ebf d28d 0cdb 15be
000003f0: 8ebf 528e de08 bbbd 900c b03c 696a c9bb

features.0.bias f4 [70]
-0.0035202017 -0.38847187 0.0030743757 -0.004262728 -0.0002739066 -0.006348491 -0.0010112036 0.77064127
-0.0052085933 -0.005386355 -0.0037541364 0.24525787 0.14571634 0.09193705 -0.047614306 -0.006229031
-0.028220113 0.0067622536 -0.00043177267 -0.0051996266 0.0025026256 0.0027937237 0.00015184935 -0.029719178
0.06859586 0.012079352 -0.0016811634 -0.004554957 -0.01196951 0.004312148 -0.07865006 0.43610463
0.0045860554 0.00066207955 -0.0010460444 0.006094737 1.116996 -0.41600162 -0.54052794 -0.0014940718
-0.0007901461 0.0013850629 -0.0019527017 0.25207075 0.004196562 -0.0010167443 -0.8254758 0.0028226501
-0.002411825 -0.0054664905 0.62958235 0.0017141043 0.0028892122 0.014789859 -0.29578525 -0.019236693
-0.00024925423 -0.43311736 0.012266995 0.0117946165 -0.0062841172 0.0006550261 -0.0038809031 -0.001354414
0.23902296 -0.0035845581 -0.036371455 0.018538669 6.594538e-05 -0.004075593
00000000: 2fb3 66bb c9e5 c6be 777b 493b 5bae 8bbb
00000010: 1f9b 8fb9 0107 d0bb 5d8a 84ba bf48 453f
00000020: d9ac aabb 0580 b0bb f507 76bb e124 7b3e
00000030: aa36 153e 7e49 bc3d 3807 43bd e61c ccbb
00000040: de2d e7bc e595 dd3b 8c5f e2b9 a161 aabb
00000050: 1703 243b e816 373b c039 1f39 a275 f3bc
00000060: fc7b 8c3d 79e8 453c 7c5a dcba c041 95bb
00000070: c31b 44bc eb4c 8d3b 4813 a1bd 1b49 df3e
00000080: 9f46 963b 688f 2d3a 6d1b 89ba 5cb6 c73b
00000090: baf9 8e3f 2afe d4be 0a60 0abf bbd4 c3ba
000000a0: cf21 4fba 008b b53a ccf1 ffba 6b0f 813e
000000b0: 5083 893b 4744 85ba 6252 53bf 36fc 383b
000000c0: b50f 1ebb 3f20 b3bb 4f2c 213f ccab e03a
000000d0: f058 3d3b 2a51 723c 2a71 97be 4596 9dbc
000000e0: 56ae 82b9 8fc1 ddbe 82fb 483c 353e 413c
000000f0: ffea cdbb 0fb6 2b3a c056 7ebb 9886 b1ba
00000100: 6fc2 743e e8ea 6abb 3cfa 14bd 68de 973c
00000110: 284c 8a38 8d8c 85bb

features.2.weight f4 [70, 70]
0.008294935 -0.4060306 -0.06766059 0.06711546 0.0036552558 -0.003533444 -0.040431384 -9.069724e-16
0.03457843 -0.004193619 0.013129593 -0.07640147 -0.07510232 6.2626004e-19 1.4204876e-11 0.068065464
-0.015196046 0.016776472 0.016239742 4.0139688e-13 0.0074151056 -0.005353125 -0.027768143 -0.04959243
-0.049800053 0.006089527 0.0034325987 0.09718317 0.12352951 -0.06299164 0.21613282 -0.0067793974
-0.1807354 -0.13525654 0.015145378 -0.0065500718 -0.6403926 -1.3992801 0.19357829 0.048063684
-0.07765222 -0.04721634 -0.011168025 -0.13221405 0.019449545 -5.1733732e-05 0.20270193 -0.06682215
0.024020202 -0.005868057 -0.41007066 0.07464914 0.030138241 0.09079792 0.4211298 -0.015280078
0.0003603971 -0.008732135 -0.00014721791 -4.927046e-19 -0.04375209 0.0141558815 0.014044228 0.00037383006
-8.799509e-19 0.10017899 0.014163477 -0.022919707 -0.16637851 -0.00603414 -0.06540231 -0.084538445
-0.034787055 0.0178534 -0.0086290995 -0.018281488 0.0013554472 0.40176755 0.022112282 0.080980934
0.003803102 0.10335301 0.31052914 -0.61305904 0.03673976 0.019576194 0.060736854 -0.03801801
-0.002775481 -0.08886941 -0.0635058 -0.0012202233 0.032247026 -0.053084414 0.07667739 -0.028366659
-0.00021205223 0.024175616 -0.12953973 0.04435513 -0.050596736 0.35295478 -0.05244581 0.049082097
0.017973367 -0.051888246 0.54671407 0.23767912 -0.16101286 0.10072736 -0.12820333 0.0076226117
0.058652516 0.009588596 -0.07335106 -0.001187876 -0.031624787 -0.01776738 0.0018907468 0.018556267
0.13084638 0.039685898 0.04722242 -0.032810945 -0.34721947 0.011276515 4.997029e-05 -0.096494175
0.086357966 -0.067948565 0.004321941 -0.010091403 0.14509156 0.036387924 0.40475276 0.064452656
0.009047628 -0.17832832 -0.027706027 0.03826638 -0.095338255 0.28893498 0.06466969 0.09205825
-0.0044989553 -0.008704534 -0.068080366 0.10095592 -0.03463916 -0.041394476 0.01270107 -0.15450658
0.003962536 -0.1800151 0.07603821 -0.02559268 -0.025855346 0.0064088004 -0.054500487 0.084508784
0.008795541 -0.004193489 0.027655926 0.032520246 0.032219026 0.027467515 0.02481525 0.16407181
-0.0049100444 0.03429484 -0.08221548 -0.030524356 -0.05906019 0.0006582361 0.08650574 -0.01918903
-1.0964029 -0.12073363 -0.026802853 -0.16068801 -0.06954814 0.01772831 -0.025756495 -0.039628237
-0.07020846 -0.0043031652 0.10851035 -0.021027714 0.0044379616 -0.026937798 -0.02626464 0.025501348
-0.026089972 0.09106643 0.04829942 -0.026413452 -0.006208177 -0.49523672 0.044671007 -0.12019974
-0.06785309 0.016494114 0.0066658673 -0.0031974409 -0.05921276 -0.06534257 -0.0116580045 -0.115918346
-0.044307925 0.1424897 0.104772516 0.1297843 -0.043982994 0.080982015 0.0016057417 -0.0073847147
-0.026027087 -0.077713385 0.05965585 -0.034251187 -0.044680078 0.25610363 0.18081729 -0.057967488
-0.056174308 0.015646173 -0.06921517 0.100867614 -0.041728325 0.039847493 -0.021836951 -0.005771918
-0.071205944 -0.052259754 0.07768486 -0.03202516 0.008729434 -0.076429084 0.03951989 -0.0693287
0.0738517 0.6370887 0.048765022 0.03200908 -0.012296971 0.03140915 1.0151849 -0.05682098
-0.085657716 0.008983616 -0.18405342 -0.03617024 -0.016558468 0.075541824 0.11881641 -0.0024468931
00000000: 7be7 073c 3ee3 cfbe a391 8abd d573 893d
00000010: 048d 6f3b 5a91 67bb 619b 25bd 60b5 82a6
00000020: 1da2 0d3d a06a 89bb 811d 573c 6078 9cbd
00000030: 3fcf 99bd dfd6 3821 13e5 792d e865 8b3d
00000040: d6f8 78bc d06e 893c 3509 853c 63f7 e12a
00000050: 6afa f23b 4469 afbb 047a e3bc 6f21 4bbd
00000060: 24fb 4bbd a88a c73b 73f5 603b f807 c73d
00000070: 0afd fc3d c301 81bd ec51 5d3e b525 debb
00000080: b312 39be b180 0abe 5224 783c fca1 d6bb
00000090: c5f0 23bf 9c1b b3bf 6339 463e 6dde 443d
000000a0: 2108 9fbd ec65 41bd 18fa 36bc 1f63 07be
000000b0: a754 9f3c acfc 58b8 1891 4f3e 0dda 88bd
000000c0: 04c6 c43c d448 c0bb c8f4 d1be a6e1 983d
000000d0: 79e4 f63c 43f4 b93d 539e d73e 4b59 7abc
000000e0: aef3 bc39 3b11 0fbc 825e 1ab9 b56b 11a1
000000f0: 6435 33bd 12ee 673c c319 663c 9ffe c339
00000100: 9bdb 81a1 a42a cd3d ee0d 683c 1cc2 bbbc
00000110: 215f 2abe 09ba c5bb a5f1 85bd 7e22 adbd
00000120: df7c 0ebd 4b41 923c 1161 0dbc 0fc3 95bc
00000130: 43a9 b13a 7ab4 cd3e d124 b53c 55d9 a53d
00000140: 773d 793b beaa d33d adfd 9e3e 70f1 1cbf
00000150: 6e7c 163d 415e a03c 35c7 783d c6b8 1bbd
00000160: d8e4 35bb 2a01 b6bd 540f 82bd e6ef 9fba
00000170: 7515 043d 0b6f 59bd 0909 9d3d 3261 e8bc
00000180: 565a 5eb9 f10b c63c 10a6 04be baad 353d
00000190: 863e 4fbd 7db6 b43e 6bd1 56bd 4f0a 493d
000001a0: e23c 933c c588 54bd 74f5 0b3f 2862 733e
000001b0: 8ee0 24be 254a ce3d bc47 03be 1ac7 f93b
000001c0: 9f3d 703d 7d19 1d3c 1539 96bd 81b2 9bba
000001d0: fe88 01bd e68c 91bc efd2 f73a 5003 983c
000001e0: 98fc 053e ae8d 223d 4c6c 413d c564 06bd
000001f0: c0c6 b1be 22c1 383c 3197 5138 bd9e c5bd
00000200: 72dc b03d 9e28 8bbd 129f 8d3b 6956 25bc
00000210: e292 143e 810b 153d c13b cf3e c1ff 833d
00000220: 813c 143c b39b 36be c0f7 e2bc 35bd 1c3d
00000230: b440 c3bd 49ef 933e 8b71 843d 0989 bc3d
00000240: f96b 93bb 769d 0ebc b86d 8bbd fac1 ce3d
00000250: cbe1 0dbd 418d 29bd 2618 503c f936 1ebe
00000260: 29d8 813b e155 38be ecb9 9b3d bda7 d1bc
00000270: 97ce d3bc ea00 d23b e73b 5fbd f112 ad3d
00000280: 2c1b 103c 8969 89bb ae8e e23c f333 053d
00000290: 19f8 033d 8e03 e13c 5a49 cb3c 7102 283e
000002a0: 70e4 a0bb bf78 0c3d 9760 a8bd 370e fabc
000002b0: 19e9 71bd 7a8d 2c3a ec29 b13d 5032 9dbc
000002c0: ee56 8cbf 3243 f7bd a891 dbbc 668b 24be
000002d0: 416f 8ebd f63a 913c 49ff d2bc 3851 22bd
000002e0: 74c9 8fbd 9101 8dbb ad3a de3d 5042 acbc
000002f0: 526c 913b a8ac dcbc f128 d7bc 34e8 d03c
00000300: a3ba d5bc 0981 ba3d 9dd5 453d 0661 d8bc
00000310: f76d cbbb ab8f fdbe f2f8 363d 482b f6bd
00000320: 90f6 8abd aa1e 873c 596d da3b 288c 51bb
00000330: 1489 72bd 53d2 85bd 3701 3fbc 9966 edbd
00000340: 3a7c 35bd d2e8 113e f992 d63d 2de6 043e
00000350: 8327 34bd e6d9 a53d c077 d23a 7afb f1bb
00000360: c236 d5bc 3228 9fbd b159 743d f94a 0cbd
00000370: 7502 37bd 0420 833e 2b28 393e 516f 6dbd
00000380: 0817 66bd 672c 803c afc0 8dbd ae93 ce3d
00000390: 52eb 2abd 2037 233d 68e3 b2bc 5c22 bdbb
000003a0: 6cd4 91bd 530e 56bd 3d19 9f3d d02c 03bd
000003b0: e605 0f3c da86 9cbd 9cdf 213d 35fc 8dbd
000003c0: 8f3f 973d 3f18 233f d5bd 473d f41b 033d
000003d0: 3c79 49bc e2a6 003d 94f1 813f 1ebd 68bd
000003e0: 506d afbd 0430 133c 8078 3cbe 3f27 14bd
000003f0: a0a5 87bc acb5 9a3d 0556 f33d 0e5c 20bb

features.2.bias f4 [70]
-0.065345146 0.00063889666 -0.0006404848 0.001717547 0.0007461735 0.0135424165 0.0009689472 0.08410157
0.00073513895 0.02608992 -0.0023398502 -0.008522254 0.0077489335 -0.0004742192 -0.00028889498 -0.027660394
-0.23903035 0.002294426 -0.004888804 -0.005312317 -2.6446567e-06 0.01631199 0.0024033368 -0.02365642
0.0026412655 -0.11011529 0.056706525 -0.0008374644 -0.03045938 -0.007547207 0.09727204 0.030655816
-0.0077908654 -0.12979689 -0.10917369 -0.04512899 -0.00010294828 -0.059666537 -0.109629095 -0.017777316
-0.064348355 -0.049060695 -0.0015219871 -0.028326886 -0.00026895292 -0.061306763 0.052443605 -0.13858047
0.0014626627 -0.13688743 -0.17776753 0.13461933 -0.0010760882 0.00086993916 -0.040236313 0.012848304
-0.12217148 -0.02850012 0.00015600941 -0.00443815 0.019486377 -0.03112491 0.04219385 -0.01742024
-0.03626604 0.011793917 0.020124357 -0.013607092 0.034102663 0.0015171746
00000000: add3 85bd a17b 273a 35e6 27ba 501f e13a
00000010: db9a 433a 03e1 5d3c f200 7e3a 723d ac3d
00000020: 57b6 403a 87ba d53c 2c58 19bb eda0 0bbc
00000030: c4ea fd3b a0a0 f8b9 d476 97b9 0d98 e2bc
00000040: 5fc4 74be 155e 163b 4332 a0bb f212 aebb
00000050: db7a 31b6 b9a0 853c 4d81 1d3b 1ccb c1bc
00000060: 1519 2d3b 2084 e1bd 1a45 683d 4989 5bba
00000070: f385 f9bc 904e f7bb 9036 c73d e821 fb3c
00000080: 844a ffbb 7ae9 04be 7596 dfbd 2dd9 38bd
00000090: f0e5 d7b8 e664 74bd 3885 e0bd bca1 91bc
000000a0: 12c9 83bd def3 48bd 6a7d c7ba c90d e8bc
000000b0: 4002 8db9 cd1c 7bbd 1bcf 563d 0ae8 0dbe
000000c0: d1b6 bf3a 382c 0cbe b108 36be a6d9 093e
000000d0: 870b 8dba a10c 643a d5ce 24bd b181 523c
000000e0: 0a35 fabd 1579 e9bc 7596 2339 e76d 91bb
000000f0: e5a1 9f3c abf9 febc 75d3 2c3d e4b4 8ebc
00000100: b38b 14bd 463b 413c d6db a43c 48f0 5ebc
00000110: 3caf 0b3d efdb c63a

features.4.weight f4 [70]
1.241088 1.0092748 0.711534 0.8791304 0.72774965 1.289585 0.72220683 1.5538853
0.9115019 1.0421222 1.1716757 1.0200192 1.1096703 0.87435645 0.9979818 1.0910887
1.8741913 0.82991195 1.0264117 0.72976977 0.70445824 0.91358745 0.86356366 1.1860448
0.84419674 1.1761465 1.0954846 0.84381217 1.2084476 0.9486637 1.7766801 1.0855266
1.0294645 1.6025064 1.1622415 1.1667709 0.72525 0.85958254 1.7049296 0.75942814
1.2986953 0.96743184 1.0488023 0.8125788 0.8762766 1.222815 1.5099416 1.3666409
0.8550912 1.1592233 1.512991 1.3380325 0.7857687 0.9102973 1.1766065 1.3517104
0.9854897 1.4182087 0.7206283 1.0239048 0.9491148 1.7035812 1.1435387 1.516123
0.8658967 0.9324106 1.0305055 0.8917397 0.99360883 0.95890594
00000000: f9db 9e3f eb2f 813f 1827 363f b10e 613f
00000010: cd4d 3a3f 1f11 a53f 8ce2 383f b7e5 c63f
00000020: 3058 693f 4364 853f 78f9 953f fd8f 823f
00000030: ad09 8e3f d3d5 5f3f bc7b 7f3f cba8 8b3f
00000040: 80e5 ef3f 1c75 543f 7561 833f 31d2 3a3f
00000050: 6057 343f dee0 693f 8212 5d3f 51d0 973f
00000060: 471d 583f f88b 963f d738 8c3f 1304 583f
00000070: 69ae 9a3f a0db 723f 416a e33f 89f2 8a3f
00000080: 7ec5 833f ee1e cd3f 54c4 943f c058 953f
00000090: fca9 393f 9a0d 5c3f 223b da3f e269 423f
000000a0: a63b a63f 9da9 773f 273f 863f 2a05 503f
000000b0: aa53 603f 3485 9c3f c445 c13f 17ee ae3f
000000c0: 42e7 5a3f 6e61 943f b0a9 c13f a644 ab3f
000000d0: 2328 493f 3e09 693f 0b9b 963f d904 ad3f
000000e0: 0e49 7c3f dd87 b53f 197b 383f 500f 833f
000000f0: 30f9 723f f30e da3f 7a5f 923f 5210 c23f
00000100: 68ab 5d3f 76b2 6e3f 9be7 833f 0e49 643f
00000110: 265d 7e3f dc7a 753f

features.4.bias f4 [70]
0.4530598 0.3981449 0.25615796 0.1730225 0.26700002 0.43583396 0.23330225 0.7626505
-0.20134793 0.6083716 0.40469298 0.18446337 0.4314083 -0.16413593 0.4094357 0.22871494
1.135206 -0.07595311 0.5565334 -0.50095516 -0.43832123 0.37386334 0.1642459 0.5639239
-0.07799657 0.39726502 0.495357 0.11608425 0.23135063 -0.3227918 0.6639571 0.43386823
0.44230008 1.052612 0.4537483 0.4018884 -0.47533962 0.20534313 0.54224163 0.08995198
0.25135958 0.44666845 0.14437282 0.412444 0.22324683 0.53615767 0.594263 0.5687146
0.16067418 0.3359029 0.4736515 0.6035692 -0.006915568 -0.33205333 0.30372104 0.4474163
0.3441349 0.66479355 0.23872875 0.4683579 0.50678253 0.42181417 0.66241336 0.42906237
0.37827766 0.5204903 0.5291485 0.37031457 0.6343546 0.3898613
00000000: 74f7 e73e a6d9 cb3e 2327 833e cf2c 313e
00000010: 3ab4 883e a125 df3e c9e6 6e3e 103d 433f
00000020: 272e 4ebe 3ebe 1b3f eb33 cf3e f7e3 3c3e
00000030: 8ce1 dc3e 4013 28be 8ea1 d13e 4034 6a3e
00000040: 6e4e 913f 4e8d 9bbd f978 0e3f 993e 00bf
00000050: a46b e0be 046b bf3e 1430 283e 515d 103f
00000060: aabc 9fbd 5266 cb3e 6f9f fd3e 94bd ed3d
00000070: 2ee7 6c3e f844 a5be 18f9 293f fa23 de3e
00000080: 2875 e23e fdbb 863f b251 e83e 51c4 cd3e
00000090: b75f f3be 7845 523e 59d0 0a3f be38 b83d
000000a0: 34b2 803e bab1 e43e 78d6 133e dc2b d33e
000000b0: d19a 643e a141 093f 9f21 183f 4897 113f
000000c0: c687 243e 77fb ab3e 7382 f23e 8383 1a3f
000000d0: fd9b e2bb e502 aabe 5381 9b3e c013 e53e
000000e0: 7332 b03e e92f 2a3f 4f75 743e 9bcc ef3e
000000f0: 80bc 013f 07f8 d73e ec93 293f 10ae db3e
00000100: 9cad c13e da3e 053f 4776 073f df99 bd3e
00000110: 1065 223f e69b c73e

features.4.running_mean f4 [70]
6.9582705 190.57925 22.818089 208.14116 23.72953 4.1793895 18.881128 13.091947
90.90369 17.411287 11.705986 1.3772842 7.932408 106.99813 182.71599 1.9501594
23.852634 209.23006 16.764244 189.87138 194.88925 10.807718 204.04066 11.31934
212.32098 4.087782 10.558449 152.38898 2.103499 118.511925 5.3901334 12.9018135
7.129019 32.058193 7.522914 6.188372 191.03967 6.541102 1.9275191 3.2478743
1.6227372 9.482127 1.4502708 17.484549 164.59135 10.873529 10.521792 10.806683
200.97858 9.403536 0.6970088 4.5302577 137.11938 113.73926 4.2427945 5.538845
6.4644456 9.869169 22.630434 8.3967 13.630112 3.2789383 16.138807 9.285998
23.654879 12.859 16.203026 7.1474404 20.040186 5.779508
00000000: 27aa de40 4a94 3e43 728b b641 2324 5043
00000010: 14d6 bd41 8fbd 8540 8d0c 9741 9d78 5141
00000020: b0ce b542 514a 8b41 b84b 3b41 d94a b03f
00000030: 49d6 fd40 0bff d542 4bb7 3643 d39e f93f
00000040: 32d2 be41 e53a 5143 2c1d 8641 13df 3d43
00000050: a6e3 4243 6aec 2c41 690a 4c43 041c 3541
00000060: 2c52 5443 1ccf 8240 68ef 2841 9463 1843
00000070: ba9f 0640 1b06 ed42 f97b ac40 d46d 4e41
00000080: ec20 e440 973b 0042 b6bb f040 2507 c640
00000090: 280a 3f43 b550 d140 f2b8 f63f 2cdd 4f40
000000a0: dab5 cf3f cbb6 1741 79a2 b93f 5be0 8b41
000000b0: 6397 2443 faf9 2d41 4359 2841 2ce8 2c41
000000c0: 84fa 4843 e274 1641 2b6f 323f dff7 9040
000000d0: 901e 0943 807a e342 f9c4 8740 383e b140
000000e0: bddc ce40 1ee8 1d41 210b b541 e258 0641
000000f0: f014 5a41 20da 5140 471c 8141 7393 1441
00000100: 313d bd41 77be 4d41 cc9f 8141 d5b7 e440
00000110: 4d52 a041 bbf1 b840

features.4.running_var f4 [70]
208.37721 1251.4829 596.27246 1546.1028 634.31116 104.56838 442.20056 364.31284
547.09705 390.75406 406.3681 35.891953 157.49484 595.06366 1119.7954 51.654514
1346.9419 1289.992 434.96106 1385.835 1084.3458 161.62949 1591.706 365.5181
1355.2683 84.44983 226.83067 555.8486 63.87699 601.4212 139.67545 486.49673
122.25502 1696.2504 167.37602 167.39105 1109.4556 111.0625 33.341946 37.54936
49.884373 184.09195 19.357203 197.24532 767.85297 323.62766 353.55606 356.60226
1547.327 197.25923 4.689586 76.06124 416.84155 547.3065 113.76526 117.556015
101.131226 260.88446 597.9227 146.71562 293.24295 124.88267 448.33728 562.1015
810.11066 301.2954 511.22324 116.58851 424.29126 99.90929
00000000: 9160 5043 746f 9c44 7011 1544 4a43 c144
00000010: ea93 1e44 0323 d142 ac19 dd43 0b28 b643
00000020: 36c6 0844 8560 c343 1e2f cb43 5c91 0f42
00000030: ae7e 1d43 13c4 1444 74f9 8b44 399e 4e42
00000040: 245e a844 be3f a144 047b d943 b83a ad44
00000050: 118b 8744 26a1 2143 98f6 c644 51c2 b643
00000060: 9668 a944 50e6 a842 a7d4 6243 4ff6 0a44
00000070: 0a82 7f42 f55a 1644 eaac 0b43 953f f343
00000080: 9282 f442 0308 d444 4360 2743 1c64 2743
00000090: 94ae 8a44 0020 de42 275e 0542 8b32 1642
000000a0: 9989 4742 8a17 3843 8ddb 9a41 cd3e 4543
000000b0: 97f6 3f44 57d0 a143 2dc7 b043 174d b243
000000c0: 776a c144 5d42 4543 1711 9640 5b1f 9842
000000d0: b86b d043 9ed3 0844 d087 e342 ae1c eb42
000000e0: 3043 ca42 3671 8243 0e7b 1544 33b7 1243
000000f0: 199f 9243 edc3 f942 2c2b e043 7f86 0c44
00000100: 1587 4a44 d0a5 9643 939c ff43 512d e942
00000110: 4825 d443 8ed1 c742

features.6.weight f4 [65, 70]
0.097848095 -0.09204916 -0.11513018 0.0885728 -0.110507034 -0.26204094 -0.08604079 -0.49719635
0.13497852 -0.9496694 -0.08317348 -0.14938991 -0.36657912 0.22298834 -0.09086868 -0.020935649
-0.08201382 0.14072777 -0.09640053 0.08747667 0.06798452 -0.106237054 0.0669355 -0.5415451
0.13336836 -0.43273708 0.017289331 -0.13742933 -0.0027438886 0.3328598 -0.052955616 -0.040922936
0.075281814 -0.03235588 -0.16149381 0.026335878 0.09585419 0.07831004 -0.05341034 -0.06243607
0.1140752 -0.88936025 0.09391741 -0.29980052 -0.068320535 -0.3909884 -0.16994558 -0.045822404
0.064155415 -0.029411167 0.35595384 -0.04243035 -0.017776882 0.17882344 0.07811985 0.15663698
0.117376395 -0.20574737 -0.10787909 0.057226174 -0.8110243 0.048533387 -0.09080392 0.08952739
-0.043249 -0.23611054 -0.061937172 0.12854855 -0.9958787 -0.018904062 0.0035046767 0.038764358
0.12415076 0.016648553 0.119942725 0.094727546 0.11829216 -0.0036401728 -0.071903914 -0.053802628
0.002239352 0.024824886 0.040456448 -0.07820453 0.03562216 -0.0865805 -0.022241572 0.049465947
0.021198528 0.03337582 0.02210417 -0.049797576 0.018715085 -0.016552335 0.04954677 0.00033461244
-0.018782616 0.021786517 0.007730104 -0.081220545 0.34903553 -0.012895749 -0.017732745 0.047862235
-0.0120850485 -0.6442535 0.019573951 0.010422867 0.31678712 0.2487412 -0.09773068 -0.084508024
0.02846692 0.13039705 0.1495346 -0.061500933 -0.023035888 0.030652441 0.015953913 -0.16600175
0.09556267 -0.052960195 -0.117946334 -0.056125134 0.5199337 -0.08607849 0.035024475 -0.527956
0.12889768 -0.036804967 -0.040951572 0.068766914 0.045095783 -0.94568795 -0.009777129 0.046806302
0.036327627 0.004335706 -0.05472616 0.2008266 -0.21318747 -0.15214694 -0.32497582 -0.09171822
-0.33620977 -1.5848148 -0.3204274 -0.11040278 0.01855372 -0.026114294 -0.23039813 -0.16215011
-0.30689377 0.0073488224 -0.15511656 0.03777792 -0.08081167 -0.019011317 -0.41804373 -0.031657267
-0.04900003 -0.3884269 -0.0580776 0.014613293 -0.01344002 -0.045837294 0.0053530755 -0.021239622
-0.30966923 -0.0218866 0.08922842 -0.39344373 -0.006341212 -0.62144655 0.028325645 -0.30979702
-0.02235735 -0.013001588 -0.11532145 -0.1901247 -0.16065387 0.22594625 0.101862416 -0.47851336
-0.111991055 -0.17817414 -0.030038944 -0.21788025 -0.08571682 0.016458144 0.008890321 -1.375538e-06
-0.09746639 0.011023801 -0.28006205 -0.38556513 -0.39967605 0.024214977 -0.33742738 0.0033387633
-0.08903768 0.0023914797 -0.077837475 -0.35552418 -0.09865843 -0.0009510703 -0.42209166 -0.027341738
-0.045382258 -0.0109765595 0.039821923 0.21268801 -0.07310718 0.5197391 -0.121242106 -0.37195262
-0.46358088 -0.63779825 0.27983192 -0.4182211 0.18672746 0.02142777 -0.018448813 0.16293815
0.20856187 -0.028265461 -0.38302866 -0.1999691 -0.50767183 -0.20192215 0.15716226 -0.65607345
0.51323295 -0.3231674 -0.25045812 0.07592906 -0.412467 -0.13014407 -0.09973878 -0.11181896
0.10914473 0.049916912 -0.3314561 0.021659901 -0.17700705 -0.23571219 -0.17639926 -0.22584055
-0.2176818 -0.16602649 -0.31488207 0.072886534 -0.2116601 -0.56344485 0.037483774 -0.04109763
00000000: 9564 c83d 4584 bcbd 5fc9 ebbd a865 b53d
00000010: 8351 e2bd 3b2a 86be 2736 b0bd 8590 febe
00000020: cf37 0a3e 891d 73bf dc56 aabd abf9 18be
00000030: 42b0 bbbe 0e57 643e 5c19 babd 3d81 abbc
00000040: ddf6 a7bd f11a 103e a46d c5bd f826 b33d
00000050: 783b 8b3d d092 d9bd 7b15 893d b3a2 0abf
00000060: b791 083e b78f ddbe 5ba2 8d3c 46ba 0cbe
00000070: d0d2 33bb 9a6c aa3e fde7 58bd cf9e 27bd
00000080: 5a2d 9a3d 9987 04bd a25e 25be 57be d73c
00000090: 344f c43d 0461 a03d cdc4 5abd f7bc 7fbd
000000a0: 42a0 e93d 1dad 63bf c557 c03d 747f 99be
000000b0: a3eb 8bbd a22f c8be 3706 2ebe 46b0 3bbd
000000c0: ea63 833d b0ef f0bc 953f b63e 72cb 2dbd
000000d0: d3a0 91bc 7e1d 373e 4dfd 9f3d 7265 203e
000000e0: 0963 f03d 70af 52be b6ef dcbd fe65 6a3d
000000f0: 4a9f 4fbf f2ca 463d 68f7 b9bd 235a b73d
00000100: dd25 31bd f6c6 71be d5b1 7dbd 3ba2 033e
00000110: e8f1 7ebf b1dc 9abc b8ae 653b 60c7 1e3d
00000120: c142 fe3d 8c62 883c 88a4 f53d 8400 c23d
00000130: 2943 f23d f78f 6ebb 5c42 93bd 2560 5cbd
00000140: 18c2 123b 8f5d cb3c a9b5 253d b229 a0bd
00000150: 8be8 113d 1e51 b1bd f533 b6bc ce9c 4a3d
00000160: 89a8 ad3c 15b5 083d ce13 b53c 8bf8 4bbd
00000170: 6150 993c c398 87bc 8ef1 4a3d ec6e af39
00000180: 00de 99bc a379 b23c d04c fd3b f556 a6bd
00000190: c9b4 b23e b148 53bc 4344 91bc 310b 443d
000001a0: 5e00 46bc cced 24bf 8d59 a03c acc4 2a3c
000001b0: ec31 a23e 03b6 7e3e 0627 c8bd 8b12 adbd
000001c0: 7533 e93c ce86 053e 991f 193e 67e8 7bbd
000001d0: c2b5 bcbc d41a fb3c c8b1 823c 5dfc 29be
000001e0: 5cb6 c33d caec 58bd d98d f1bd 78e3 65bd
000001f0: 601a 053f eb49 b0bd d375 0f3d 2028 07bf
00000200: c1fd 033e cec0 16bd d6bc 27bd abd5 8c3d
00000210: 5bb6 383d 9b18 72bf 4030 20bc f7b7 3f3d
00000220: 47cc 143d 8a12 8e3b 8a28 60bd 7da5 4d3e
00000230: d14d 5abe 68cc 1bbe 3b63 a6be c3d6 bbbd
00000240: b023 acbe 36db cabf 0f0f a4be da1a e2bd
00000250: f9fd 973c a5ed d5bc 7ded 6bbe ae0a 26be
00000260: 2e21 9dbe 64ce f03b e0d6 1ebe 05bd 1a3d
00000270: 9780 a5bd 9fbd 9bbc d409 d6be 0dab 01bd
00000280: 41b4 48bd e4df c6be c7e2 6dbd 986c 6f3c
00000290: 8833 5cbc e3bf 3bbd da68 af3b b7fe adbc
000002a0: f78c 9ebe 874b b3bc 64bd b63d 7571 c9be
000002b0: f1c9 cfbb 1f17 1fbf 2f0b e83c b79d 9ebe
000002c0: c326 b7bc 9d04 55bc a72d ecbd 0db0 42be
000002d0: 7382 24be 745e 673e 3e9d d03d b4ff f4be
000002e0: 915b e5bd 4873 36be 3b14 f6bc 001c 5fbe
000002f0: 4d8c afbd 3bd3 863c b5a8 113c 209f b8b5
00000300: 759c c7bd 2c9d 343c 4b64 8fbe cb68 c5be
00000310: 57a2 ccbe 7d5e c63c 48c3 acbe 27cf 5a3b
00000320: 6359 b6bd 5fba 1c3b 4169 9fbd 4407 b6be
00000330: 6e0d cabd 3f51 79ba 661c d8be c8fb dfbc
00000340: bfe2 39bd 07d7 33bc 501c 233d e3ca 593e
00000350: 38b9 95bd 9f0d 053f c84d f8bd 9370 bebe
00000360: 795a edbe bf46 23bf 2146 8f3e 1321 d6be
00000370: 7c35 3f3e 4a89 af3c f721 97bc 42d9 263e
00000380: 3e91 553e f88c e7bc 551c c4be b3c4 4cbe
00000390: c8f6 01bf aec4 4ebe 25ef 203e 6ef4 27bf
000003a0: 3c63 033f 3376 a5be 0c3c 80be b280 9b3d
000003b0: e02e d3be 7d44 05be d843 ccbd 5701 e5bd
000003c0: 4687 df3d ad75 4c3d 9db4 a9be 1b70 b13c
000003d0: 5641 35be 895e 71be 02a2 34be bf42 67be
000003e0: fae7 5ebe d902 2abe 3938 a1be 8945 953d
000003f0: 6dbd 58be ec3d 10bf 9688 193d fd55 28bd

features.6.bias f4 [65]
0.00978198 0.17351593 0.04476813 -0.8175614 0.5628323 0.054733783 0.045648344 0.45457262
0.40942296 0.32959488 0.3393881 0.0069641746 0.24278422 0.4543547 0.5423946 0.07181569
0.32621366 -0.15773311 -0.039564133 0.31713727 -0.027014015 0.048565753 0.32559553 0.31350896
-0.35637218 -0.5908049 -0.0687179 0.006888243 -0.29519236 0.63690114 -0.08161225 0.16748993
-0.005646396 0.63921714 -0.028519541 0.0035329522 -1.6563635 0.09088774 0.3150637 -0.5070592
-0.2566211 -0.3839319 0.6630296 -0.93974847 -0.33880666 0.3142548 -0.058215044 0.05578625
-0.1520219 -0.050219055 0.293173 -0.1866187 1.181786 0.16764784 0.2728742 -0.32286674
0.21852054 -1.7452908 -0.53204376 0.42009422 0.07093256 -0.18387134 -0.2451024 -0.10922024
-0.44356897
00000000: 9944 203c 29ae 313e c95e 373d b44b 51bf
00000010: c715 103f 8830 603d c2f9 3a3d bebd e83e
00000020: e39f d13e a9c0 a83e 47c4 ad3e bb33 e43b
00000030: 6d9c 783e 2ea1 e83e 5fda 0a3f 1b14 933d
00000040: 7a05 a73e ca84 21be 000e 22bd d15f a23e
00000050: 7f4c ddbc e2ec 463d 75b4 a63e 3f84 a03e
00000060: 6a76 b6be fd3e 17bf f8bb 8cbd c5b6 e13b
00000070: 7423 97be f40b 233f 5324 a7bd 7b82 2b3e
00000080: 6705 b9bb bca3 233f d0a1 e9bc 1a89 673b
00000090: b803 d4bf 5a23 ba3d 0750 a13e a2ce 01bf
000000a0: d763 83be b992 c4be 4fbc 293f 5b93 70bf
000000b0: 1178 adbe 01e6 a03e e672 6ebd 1f80 643d
000000c0: a1ab 1bbe 7fb2 4dbd c51a 963e f918 3fbe
000000d0: c344 973f e0ab 2b3e 2bb6 8b3e ca4e a5be
000000e0: d9c3 5f3e b065 dfbf 0534 08bf 9716 d73e
000000f0: 1745 913d c548 3cbe 20fc 7abe dcae dfbd
00000100: 791b e3be

features.8.weight f4 [60, 65]
-0.18864264 -0.01534338 0.48941556 0.25674686 -0.16819917 -1.1117795 0.17162907 -0.052506186
0.067338645 -0.0331616 0.13357694 -0.098523565 0.047580097 0.2611691 -0.1718837 0.10185415
-0.11414356 -0.086893536 0.22590502 -0.01737961 -0.35705966 0.057657726 0.06222655 0.30568212
0.10044818 0.10373303 -0.2327263 0.052080616 -0.17112088 -0.089987546 -0.21248662 0.34411183
-0.3206249 -0.035052914 0.053232335 -0.13421156 -0.257836 0.0038920848 -0.27042723 -0.06683171
-0.009158061 0.05057007 -0.32878974 -0.3641972 -0.113606095 -0.32493663 0.07097162 0.094520405
-0.17681625 0.1838217 0.16605912 -0.5052665 -0.5601446 0.33162588 -0.051461678 0.0899101
-0.28885844 0.04487918 0.17087932 0.054511562 -0.63691264 -0.005350849 -0.13797718 0.049647
-0.05796001 -0.10285773 -0.33127862 -0.20230876 -0.335756 -0.014301975 -0.30728546 0.010714726
-0.16188565 -0.42723235 0.046268273 -0.76293147 -0.065210275 0.040824752 0.19087003 0.05163274
-0.11928003 -0.176597 0.06942998 -0.08704281 -0.19164 -0.10111203 -0.21331234 -0.1951296
0.046551846 -0.004285561 0.11216124 0.17196846 0.14518945 0.075711936 0.13868448 0.09059393
-0.39525792 0.13073389 0.047852013 -0.11542836 -0.051352605 -0.17479426 -0.19934256 0.18843533
-0.121137105 -0.09829749 0.08699541 -0.16887891 0.075944334 -0.10455304 0.13394326 0.18149239
0.07151166 -0.14049897 0.075274296 0.33263615 0.06283153 -0.06625924 -0.3309375 -0.25144812
-0.31308946 0.033518046 -1.2766743 0.87826663 0.11540287 0.0012028135 -0.18904702 0.3156045
-0.042115755 0.008317271 -0.15279104 -0.44426158 0.13170493 -0.13789831 0.14289048 0.22768864
-0.38801655 -0.23050334 -0.027272845 0.03197004 -0.28293395 -0.443098 -0.20475964 -0.31063905
0.49029994 0.09682451 -0.33287853 0.15712047 -0.38440657 0.1845669 -0.05297687 -0.22802205
0.3037233 -0.13283779 -0.03943959 -0.094502084 -0.046199072 -0.07080445 0.34967834 -0.018477522
0.2329065 0.013423967 0.18027672 -0.028953163 -0.02778362 -0.15673153 -0.06274105 0.048790738
-0.00980879 -0.5198291 -0.042357113 0.07790735 0.022171667 -0.12758887 -0.013222142 0.2853459
0.084358834 0.06349628 0.23935495 -0.028367618 -0.052731093 -0.3303634 -0.29241756 -0.1798324
-0.36467093 -0.062049553 -0.024459898 -1.2213722 -0.08616703 -0.13523544 0.20262565 -0.038210493
-0.20853445 0.05585903 0.05568441 -0.06700553 -0.04190076 0.06335669 -0.24207607 -0.028415887
-0.44597644 -0.039604355 -0.091146804 -0.11777229 -0.11543008 -0.13428877 -0.098533906 -0.060517285
-0.046089444 0.10739481 -0.00034315122 -0.164125 -0.054181445 -0.39117947 0.08499427 0.009091666
-0.05325084 0.17425816 -0.037732597 0.12354004 -0.023839321 0.080420434 -0.0947074 0.13930494
-0.04186881 0.20809156 -0.07995674 0.23508488 0.035994105 -0.104542285 0.07325217 0.020833347
-0.09227949 0.12622774 0.092016205 -0.08203727 -0.054542724 0.09781593 -0.27807176 -0.10384463
-0.08473637 -0.07382906 0.09634987 0.07954465 0.0430032 0.058200937 -0.03455867 -0.2627249
-0.03626184 0.07785701 0.04065274 -0.07833223 -0.064566575 0.04827524 0.054366156 0.0154609075
00000000: 892b 41be cd62 7bbc ad94 fa3e 5374 833e
00000010: 673c 2cbe ca4e 8ebf 88bf 2f3e ba10 57bd
00000020: d8e8 893d 75d4 07bd 65c8 083e b9c6 c9bd
00000030: 59e3 423d f5b7 853e 4802 30be e998 d03d
00000040: 19c4 e9bd 3df5 b1bd a553 673e af5f 8ebc
00000050: 86d0 b6be 822a 6c3d 44e1 7e3d 5e82 9c3e
00000060: c7b7 cd3d fc71 d43d ce4f 6ebe 7c52 553d
00000070: 503a 2fbe 644b b8bd 1896 59be 6d2f b03e
00000080: f228 a4be a593 0fbd 260a 5a3d c16e 09be
00000090: 1503 84be 5912 7f3b 7075 8abe 10df 88bd
000000a0: b10b 16bc 9022 4f3d 2157 a8be 0e78 babe
000000b0: 50aa e8bd 185e a6be 9259 913d ea93 c13d
000000c0: 520f 35be c13b 3c3e 670b 2a3e 2559 01bf
000000d0: a365 0fbf deca a93e 7bc9 52bd c922 b83d
000000e0: 41e5 93be 3bd3 373d fdfa 2e3e 8447 5f3d
000000f0: b50c 23bf 2d56 afbb e449 0dbe a75a 4b3d
00000100: 7a67 6dbd 13a7 d2bd 5a9d a9be 072a 4fbe
00000110: 36e8 abbe d552 6abc 8554 9dbe d18c 2f3c
00000120: 5ac5 25be 33be dabe cd83 3d3d 7a4f 43bf
00000130: f78c 85bd db37 273d 6f73 433e da7c 533d
00000140: 1749 f4bd d8d5 34be 4e31 8e3d 8043 b2bd
00000150: 473d 44be d313 cfbd 8d6e 5abe 0ed0 47be
00000160: 26ad 3e3d e46d 8cbb cbb4 e53d 8018 303e
00000170: 8bac 143e dc0e 9b3d 4e03 0e3e 4f89 b93d
00000180: 3f5f cabe 1bdf 053e 7900 443d b465 ecbd
00000190: 1c57 52bd 44fd 32be 7520 4cbe 31f5 403e
000001a0: bb16 f8bd 3250 c9bd a62a b23d 98ee 2cbe
000001b0: b488 9b3d e71f d6bd 6c28 093e 24d9 393e
000001c0: b574 923d f6de 0fbe 6929 9a3d 494f aa3e
000001d0: d1ad 803d edb2 87bd a470 a9be cfbd 80be
000001e0: 434d a0be 384a 093d 106a a3bf 15d6 603f
000001f0: 5758 ec3d b9a7 9d3a 8b95 41be ea96 a13e
00000200: 9281 2cbd 2a45 083c 4175 1cbe 4176 e3be
00000210: a8dd 063e 3735 0dbe e251 123e 3627 693e
00000220: 1baa c6be 1109 6cbe 4d6b dfbc 04f3 023d
00000230: b8dc 90be bedd e2be 83ac 51be 150c 9fbe
00000240: 9808 fb3e ee4b c63d 0e6f aabe 30e4 203e
00000250: f0d0 c4be 1bff 3c3e 46fe 58bd 9d7e 69be
00000260: 9f81 9b3e a106 08be 688b 21bd 4f8a c1bd
00000270: 3d3b 3dbd ec01 91bd 0a09 b33e 2c5e 97bc
00000280: 0b7f 6e3e 33f0 5b3c 769a 383e 2f2f edbc
00000290: 799a e3bc 3b7e 20be 617e 80bd ccd8 473d
000002a0: 0cb5 20bc 8513 05bf a77e 2dbd e48d 9f3d
000002b0: 5ba1 b53c a8a6 02be afa1 58bc dc18 923e
000002c0: 53c4 ac3d 560a 823d 7719 753e 3563 e8bc
000002d0: 8ffc 57bd 6425 a9be c1b7 95be fc25 38be
000002e0: 26b6 babe ac27 7ebd 2060 c8bc ed55 9cbf
000002f0: 5778 b0bd 297b 0abe 197d 4f3e 9b82 1cbd
00000300: 0e8a 55be 70cc 643d 5615 643d 323a 89bd
00000310: 22a0 2bbd 27c1 813d cae2 77be 6fc8 e8bc
00000320: 0657 e4be 2d38 22bd 2dab babd 9932 f1bd
00000330: 9b66 ecbd ff82 09be 25cc c9bd f9e0 77bd
00000340: 49c8 3cbd cff1 db3d fae8 b3b9 6210 28be
00000350: 5ded 5dbd ad48 c8be 7a11 ae3d 36f5 143c
00000360: 8e1d 5abd bb70 323e 7f8d 1abd 8f02 fd3d
00000370: ae4a c3bc 78b3 a43d f4f5 c1bd f4a5 0e3e
00000380: a17e 2bbd f415 553e 5cc0 a3bd 17ba 703e
00000390: 8e6e 133d 441a d6bd 3c05 963d b2aa aa3c
000003a0: 07fd bcbd d841 013e fe72 bc3d 2803 a8bd
000003b0: 3168 5fbd b853 c83d 6c5f 8ebe 7eac d4bd
000003c0: 438a adbd b133 97bd 1553 c53d 4ee8 a23d
000003d0: 2024 303d 1b64 6e3d 648d 0dbd e183 86be
000003e0: 4c87 14bd 7f73 9f3d 7d83 263d a66c a0bd
000003f0: 7b3b 84bd 42bc 453d 0caf 5e3d bf4f 7d3c

features.8.bias f4 [60]
-0.017962484 -0.4845529 -0.17212854 0.7355023 -0.40006408 -0.9453212 -0.22809465 -0.510669
-0.38642532 -0.59546727 -0.005560569 0.12952824 -0.41526434 -0.14463001 -0.4065615 -0.21956477
-0.31186023 -0.25432605 -0.17861979 -0.4999043 -0.046576448 -0.25842997 -0.016620401 -0.57147074
-0.5907671 -0.5945456 0.14962393 -0.116865955 -0.22071613 -0.14257815 -0.24954045 -0.50555634
-0.25658795 -0.5770927 -0.029602062 0.2013488 0.112619035 -0.6130329 0.19667001 -0.28063434
-0.036045976 -0.62924653 -1.056579 -0.4493558 -0.40627375 -0.2916375 -0.3583613 -0.16839576
0.119633354 0.02665461 0.04754481 -0.1312468 -0.61663777 -0.24104804 -0.091444425 -0.36812517
0.05196882 -0.336272 0.118474714 -0.14322822
00000000: 0f26 93bc 5117 f8be 7742 30be e149 3c3f
00000010: 33d5 ccbe 9200 72bf a591 69be 34bb 02bf
00000020: 8ad9 c5be 8b70 18bf 6f35 b6bb 0da3 043e
00000030: 879d d4be e419 14be d428 d0be 96d5 60be
00000040: 25ac 9fbe 0637 82be 1be8 36be 75f3 ffbe
00000050: f2c6 3ebd ef50 84be 8227 88bc e84b 12bf
00000060: 833c 17bf 2434 18bf 0437 193e 6b57 efbd
00000070: 6903 62be 0200 12be 8887 7fbe 246c 01bf
00000080: 7f5f 83be 59bc 13bf 0680 f2bc 612e 4e3e
00000090: cfa4 e63d b9ef 1cbf dd63 493e 4eaf 8fbe
000000a0: f2a4 13bd 4d16 21bf fb3d 87bf f711 e6be
000000b0: 1d03 d0be 8351 95be 227b b7be f06f 2cbe
000000c0: 5502 f53d c55a da3c 59be 423d 9065 06be
000000d0: f9db 1dbf 4cd5 76be 3747 bbbd e77a bcbe
000000e0: 42dd 543d d82b acbe dfa2 f23d 6baa 12be

features.10.weight f4 [60, 60]
-0.44823208 -0.34987056 -0.23458962 0.13839582 -0.26506868 -0.11839893 -0.1899086 0.09823233
0.091674134 -0.087700784 -0.26580372 0.05750384 -0.28337494 0.16600166 -0.037298635 -0.14836426
-0.14684448 -0.027773585 -0.09360433 0.048917424 -0.18871659 -0.29154375 -0.066780955 0.007578098
0.06669166 0.12065028 0.025030905 -0.029669186 0.090948984 0.07520319 -0.008876817 0.116257355
0.058027904 -0.15983658 0.045088693 0.14370611 -0.21928668 0.133268 0.20632769 0.1294826
-0.10372262 -0.0067043956 0.07197765 0.11957526 0.1186166 0.11555497 0.0028779537 -0.08782439
0.23968421 -0.39975646 0.16508104 -0.0062992065 0.11109689 0.15776011 -0.1021657 0.11614888
0.023976587 -0.058962416 -0.16252814 -0.28411278 -0.11347808 0.017355224 -0.0026545431 0.23709664
0.152983 0.120745726 -0.22416462 -0.07571044 -0.0881525 -0.04612469 0.07141721 -0.0601198
-0.2583886 -0.051458895 0.07691213 0.035159864 -0.0065904562 -0.068040974 -0.2869306 -0.20215414
-0.09239647 0.011894912 -0.112496406 0.022831956 -0.37234697 -0.200687 0.1242008 -0.09644769
0.042408366 0.09898169 0.075549304 -0.026931537 0.26882324 0.15749744 -0.26711205 0.08427351
0.03051562 -0.106310464 0.061756972 -0.082906835 0.14033525 -0.04207116 0.008035022 0.08218633
0.053087413 0.043300007 -0.10290505 -0.006489433 -0.2808374 0.27185965 0.07648793 -0.19094862
0.16526678 0.019166194 0.0022282419 0.09227573 0.032140236 -0.2890533 0.27269968 0.1802184
0.019600809 0.06955973 0.06715769 -0.11636572 0.02799606 0.09903521 0.07293039 -0.10117381
-0.12442966 -0.011375199 -0.13451536 -0.41285822 0.0518465 0.04414735 0.4608554 -0.097822525
0.08664823 -0.25879058 0.023081945 -0.082012095 0.0715409 -0.38693163 0.17152727 -0.15725261
0.035903964 -0.04602905 -0.0006841131 0.11701943 0.10802986 -0.051557813 -0.009529582 0.11353909
0.08060276 0.09269621 -0.09562461 -0.017813815 0.20590945 0.058261327 0.032684237 0.06835762
-0.056623362 -0.098796315 -0.18681477 -0.18564932 -0.14034197 0.021983631 0.007963679 0.15933861
-0.17169851 0.033398747 0.17810771 -0.16121857 0.038746554 0.05359556 -0.1826466 0.0066871997
0.14668337 -0.1070601 0.12817757 -0.008989559 0.0017676132 -0.064312115 0.3512381 -0.14956068
0.020611526 0.083188534 0.2969896 0.0050920495 0.14018427 -0.08026824 -0.07666134 -0.19251637
0.26108652 -0.16826741 0.16375136 -0.07037874 0.0088474015 -0.20884304 0.014047614 -0.112374336
-0.07534608 0.060255572 -0.28622335 -0.044798788 -0.18266332 0.0828166 -0.028568756 0.18591003
0.21654129 0.09497323 -0.0846731 0.019177366 -0.16292466 -0.40088525 0.017922426 0.044212062
0.26320478 0.017977031 -0.021813296 -0.20712611 0.20311522 -0.13022226 -0.14548743 -0.11769888
-0.16782099 0.10416422 0.013230719 0.26102194 -0.18724537 -0.030428817 -0.1669753 -0.0047729164
0.11104556 0.11041573 -0.25897384 0.16645524 0.15846485 -0.047071442 0.21787155 -0.26919052
-0.005656051 -0.34370887 0.11787782 0.02537139 0.12115963 0.03297447 -0.029370056 0.10754911
-0.26193437 0.025802368 0.05326519 -0.040180363 -0.19514547 -0.25698906 -0.017402811 -0.042479757
00000000: ad7e e5be 3c22 b3be 4338 70be a2b7 0d3e
00000010: 15b7 87be 237b f2bd 6677 42be 082e c93d
00000020: a6bf bb3d 789c b3bd 6d17 88be 2689 6b3d
00000030: 8516 91be 57fc 293e 74c6 18bd cdec 17be
00000040: 665e 16be 6e85 e3bc a1b3 bfbd a35d 483d
00000050: ec3e 41be 3945 95be 74c4 88bd b251 f83b
00000060: a395 883d 7e17 f73d 9d0d cd3c cb0c f3bc
00000070: 7643 ba3d 2104 9a3d 1270 11bc 5618 ee3d
00000080: abae 6d3d 33ac 23be ecae 383d b227 133e
00000090: b08c 60be 6877 083e 9147 533e 1697 043e
000000a0: 866c d4bd 8cb0 dbbb 0569 933d e0e3 f43d
000000b0: 43ed f23d 16a8 ec3d 0d9c 3c3b 46dd b3bd
000000c0: c76f 753e e1ac ccbe 010b 293e 9369 cebb
000000d0: c486 e33d de8b 213e 403c d1bd 77df ed3d
000000e0: 8c6a c43c 9382 71bd c76d 26be 3b77 91be
000000f0: 3267 e8bd 8b2c 8e3c d8f7 2dbb 76c9 723e
00000100: 93a7 1c3e 8949 f73d 698b 65be 130e 9bbd
00000110: 4c89 b4bd 3eed 3cbd 3043 923d 2e40 76bd
00000120: 834b 84be 90c6 52bd 1b84 9d3d ca03 103d
00000130: c1f4 d7bb 1159 8bbd 91e8 92be 7f01 4fbe
00000140: 5c3a bdbd e1e2 423c 8464 e6bd 150a bb3c
00000150: 43a4 bebe e580 4dbe fd5c fe3d 5e86 c5bd
00000160: 65b4 2d3d eab6 ca3d 98b9 9a3d 879f dcbc
00000170: 33a3 893e 0247 213e e9c2 88be 9797 ac3d
00000180: e5fb f93c 4db9 d9bd e1f4 7c3d 0fcb a9bd
00000190: 0bb4 0f3e cf52 2cbd 53a5 033c 4e51 a83d
000001a0: 3072 593d 595b 313d e2bf d2bd 4fa5 d4bb
000001b0: ebc9 8fbe 3031 8b3e b4a5 9c3d 0988 43be
000001c0: b23b 293e 6c02 9d3c b207 123b 0ffb bc3d
000001d0: 7ba5 033d cbfe 93be 4b9f 8b3e 2c8b 383e
000001e0: e091 a03c 5575 8e3d f989 893d 2751 eebd
000001f0: fe57 e53c f9d2 ca3d 875c 953d 3734 cfbd
00000200: fad4 febd 0b5f 3abc 65be 09be 2762 d3be
00000210: ff5c 543d dad3 343d 3df5 eb3e 2d57 c8bd
00000220: a174 b13d 3380 84be 5916 bd3c f5f5 a7bd
00000230: 0984 923d e71b c6be d8a4 2f3e d406 21be
00000240: 0910 133d f588 3cbd 0e56 33ba e2a7 ef3d
00000250: c23e dd3d 492e 53bd f721 1cbc 2f87 e83d
00000260: 0f13 a53d 83d7 bd3d d6d6 c3bd 47ee 91bc
00000270: edd9 523e 6ea3 6e3d e8df 053d 14ff 8b3d
00000280: e6ed 67bd b955 cabd 5f4c 3fbe db1a 3ebe
00000290: ceb5 0fbe 0417 b43c 177a 023c a929 233e
000002a0: bcd1 2fbe 20cd 083d de61 363e 7b16 25be
000002b0: b5b4 1e3d 0587 5b3d b607 3bbe 4c20 db3b
000002c0: 2a34 163e 5342 dbbd fb40 033e f148 13bc
000002d0: 42af e73a 12b6 83bd 7bd5 b33e 6f26 19be
000002e0: 81d9 a83c c05e aa3d 050f 983e 35db a63b
000002f0: 778c 0f3e ad63 a4bd 9f00 9dbd 0323 45be
00000300: 22ad 853e 4b4e 2cbe 70ae 273e bb22 90bd
00000310: b1f4 103c f3da 55be f727 663c 8424 e6bd
00000320: 0c4f 9abd 8cce 763d de8b 92be ef7e 37bd
00000330: 180c 3bbe c09b a93d 0609 eabc 335f 3e3e
00000340: 00bd 5d3e 5381 c23d 1769 adbd da19 9d3c
00000350: b9d5 26be d540 cdbe 0dd2 923c b517 353d
00000360: c7c2 863e 9144 933c ccb1 b2bc de18 54be
00000370: 70fd 4f3e fc58 05be a8fa 14be 1c0c f1bd
00000380: 44d9 2bbe 0d54 d53d a8c5 583c aba4 853e
00000390: 40bd 3fbe db45 f9bc 93fb 2abe 2066 9cbb
000003a0: db6b e33d a421 e23d 3898 84be 3e73 2a3e
000003b0: 9c44 223e fccd 40bd b819 5f3e 57d3 89be
000003c0: 6556 b9bb 9cfa afbe ed69 f13d a9d7 cf3c
000003d0: 8a22 f83d 3d10 073d 7999 f0bc b542 dc3d
000003e0: 431c 86be 7d5f d33c 9a2c 5a3d 2a94 24bd
000003f0: 37d4 47be 1294 83be 5790 8ebc 41ff 2dbd

features.10.bias f4 [60]
-0.52453667 0.0896861 -0.3905334 0.034741905 0.071945116 0.13521604 -0.56370455 0.13967119
-0.20464681 -0.39172757 0.24981767 0.022151014 0.12182911 -0.36599493 0.083424084 0.20370932
-0.06920679 -0.6741723 -0.23778819 -0.26811787 0.049185414 0.046948742 0.07530151 -0.056711372
-0.05654416 0.08040518 -0.17816615 -0.032248873 0.0006546735 0.13589032 0.10674892 0.046211556
0.14075609 -0.1302952 -0.16865657 -0.047609497 -0.18019392 0.12399431 0.13398196 0.24155949
0.07928807 0.117729515 -0.90127546 -0.10722771 0.090833105 0.21107389 0.13778692 -0.17142534
-0.059418958 -0.048915002 -0.15831305 0.07165905 0.0016817994 0.2506522 -0.1429273 0.2657016
-0.24531037 -0.23417813 0.14967737 0.10882462
00000000: 0948 06bf 59ad b73d fef3 c7be 874d 0e3d
00000010: f657 933d 1376 0a3e f14e 10bf f705 0f3e
00000020: ef8e 51be 8490 c8be 34d0 7f3e 0b76 b53c
00000030: 8a81 f93d b063 bbbe 3fda aa3d 2d99 503e
00000040: 4abc 8dbd 8e96 2cbf bf7e 73be bf46 89be
00000050: a576 493d 534d 403d ae37 9a3d 2f4a 68bd
00000060: d99a 67bd 79ab a43d 3071 36be 6517 04bd
00000070: 659e 2b3a d526 0b3e 2e9f da3d 5448 3d3d
00000080: 5d22 103e 1b6c 05be 4fb4 2cbe 2d02 43bd
00000090: c184 38be bbf0 fd3d 9132 093e 5f5b 773e
000000a0: c961 a23d 2c1c f13d fdb9 66bf 349a dbbd
000000b0: b506 ba3d c123 583e 0418 0d3e 208a 2fbe
000000c0: 4b61 73bd 195b 48bd d11c 22be fbc1 923d
000000d0: d36f dc3a 7c55 803e 895b 12be 0a0a 883e
000000e0: a432 7bbe 64cc 6fbe 0645 193e 71df de3d

features.12.weight f4 [60]
0.8628865 0.89564925 0.8943187 0.9304126 0.9170734 0.8831479 0.8224589 0.9899412
0.8975336 0.84365946 1.0075408 0.9202682 0.9460472 1.016019 0.7718007 0.9502592
0.8542933 0.8580263 0.92679393 0.98100734 0.9358094 0.9224305 0.98354065 0.82505304
0.89255595 0.8389659 0.8200538 0.830233 0.95702136 0.9802043 0.89494985 0.77914244
0.8825922 0.93969715 0.8957418 0.83966255 0.9661719 0.9837866 0.8436855 0.9810783
0.8438203 0.8532086 0.84884065 0.8550162 1.0062873 0.9849249 0.9336393 0.9555189
0.8542222 0.8284935 0.9504521 0.94472253 0.92986596 1.0130665 0.869348 0.8969583
0.9606011 0.93755186 0.98740464 0.87823147
00000000: 21e6 5c3f 4549 653f 12f2 643f 852f 6e3f
00000010: 53c5 6a3f fb15 623f ab8c 523f c96c 7d3f
00000020: c3c4 653f 11fa 573f 19f7 803f b296 6b3f
00000030: 2630 723f e90c 823f bb94 453f 3044 733f
00000040: f7b2 5a3f 9da7 5b3f 5e42 6d3f 4c23 7b3f
00000050: 3491 6f3f 6824 6c3f 52c9 7b3f ad36 533f
00000060: 8c7e 643f 78c6 563f 0cef 513f 268a 543f
00000070: 5aff 743f abee 7a3f 6f1b 653f e175 473f
00000080: 90f1 613f fe8f 703f 564f 653f 20f4 563f
00000090: 0b57 773f 70d9 7b3f c6fb 573f f327 7b3f
000000a0: 9b04 583f e16b 5a3f 9f4d 593f 57e2 5a3f
000000b0: 06ce 803f 0a24 7c3f fc02 6f3f e39c 743f
000000c0: 4eae 5a3f 2618 543f d450 733f 56d9 713f
000000d0: b20b 6e3f 2aac 813f 978d 5e3f 0f9f 653f
000000e0: f4e9 753f 6603 703f 8dc6 7c3f c7d3 603f

features.12.bias f4 [60]
-0.076922156 -0.03437649 0.05315909 0.027326714 0.09752415 0.08134992 0.12297643 -0.08760753
0.048362195 0.0017227703 0.23783581 -0.04727677 0.14700656 0.019596243 0.020027375 0.17460383
0.118248686 -0.17146215 0.08240162 -0.1370996 0.12693714 -0.14514413 0.0381089 -0.045958765
0.118697464 0.004042263 -0.15057403 -0.1582004 -0.22313459 0.10982805 0.1507714 -0.021102805
0.16821824 0.05396797 0.023427753 -0.071996234 0.058014046 -0.07730532 0.2619905 0.18921776
-0.025673965 0.14594904 0.067906626 -0.08401199 -0.097601496 0.25586337 -0.039697535 -0.025270192
-0.06590689 -0.05898579 0.061084423 0.15820014 0.0014476696 0.2454914 0.036072385 0.07336787
-0.10473355 -0.06101578 0.14053313 0.07801985
00000000: 5d89 9dbd 5dce 0cbd 59bd 593d 46dc df3c
00000010: beba c73d c99a a63d 11db fb3d 946b b3bd
00000020: 7017 463d 94ce e13a 3b8b 733e 49a5 41bd
00000030: e388 163e 4d88 a03c 7310 a43c 59cb 323e
00000040: 5e2c f23d c693 2fbe 2ec2 a83d d663 0cbe
00000050: cffb 013e aaa0 14be 1418 1c3d 423f 3cbd
00000060: a817 f33d f674 843b 1430 1abe 49ff 21be
00000070: 657d 64be 87ed e03d d163 1a3e cadf acbc
00000080: 6741 2c3e 850d 5d3d 8feb bf3c c372 93bd
00000090: 23a0 6d3d 4052 9ebd 9e23 863e 4dc2 413e
000000a0: 3552 d2bc aa73 153e a112 8b3d 7a0e acbd
000000b0: 4be3 c7bd 8600 833e e299 22bd 6f03 cfbc
000000c0: 31fa 86bd 159b 71bd a933 7a3d 38ff 213e
000000d0: bbbf bd3a 1962 7b3e a3c0 133d e541 963d
000000e0: 8b7e d6bd afeb 79bd ebe7 0f3e dfc8 9f3d

features.12.running_mean f4 [60]
-0.12392472 0.11381518 -0.103072874 -0.033510197 0.15197405 0.10588223 -0.17455934 0.10381898
-0.08661761 -0.11858739 0.23912866 0.0066094026 0.10977782 -0.093530685 0.027437976 0.085360326
0.02896969 -0.18104865 -0.09274425 -0.06547701 0.0642716 0.1497956 -0.009097166 0.093016796
0.015525531 0.10450621 -0.05496877 -0.070679426 0.05522391 0.14439072 0.09832038 0.052178957
0.1069079 -0.025131676 -0.08579771 0.10031792 -0.059257045 0.08528646 0.072428904 0.102190904
0.08422922 0.0810679 -0.2238316 0.08086889 0.08294133 0.21294707 0.10182199 -0.024405846
0.10928225 0.08673311 -0.05173627 0.08140497 -0.048395593 0.24132581 -0.04296219 0.27484208
-0.041677576 -0.04862916 0.15475136 0.098507084
00000000: 3ecc fdbd ef17 e93d df17 d3bd fd41 09bd
00000010: 169f 1b3e c8d8 d83d afbf 32be 0c9f d43d
00000020: 9364 b1bd f2dd f2bd 25de 743e b093 d83b
00000030: 32d3 e03d 048d bfbd 9bc5 e03c 65d1 ae3d
00000040: d851 ed3c d164 39be b3f0 bdbd d018 86bd
00000050: d4a0 833d 0564 193e 480c 15bc 977f be3d
00000060: cc5e 7e3c 5a07 d63d ef26 61bd 60c0 90bd
00000070: 7732 623d 29db 133e 325c c93d 9ab9 553d
00000080: 87f2 da3d f2e0 cdbc b6b6 afbd 7b73 cd3d
00000090: 84b7 72bd abaa ae3d 9b55 943d 7749 d13d
000000a0: 5f80 ac3d ed06 a63d 1c34 65be 979e a53d
000000b0: 25dd a93d cc0e 5a3e 0c88 d03d c5ee c7bc
000000c0: 5fcf df3d 21a1 b13d 69e9 53bd a6b7 a63d
000000d0: 753a 46bd 1d1e 773e 1ff9 2fbd 1ab8 8c3e
000000e0: 1bb6 2abd 5f2f 47bd 2477 1e3e 15be c93d
