best_parameters.pt (torch, 448984 bytes, 117 tensors)

features.0.weight f4 [70, 31]
0	0x38cf3138	9.879697e-05
1	0xbd0b327a	-0.033983685
2	0xba21c840	-0.0006171502
3	0xbc820505	-0.015871534
4	0x3bb55756	0.005534093
5	0xbca12163	-0.01966924
6	0xbbb68c6a	-0.005570938
7	0xbc902c2a	-0.017599184
8	0xbcc3ca59	-0.023900198
9	0x3c46751a	0.01211288
10	0xbcc21821	-0.023693146
11	0xbc51588d	-0.01277746
12	0xbb81e141	-0.00396362
13	0x3d33b3e1	0.043872718
14	0xbd239696	-0.03993853
15	0x3cb3ebcd	0.021963025
16	0xbcf9c2b7	-0.030488355
17	0x3bee59b4	0.007273877
18	0x3cbf9538	0.023386583
19	0x3d4c76a2	0.049917825
20	0xbcc61cae	-0.024183597
21	0x3d7da569	0.061925326
22	0x3bbbac21	0.0057273065
23	0xbbdf66de	-0.0068176826
24	0x3ca42668	0.020037845
25	0xbbd149d2	-0.006386974
26	0x3d03bfd3	0.03216536
27	0xbcc864d2	-0.024462137
28	0x3b1d0712	0.0023960513
29	0xbdb59686	-0.08866601
30	0xbb667f19	-0.003517097
31	0xba59fc99	-0.0008315533
32	0xbc6a9e0b	-0.014319907
33	0x00055a29	4.91521e-40
34	0x3a8b8edf	0.0010647437
35	0x885f1158	-6.712701e-34
36	0x3b08b462	0.002085947
37	0xbe0e058c	-0.13869303
38	0xbd3f7e03	-0.046751034
39	0xbefc0e19	-0.49229506
40	0xbbd7d6f6	-0.0065869046
41	0x3f4ec4e0	0.8076916
42	0x3f5379fe	0.8260802
43	0xbd9011da	-0.07034655
44	0x3d033d48	0.032040864
45	0xbc432534	-0.011910725
46	0x3d597175	0.053086717
47	0x3c3411d2	0.010990577
48	0xbc98dd5d	-0.018660242
49	0xbd9d6850	-0.07685912
50	0x3c9b68b5	0.018970827
51	0x3bbb31e5	0.005712735
52	0x3d450a0f	0.048105296
53	0x3d5d2c68	0.053997427
54	0xbe34d61c	-0.17659801
55	0xbc0035fd	-0.007825372
56	0x39de2e3a	0.0004237758
57	0xbb1673a7	-0.0022957118
58	0x3c5ee10a	0.013603458
59	0xbc3f2179	-0.011665695
60	0xbd91ad4d	-0.071131326
61	0x3b345b82	0.0027520363
62	0x3c338a36	0.010958245
63	0x3de229e7	0.110431485
64	0xba6127e0	-0.00085890107
65	0x3e87ff64	0.26562035
66	0x3b1500cc	0.002273607
67	0xbdc0880e	-0.0940095
68	0xbd5c2774	-0.053748563
69	0xbd84edba	-0.06490655
70	0xbdfa1db8	-0.122127
71	0x3d03b522	0.032155164
72	0xbd29582c	-0.041343853
73	0xbd41d3a2	-0.04732097
74	0xbc98dbf9	-0.018659579
75	0xbd201e7a	-0.039091565
76	0xbd30c654	-0.04315789
77	0xba9e98c8	-0.0012099976
78	0x3d1ccc5b	0.038280826
79	0xbcb93d8a	-0.022612352
80	0xbc45a339	-0.012062841
81	0xbd45f417	-0.048328485
82	0xbc3d6b74	-0.011561263
83	0x3bfc7633	0.00770452
84	0xbd3b300d	-0.04570012
85	0xbbe8b1bf	-0.007101267
86	0x3bcf8231	0.0063326587
87	0xbd1ab832	-0.03777332
88	0x3c10030a	0.008789787
89	0xbd67e5e3	-0.05661572
90	0xbc0e0dad	-0.008670253
91	0xbd1e0543	-0.038579237
92	0xbb9006c8	-0.0043953396
93	0x3b0fa873	0.0021920472
94	0x3dbd3e20	0.09240365
95	0x3b273c0f	0.0025517975
96	0x3c5c6ab6	0.013453176
97	0xbb408a1d	-0.0029379197
98	0x3cbd11d6	0.023079794
99	0x3d141e3d	0.03616165
100	0x3c122cb1	0.008921788
101	0x3c1ba293	0.00949921
102	0xbda8c082	-0.08239843
103	0xbdcbab36	-0.09944765
104	0xbddc25c2	-0.10749389
105	0xbd1c16d7	-0.03810772
106	0xb916d9dc	-0.00014386274
107	0xbc1017f9	-0.008794778
108	0x3d17071f	0.036872026
109	0x3bbc631d	0.00574912
110	0xbcd67e14	-0.026183166
111	0xbc11dfcb	-0.008903454
112	0xbc0ac550	-0.0084698945
113	0xbc47e4d0	-0.012200549
114	0xbb6f9aa6	-0.0036560684
115	0xbc3c7c27	-0.01150421
116	0x3aa121c6	0.001229339
117	0xbd0442ec	-0.032290384
118	0xbca52259	-0.02015798
119	0x3d681f09	0.056670222
120	0xbf0147ae	-0.505
121	0xbac079e1	-0.001468476
122	0xbcbc65fc	-0.022997849
123	0x3c45b252	0.012066441
124	0x3a429ef0	0.0007424196
125	0xbb93d39c	-0.00451131
126	0xbaabee9e	-0.0013117378
127	0x3d6b61e1	0.05746639
128	0x3af5a5c6	0.0018741421
129	0x3cc099eb	0.023510894
130	0xbeb2a6ed	-0.3489298
131	0x3c246acf	0.010035231
132	0x3fe91841	1.8210527
133	0xbd9af642	-0.07566501
134	0x3e3abfdf	0.18237256
135	0x3e1e37cc	0.15450972
136	0xbd9d202a	-0.076721504
137	0xbd88b427	-0.06674986
138	0xbd597a7d	-0.05309533
139	0xbdf06965	-0.117388524
140	0xbc9a5c44	-0.018842824
141	0x3c38d7e7	0.011281944
142	0xbd09c46e	-0.033634596
143	0xbca609cd	-0.020268345
144	0xbd090cab	-0.033459347
145	0xbdee7e37	-0.11645167
146	0xbda7ab09	-0.08186919
147	0xb9dfef01	-0.00042711946
148	0xba93bd38	-0.0011271602
149	0xb8a90711	-8.059864e-05
150	0xbb39aed4	-0.0028332965
151	0xbec2b235	-0.38026586
152	0x3b2a2662	0.002596282
153	0xbe22eeb5	-0.15911372
154	0xb9e5fb13	-0.0004386535
155	0xba1b35d4	-0.0005920802
156	0xbdd3e197	-0.10345762
157	0xbab1cb02	-0.0013564529
158	0xbd35d584	-0.044393077
159	0x39c35e86	0.00037263724
160	0xbe2b6065	-0.1673599
161	0xbe931cbf	-0.2873287
162	0xbd3f7e6d	-0.04675143
163	0xbf90c1c5	-1.1309134
164	0x3dc2f2e5	0.09518985
165	0xbf1e392e	-0.61806
166	0xbf0f1c1b	-0.5590226
167	0xbe00f911	-0.12595011
168	0xbe1519bd	-0.145606
169	0xbe147ee4	-0.1450153
170	0xbe4a67ed	-0.19766207
171	0xbe258c4d	-0.16166802
172	0xbdfd55b0	-0.12369859
173	0xbdc3d017	-0.09561174
174	0xbe096b14	-0.13419753
175	0xbe2f6020	-0.17126513
176	0xbdfafccc	-0.122552484
177	0xbe3f6460	-0.18690634
178	0x3a1e5dea	0.0006041216
179	0xbb3b25d4	-0.0028556483
180	0x3906fddb	0.00012873804
181	0xbae94ef3	-0.0017800018
182	0xbe7168a6	-0.23575076
183	0x3c14647e	0.009057162
184	0xbe8390a2	-0.25696284
185	0xba0ce418	-0.0005374565
186	0x3777e4e2	1.4775638e-05
187	0x3ca658f9	0.020306097
188	0x3b93b88a	0.0045080828
189	0xbca5dbe2	-0.02024645
190	0xbc40cec8	-0.0117680505
191	0x3dedf0a2	0.11618163
192	0x3e31d521	0.17366458
193	0x3c95fe79	0.018309819
194	0xbfda5d5a	-1.7059739
195	0xbea26e52	-0.31724793
196	0x3f4e04b9	0.80475956
197	0x3f35b2a0	0.70975685
198	0x3e85395d	0.26020327
199	0x3e60120d	0.21881886
200	0x3ebabbe1	0.36471465
201	0x3e4f8376	0.20264992
202	0x3e6fa16f	0.23401426
203	0x3ec32bda	0.38119394
204	0x3e78e187	0.24304782
205	0x3e5ad0dd	0.21368738
206	0x3e450098	0.19238508
207	0x3e527a0a	0.20554367
208	0x3e4ac39e	0.19801185
209	0xb9b0de5e	-0.00033735012
210	0xbafe3271	-0.0019393695
211	0xb92e8490	-0.00016643316
212	0x3a42a038	0.0007424387
213	0x3eefbfcb	0.46826014
214	0x3cc05747	0.023479117
215	0x3e04521e	0.1292195
216	0x3cc1ec95	0.023672381
217	0xba3004a7	-0.00067145604
218	0x3ce24412	0.02762035
219	0x3afb126d	0.0019155272
220	0x3c5810e4	0.013187621
221	0x3cdf5428	0.027261809
222	0xbd2cc174	-0.04217668
223	0x3e403e1d	0.18773694
224	0xbda4dd84	-0.08050063
225	0x3ffd9716	1.9811733
226	0xbed833d6	-0.42227048
227	0x3ef3e6ca	0.47637016
228	0x3ee2d219	0.44300917
229	0x3dc5b31c	0.09653303
230	0x3d3be33b	0.045871
231	0x3dc9bab8	0.09850067
232	0x3d97bd66	0.07409172
233	0xbcbc0749	-0.022952693
234	0x3e095c53	0.13414125
235	0x3d4e51d5	0.05037101
236	0x3dfdfffe	0.12402342
237	0x3dcb0eaa	0.09914906
238	0x3de1f414	0.11032882
239	0x3d714cc4	0.0589111
240	0xb8fab1fb	-0.000119540804
241	0xba23a6bb	-0.00062428013
242	0xb953bfc9	-0.00020193974
243	0xba390159	-0.0007057391
244	0x3c99a286	0.018754255
245	0x3ca95b7e	0.02067351
246	0x3d03dd89	0.032193694
247	0x3c85bd21	0.016325535
248	0xb89441e7	-7.069465e-05
249	0x3d0f9a7a	0.03505943
250	0x3b1f21dc	0.0024281656
251	0x3d194a47	0.037424352
252	0xbb497807	-0.0030741708
253	0x3d24e92e	0.04026144
254	0x3ddfd323	0.10928943
255	0x3d6dad42	0.05802656

features.0.bias f4 [70]
0	0xb9e44634	-0.00043539854
1	0x3d6d533d	0.05794071
2	0xbc4e2b81	-0.012583614
3	0xbbfcecdc	-0.0077186655
4	0xbc2fb8fc	-0.010725256
5	0xbdfccc90	-0.12343705
6	0x3df90728	0.12159568
7	0x3db1e88b	0.08686932
8	0x3a911493	0.0011068754
9	0x3bffb93d	0.0078040645
10	0x3e88a55a	0.26688653
11	0xba4401ba	-0.0007477064
12	0xbbb257fb	-0.005442617
13	0xbb86a2eb	-0.004108777
14	0x3c3b8926	0.011446273
15	0x3e267e05	0.1625901
16	0xbb0cab7b	-0.0021464515
17	0x3e6ca1fa	0.23108664
18	0xbdb43d96	-0.08800809
19	0xbbb04590	-0.0053793862
20	0x3c40154c	0.011723828
21	0x3ab3c856	0.0013716321
22	0xbf34601f	-0.7045917
23	0x39e2432e	0.00043156132
24	0xbd9fbe47	-0.077999644
25	0xbe60a298	-0.21937025
26	0xbb495c2f	-0.0030725112
27	0xbb9fdfbc	-0.004878966
28	0x3d52399f	0.051324483
29	0xbafba208	-0.0019198069
30	0x3bf68f06	0.007524374
31	0xbb17317c	-0.0023070266
32	0x3f8e60e4	1.1123319
33	0x3dede37c	0.11615655
34	0xbb670834	-0.0035252692
35	0xbc015dc0	-0.007895887
36	0xbba408b9	-0.0050059226
37	0xbb7f7936	-0.003898216
38	0x3ef7cb26	0.48397177
39	0x3b8f58e4	0.0043746103
40	0xbd84bcad	-0.064812995
41	0x3e20226f	0.15638135
42	0xbb949afb	-0.0045350767
43	0x3c425a4d	0.01186235
44	0x3f2363f3	0.63824385
45	0xbb2269e0	-0.0024782345
46	0x3e38692d	0.18008871
47	0xbc3c3179	-0.011486405
48	0xbc9b2110	-0.018936664
49	0xbc2a5c30	-0.010397956
50	0xbbf49e5b	-0.0074651665
51	0xbd4a1779	-0.04933879
52	0x3bfab98e	0.0076515144
53	0xbc6811f6	-0.0141644385
54	0xbd1b16ea	-0.03786365
55	0xb9fcde59	-0.00048230847
56	0xbb38411f	-0.0028114987
57	0x3beaaf8a	0.007162039
58	0xbe8cd1ad	-0.2750372
59	0xbf800443	-1.00013
60	0x3c3a12da	0.011357034
61	0x3e07a76f	0.13247465
62	0xbb5fad7f	-0.0034130511
63	0xba6bc9ee	-0.00089946284
64	0x3a31cfbb	0.00067829684
65	0xbf37ce8d	-0.71799546
66	0x3fabf33c	1.3433604
67	0x3b0b0ce6	0.0021217405
68	0xbc60dfc0	-0.013725221
69	0x3c78242f	0.015145346

features.2.weight f4 [70, 70]
0	0x3cad357e	0.021143671
1	0xbd08b36e	-0.033374242
2	0xbb921258	-0.004457753
3	0xbca9cf68	-0.020728782
4	0x3db31635	0.0874447
5	0x3d54c33f	0.051944014
6	0xbee1220b	-0.43971285
7	0x3d95952c	0.07303843
8	0x3bda9060	0.006670043
9	0xb72dad19	-1.0351906e-05
10	0xbe069d3d	-0.13145919
11	0xbd26a3b4	-0.040683463
12	0xbbd82d1c	-0.0065971743
13	0xbcf0213a	-0.029312719
14	0xbd67d545	-0.056599874
15	0x3db5437f	0.088507645
16	0xbdae65b1	-0.0851549
17	0x3dad2e84	0.08456138
18	0x3c2277da	0.00991627
19	0xbdaa4a63	-0.083149694
20	0x3cbbb36a	0.0229127
21	0xbc52e116	-0.0128710475
22	0x3e2573c4	0.16157442
23	0xbc117daa	-0.008880058
24	0x3d12a1db	0.03579889
25	0x3e2b074b	0.16702001
26	0x3c9e150a	0.019297142
27	0x3d0bf26f	0.03416675
28	0xb9b4d5d6	-0.00034491596
29	0xbbe3a398	-0.006946992
30	0x3c85d578	0.016337141
31	0xbc2ebf62	-0.010665746
32	0x3e054196	0.130133
33	0x3e573c78	0.21019161
34	0xbc376b76	-0.011195054
35	0xbb596cdf	-0.0033176464
36	0xbd597e77	-0.053099122
37	0xbcfa5c7e	-0.030561682
38	0xbf134cee	-0.5753926
39	0x3cadfffe	0.02124023
40	0x3d4b6775	0.04965921
41	0xbdd6756f	-0.104716174
42	0xbce23780	-0.027614355
43	0x3ca58871	0.020206662
44	0xbd8269a0	-0.063678026
45	0x3d15f2cc	0.036608502
46	0x3c3aba78	0.011396997
47	0x3bf48bad	0.0074629397
48	0x3d018b98	0.031627268
49	0x3d1a9f3e	0.03774952
50	0xbd82c505	-0.06385235
51	0xbe0705c6	-0.13185796
52	0x3d59ec5e	0.053203933
53	0x3d69e369	0.05710164
54	0x3c792a7e	0.015207885
55	0x3d6a94e1	0.05727089
56	0x3d7b9dd3	0.06142981
57	0xbb7c545b	-0.0038502428
58	0x3e09e4fe	0.1346626
59	0xbe5dd958	-0.21664941
60	0x3bbb1151	0.0057088514
61	0xbccc18f2	-0.024914239
62	0xbbe09163	-0.006853269
63	0x3c9b4883	0.018955475
64	0xbc27bfd7	-0.010238609
65	0x3ea2412d	0.3169035
66	0x3fa25d7e	1.2684782
67	0x3cbb3b09	0.022855299
68	0x3b9ef56e	0.004851035
69	0xbd052340	-0.03250432
70	0x39caa71c	0.0003865295
71	0xbe0fa396	-0.14027247
72	0x3d33dcdd	0.043911804
73	0x3cf3e6e0	0.029773176
74	0x3cfcbc9a	0.030851651
75	0x3c8fb67a	0.017543066
76	0xb9f9be61	-0.00047634824
77	0x3ebc0ba9	0.36727646
78	0xbca56618	-0.020190284
79	0x3b161480	0.0022900403
80	0x386ca8e1	5.6424065e-05
81	0xbb333c13	-0.002734904
82	0xbbfdcf83	-0.0077456846
83	0x3d35b9a9	0.044366512
84	0xbca0624e	-0.019578125
85	0x3e8f7df2	0.28025776
86	0x3d072540	0.03299451
87	0x3de4249c	0.11139795
88	0x3dabb2a3	0.083836816
89	0x3ba0dc1a	0.0049090507
90	0x3c0701df	0.008240192
91	0x3c095cb5	0.0083839195
92	0xbc8d7ef6	-0.017272454
93	0xbba54d00	-0.0050445795
94	0x3e3f4906	0.186802
95	0x3d0ecd58	0.0348638
96	0xbdf96955	-0.121782936
97	0x3e164fd2	0.14678887
98	0x3cbf550c	0.023355983
99	0x3d7a2ed7	0.061079826
100	0xbd60416c	-0.05474989
101	0x3ce56b7a	0.02800535
102	0xbcc53514	-0.024073161
103	0x80056121	-4.94021e-40
104	0x3cf16775	0.029468277
105	0xbc99b57f	-0.018763302
106	0xb98350fc	-0.00025046605
107	0x3b967857	0.0045919823
108	0xbf925e37	-1.1435002
109	0x3d89e015	0.067321934
110	0xbbaddd72	-0.0053059394
111	0xb8588367	-5.162079e-05
112	0xbc8ed90a	-0.017437477
113	0xbd29c3bf	-0.041446444
114	0xbeaa814b	-0.33301768
115	0xbb2d9ff2	-0.002649304
116	0xbf0600f3	-0.523452
117	0xbd650ae9	-0.055918608
118	0x3cf39602	0.029734615
119	0x3cd5860e	0.026064899
120	0xbc2bcd67	-0.010485983
121	0xbe80fb17	-0.25191566
122	0xbca33bba	-0.01992594
123	0xbd80374b	-0.06260546
124	0xbd3e2d34	-0.046429828
125	0xbc415fea	-0.011802653
126	0xbd046886	-0.032326244
127	0xbc89ea68	-0.016835406
128	0xbd91172d	-0.070844986
129	0xbf06e32a	-0.52690375
130	0xbd4869ac	-0.0489289
131	0x3da85b8e	0.08220588
132	0xbb7c7a6a	-0.0038525113
133	0xbcdc3d15	-0.026884595
134	0x3b685714	0.0035452293
135	0xbe150281	-0.14551736
136	0xbe890818	-0.26763988
137	0xbeb4628c	-0.35231435
138	0x3c5d4ca0	0.013507038
139	0xbdacc42c	-0.08435854
140	0xbd09a1b5	-0.03360148
141	0x3e87dc33	0.26535186
142	0x3cf7fd5a	0.030272175
143	0xbcd4511c	-0.025917582
144	0xbd68c949	-0.056832585
145	0xbe81c5fe	-0.2534637
146	0xbec2b65d	-0.38029757
147	0x3ca2fdc4	0.019896396
148	0xbca51658	-0.020152256
149	0xbabd52a1	-0.0014444181
150	0x3d81300c	0.06307992
151	0x3cb28f09	0.02179672
152	0xbd82ba8f	-0.063832395
153	0xbd185a62	-0.03719557
154	0x3d19bfff	0.037536617
155	0x3e916db3	0.28404006
156	0x3d103eea	0.03521625
157	0x3bbbd421	0.005732075
158	0xbdbf86ca	-0.09351881
159	0x3d4711e5	0.04860105
160	0x3ba0b392	0.004904219
161	0x3d2ac3c5	0.041690607
162	0x3db4c61b	0.08826848
163	0xb9a2da42	-0.00031061663
164	0xb9985d09	-0.00029061016
165	0x3e79f4f2	0.24409845
166	0xbe170339	-0.14747323
167	0x3c4fe3be	0.012688575
168	0x3ce2f95b	0.027706793
169	0x3b8a8ca9	0.004228194
170	0x3cb705d0	0.022341639
171	0xbc91c3e2	-0.0177936
172	0x3d2af0ce	0.041733555
173	0xbdf7e980	-0.121050835
174	0x3ca845b7	0.020541055
175	0x3c65a245	0.014015739
176	0x3d036342	0.03207708
177	0xbd781c33	-0.060573768
178	0xbe0a3dbb	-0.13500111
179	0xbd530e40	-0.05152726
180	0xbc27dc2f	-0.010245367
181	0xbe1a6594	-0.15077811
182	0x3dd883a7	0.10571986
183	0x3c576256	0.013146004
184	0x3ebfdaae	0.37471527
185	0x3d24432e	0.04010313
186	0x3d97e579	0.07416815
187	0xbd39f404	-0.045398727
188	0x3bc89bff	0.006122112
189	0x3c290160	0.010315269
190	0x3d45ebe7	0.048320677
191	0x3c445f34	0.011985589
192	0x3cba1e10	0.022719413
193	0xbc3df5e4	-0.011594269
194	0xbd1b6400	-0.037937164
195	0xbdbfc310	-0.09363377
196	0x39e6c49e	0.0004401551
197	0xbcff16b1	-0.03113875
198	0x3e48959a	0.19588318
199	0xba9f7adc	-0.0012167352
200	0xbdbd0eaf	-0.09231316
201	0x3d4b67eb	0.04965965
202	0xbb0c983d	-0.0021453046
203	0x3dafc2b9	0.08582062
204	0x3d133196	0.03593596
205	0x3d95de81	0.0731783
206	0x3fb03a29	1.3767749
207	0xbd0014bf	-0.031269785
208	0xbd097463	-0.03355826
209	0xbc01b5e8	-0.007916905
210	0xbc257ba3	-0.010100278
211	0xbe24ea4a	-0.16104999
212	0x3e13c016	0.14428744
213	0x3daeb61a	0.08530827
214	0xbd79b7f2	-0.06096644
215	0xbe6ab234	-0.22919542
216	0xbe7025fe	-0.23451993
217	0xbf1952a4	-0.59891725
218	0xbd174574	-0.03693147
219	0xbc28f8d1	-0.010313229
220	0xbe0e4880	-0.13894844
221	0xbd00b206	-0.031419776
222	0x3dcd0b9e	0.100119814
223	0xbdc24f03	-0.094877265
224	0xbcf7c65b	-0.03024595
225	0xbdb8e85a	-0.090286925
226	0x3dcd64d8	0.10029
227	0x3cfcff80	0.03088355
228	0xbbaf60e4	-0.0053521264
229	0x3db670f8	0.08908266
230	0x3d01d704	0.031699196
231	0xbb92603c	-0.0044670384
232	0x3e5557c8	0.20834267
233	0xbd22f1bb	-0.039781313
234	0xbcc44706	-0.023959648
235	0x3e63bdcd	0.22240372
236	0x3ce9fc2b	0.028562626
237	0x3c86bebd	0.016448373
238	0x3d827a05	0.0637093
239	0x3d07e610	0.03317839
240	0x3da3ca11	0.079975255
241	0x3c10dca2	0.008841665
242	0x3f50ac06	0.81512487
243	0x3ebbc14d	0.36670914
244	0x3e261aa5	0.16221102
245	0xbd0b59df	-0.034021255
246	0x3cbeb479	0.023279415
247	0xbd5965f5	-0.05307575
248	0x3ec86e24	0.3914653
249	0xbc6e4f8a	-0.014545331
250	0x3d883528	0.06650764
251	0x3eaac86a	0.3335603
252	0xbd18574d	-0.03719263
253	0xbd45c8b5	-0.048287112
254	0xbe6f39fc	-0.23361963
255	0xbd162802	-0.03665925

features.2.bias f4 [70]
0	0xb94625c0	-0.00018896814
1	0x3bddc838	0.0067682527
2	0xbb90a3eb	-0.004414072
3	0xbd36950d	-0.04457574
4	0xbb9eee90	-0.004850216
5	0x3cd002da	0.025391985
6	0x3402b5a0	1.2173268e-07
7	0x3c0b8be1	0.008517236
8	0xbd1985ea	-0.037481226
9	0xbc7e288a	-0.015512595
10	0xbb017498	-0.0019753333
11	0xbaece65f	-0.0018074027
12	0xbd6b85bc	-0.057500586
13	0xbb739edc	-0.0037173545
14	0xbd5a787c	-0.05333756
15	0xbc9b0187	-0.018921627
16	0x3dd18809	0.10231025
17	0x3d7412aa	0.059588112
18	0xbe67f71a	-0.22652856
19	0xbd50a597	-0.05093917
20	0xbaaad9e0	-0.0013034903
21	0x3ae70dba	0.0017627992
22	0xbb5f4486	-0.0034067943
23	0xbc19a2d1	-0.009377197
24	0x3cae9811	0.021312745
25	0xbb7d4ba9	-0.0038649833
26	0xbb5c8723	-0.0033649884
27	0xbc9c667f	-0.019091843
28	0xbb979f6c	-0.004627159
29	0xb98078b6	-0.00024504
30	0x3d759566	0.05995693
31	0xbc79c907	-0.015245683
32	0xbb0580fa	-0.0020371065
33	0x3da22c2f	0.079185836
34	0xba1f527e	-0.0006077661
35	0xbcda3dbc	-0.026640765
36	0xbd719649	-0.058981214
37	0xbdbc2569	-0.09186823
38	0xbc033c9d	-0.008010057
39	0x3dacc342	0.0843568
40	0xbd302f06	-0.043013595
41	0x3b5ea186	0.0033970787
42	0xbd43ca16	-0.047800146
43	0xb505217c	-4.9595087e-07
44	0xbc38c4e7	-0.011277414
45	0xbeb72c5f	-0.3577604
46	0x3db18de7	0.08669644
47	0xbd911257	-0.07083576
48	0xbde178aa	-0.11009343
49	0xbc8aa5a8	-0.016924694
50	0xb8a77ed4	-7.986804e-05
51	0x3dac6379	0.084174104
52	0x3c253b33	0.010084915
53	0xba542cab	-0.0008093814
54	0xbd999fa6	-0.07501154
55	0xb8270b23	-3.9826275e-05
56	0xbaf932ef	-0.0019012372
57	0x3891f9b5	6.96065e-05
58	0xb5b4f56e	-1.3482475e-06
59	0xbdbc8260	-0.092045546
60	0xbbd9ba6b	-0.006644537
61	0xba158e29	-0.00057050824
62	0x39824ba0	0.00024851877
63	0x3889b8a1	6.567059e-05
64	0x3d35fcfd	0.04443072
65	0xbc5f86bd	-0.013642964
66	0x35080ab7	5.067954e-07
67	0xbc9692dd	-0.018380577
68	0x3c314ced	0.010821563
69	0x3d1fd723	0.03902353

features.4.weight f4 [70]
0	0xbea25b73	-0.31710395
1	0x3edadb90	0.42745638
2	0x3eab95ed	0.33512822
3	0x3ec7152d	0.38883343
4	0x3eb485c0	0.35258293
5	0x3f146b92	0.5797664
6	0x3ea8e456	0.32986706
7	0x3eaf6e28	0.3426373
8	0xbe9148c6	-0.28375834
9	0xbf244077	-0.64160866
10	0x3e8edffa	0.27905256
11	0x3e8d5158	0.27601123
12	0x3f0cfd70	0.55074215
13	0x3e9b9bf0	0.30392408
14	0x3ecbd152	0.39808136
15	0x3ebcd2ec	0.3687967
16	0x3f2cce73	0.67502517
17	0x3ee9d4d4	0.45670187
18	0x3f3c6e85	0.7360614
19	0xbee0b4cc	-0.43887937
20	0x3ee1700a	0.44030792
21	0x3e944b03	0.2896348
22	0x3e757f9d	0.23974462
23	0x3ee209d3	0.4414812
24	0x3eda2931	0.42609552
25	0x3eb80f51	0.35949185
26	0x3ec93f56	0.39306134
27	0x3f063492	0.52423966
28	0x3f2a3bda	0.66497576
29	0x3e8488da	0.2588566
30	0x3f0dcab8	0.5538745
31	0x3f148097	0.5800871
32	0x3e8795d4	0.26481497
33	0x3efaaa12	0.48957878
34	0x3e818c5a	0.25302392
35	0x3e9e4366	0.30910796
36	0x3ec0c102	0.37647253
37	0x3f336bfe	0.7008666
38	0x3ec16570	0.37772703
39	0x3ef284b3	0.47366866
40	0x3ea0b332	0.31386715
41	0x3ea90025	0.33007923
42	0x3e9e6e3a	0.3094347
43	0xbe81d3df	-0.25356957
44	0x3edc1e22	0.4299174
45	0x3f886ac7	1.0657586
46	0xbf2c319b	-0.6726319
47	0x3ecf329c	0.404683
48	0xbebbc1bd	-0.36671248
49	0x3eb0cd17	0.3453147
50	0xbe9fe5e6	-0.31230086
51	0x3ed7c951	0.4214578
52	0x3f7be573	0.98396987
53	0x3e7d6337	0.24744879
54	0x3eb22e32	0.3480087
55	0x3eac62bd	0.3366908
56	0x3e9b8511	0.3037496
57	0x3e80a70e	0.25127453
58	0x3ea5f085	0.32410064
59	0x3e935d66	0.28782195
60	0x3ee23a25	0.44184986
61	0xbe788bd5	-0.24272092
62	0xbe7eaf33	-0.2487152
63	0x3ea500d2	0.32227188
64	0x3eb8306f	0.35974452
65	0x3ea18e67	0.31553957
66	0x3e81d4ce	0.2535767
67	0x3ed8c256	0.42335767
68	0x3eafc50c	0.34330022
69	0xbecd11ad	-0.40052548

features.4.bias f4 [70]
0	0xbe0d12c7	-0.13776694
1	0x3e62fa8e	0.22165892
2	0xbe88892e	-0.2666716
3	0xbb8bacd4	-0.004262546
4	0x3e353bcf	0.17698596
5	0x3e9bd827	0.3043835
6	0x3d995652	0.074871674
7	0x3e4cbd8c	0.19994181
8	0x3c974432	0.018465135
9	0xbe1733cc	-0.14765853
10	0x3c6c318d	0.014416111
11	0x3d5ade78	0.05343482
12	0x3e8aa65b	0.27080044
13	0x3d837480	0.06418705
14	0x3e71dac6	0.23618612
15	0x3db5e8c5	0.08882288
16	0x3ed3a036	0.4133317
17	0x3e3a5eb4	0.18200189
18	0x3f01ae72	0.5065681
19	0xbde0f94c	-0.109850496
20	0x3db0b27b	0.086277924
21	0x3dbe8b1c	0.09303877
22	0x3b21197b	0.0024581838
23	0x3e67621c	0.2259602
24	0x3e5a9731	0.21346737
25	0x3d7b8877	0.06140944
26	0x3e0e7f23	0.13915686
27	0x3ddcdfb3	0.10784855
28	0x3ea2417c	0.31690586
29	0x3cbece29	0.023291664
30	0x3eb29fda	0.34887582
31	0x3e15c8ae	0.14627334
32	0x3d4b6e71	0.049665872
33	0x3eaf1c27	0.34201166
34	0x3c863306	0.016381752
35	0x3dda6faa	0.106658295
36	0x3dd01891	0.10160936
37	0x3ea1c1d4	0.31593192
38	0x3d82f612	0.063945904
39	0x3e479474	0.19490224
40	0x3df465e7	0.11933499
41	0x3e159844	0.14608866
42	0x3de262c2	0.11053993
43	0xbd020ffc	-0.031753525
44	0x3e30918d	0.17243023
45	0x3ee42ea6	0.4456684
46	0xbe36353c	-0.17793745
47	0x3e36b9c9	0.17844309
48	0x3cad1f0f	0.021132974
49	0x3e0fc172	0.14038637
50	0xbe0975b0	-0.134238
51	0x3e430e93	0.19048528
52	0x3eaed351	0.34145597
53	0xbdbc542c	-0.09195742
54	0x3d962b4b	0.07332476
55	0x3e0f7e50	0.14013028
56	0xbe2f10b8	-0.17096221
57	0xbb34540b	-0.0027515914
58	0x3dae6fb8	0.085174024
59	0x3dd07e5e	0.10180353
60	0x3e2fbe36	0.17162403
61	0xbc3052b6	-0.010761907
62	0xbd21f1cf	-0.039537247
63	0xbe43dcf9	-0.19127263
64	0x3e11dfdb	0.1424555
65	0x3dfa781d	0.12229941
66	0x3cf0ec17	0.029409451
67	0x3e283e55	0.16430028
68	0x3e4ddc08	0.20103467
69	0xbe2e7802	-0.17037967

features.4.running_mean f4 [70]
0	0x429b69ee	77.706894
1	0x411217c2	9.1308
2	0x42bc0ec6	94.028854
3	0x4252a805	52.66408
4	0x410c5f72	8.773302
5	0x4119aee2	9.605196
6	0x42ea8551	117.26038
7	0x419f3659	19.901537
8	0x42605461	56.0824
9	0x406ed9e4	3.732049
10	0x42ca4aeb	101.146324
11	0x42bff3f5	95.97648
12	0x41382207	11.508307
13	0x42aa8f86	85.28032
14	0x410e467c	8.892208
15	0x4135384f	11.326247
16	0x412abcce	10.671095
17	0x41031193	8.191791
18	0x4180a411	16.08011
19	0x3ff484c8	1.9103022
20	0x3f8780ac	1.0586143
21	0x41668777	14.408072
22	0x42dd8e7b	110.77828
23	0x41298cd4	10.596882
24	0x4138eb17	11.557395
25	0x3f49f752	0.78893006
26	0x3fd4aecd	1.6615845
27	0x3fec8729	1.8478748
28	0x4175b7c6	15.357367
29	0x42e565a7	114.69854
30	0x416a02d5	14.625691
31	0x405cea6b	3.4518077
32	0x42d72791	107.57728
33	0x41849b9a	16.575977
34	0x42dfae42	111.84035
35	0x40b2ab65	5.583422
36	0x40447623	3.0697105
37	0x41118913	9.095965
38	0x3f5773a4	0.8416083
39	0x40894305	4.289431
40	0x41182168	9.508156
41	0x4106f83c	8.435604
42	0x40878eb4	4.23617
43	0x42ea185d	117.047585
44	0x41075708	8.458748
45	0x40a32a93	5.098947
46	0x40667b3f	3.6012723
47	0x4125d2fc	10.36401
48	0x41e608c3	28.754278
49	0x40c0657c	6.012388
50	0x42b9623e	92.69188
51	0x40ffc438	7.9927025
52	0x4046eb4d	3.1081116
53	0x42ceb29a	103.34883
54	0x405f5e66	3.4901366
55	0x42e2b9cc	113.362885
56	0x42cd882c	102.76596
57	0x43077ab0	135.47925
58	0x42c1fe7a	96.997025
59	0x419ba5ae	19.455898
60	0x40e856eb	7.26061
61	0x42e53b00	114.615234
62	0x42e3d85f	113.9226
63	0x42d05e5e	104.18431
64	0x410a2aa3	8.635409
65	0x40cabab3	6.3352904
66	0x42ea5dea	117.183426
67	0x4107722a	8.465372
68	0x41a77e3a	20.936634
69	0x415004ca	13.001169

features.4.running_var f4 [70]
0	0x4383e24c	263.76794
1	0x431100a2	145.00247
2	0x43a51421	330.15726
3	0x43cc863e	409.04877
4	0x42e0fe3a	112.49654
5	0x435431ca	212.19449
6	0x435ad849	218.84486
7	0x43ef5115	478.63345
8	0x441bf4a2	623.8224
9	0x431ca7ff	156.65623
10	0x4388e395	273.77798
11	0x43c6fda4	397.98157
12	0x43980ff3	304.1246
13	0x4353ee9a	211.93204
14	0x42b85f27	92.185844
15	0x431d9bb9	157.60829
16	0x433fe1ef	191.88255
17	0x434e7e5a	206.49356
18	0x43e299a7	453.2004
19	0x418d5829	17.668047
20	0x4193f03e	18.492306
21	0x437eda45	254.85262
22	0x443f7ae3	765.9201
23	0x435bf695	219.96321
24	0x439661fe	300.76556
25	0x4178fddd	15.561978
26	0x414dc571	12.860703
27	0x42516965	52.352924
28	0x442dd94d	695.3953
29	0x44262cdc	664.7009
30	0x43ad1ed4	346.24084
31	0x4306368f	134.21312
32	0x43b16d7b	354.85532
33	0x43c36a80	390.83203
34	0x441bfaa7	623.91644
35	0x42b3b89c	89.860565
36	0x41ea072b	29.2535
37	0x4389bf82	275.49615
38	0x418ec8b4	17.848
39	0x424fca83	51.947765
40	0x42bbcb25	93.89677
41	0x43328521	178.52003
42	0x41c722dd	24.892023
43	0x445e01e1	888.02936
44	0x435b5e4f	219.3684
45	0x4317e198	151.88123
46	0x42d8a7eb	108.327965
47	0x437be6fe	251.90231
48	0x431463a6	148.38925
49	0x42dd4da2	110.65163
50	0x4398b5ef	305.42136
51	0x430ea6e6	142.65195
52	0x428eb723	71.35769
53	0x43d66391	428.77786
54	0x4229e1ac	42.470383
55	0x439278d5	292.944
56	0x43dccc3f	441.59567
57	0x44f45e47	1954.9462
58	0x4351822d	209.5085
59	0x434926b4	201.15118
60	0x4309d6f8	137.83972
61	0x4407caca	543.1686
62	0x44301bac	704.4324
63	0x43cb1fc1	406.24808
64	0x4301e04e	129.87619
65	0x42d25720	105.170166
66	0x448a7714	1107.7212
67	0x434363dc	195.39008
68	0x44061b24	536.4241
69	0x437a4b15	250.29329

features.6.weight f4 [65, 70]
0	0x3a7f1a6f	0.0009731417
1	0x3c1c2bd1	0.009531931
2	0x3cb88f91	0.022529395
3	0xbda85c20	-0.082206964
4	0x3cfa0e57	0.030524416
5	0xbc76b6b3	-0.015058207
6	0xbc806280	-0.015671968
7	0x3d4a81da	0.049440242
8	0xbd5a3493	-0.053272795
9	0x3cdf42ff	0.027253626
10	0x3d8d7547	0.069071345
11	0x3d29caa1	0.041453008
12	0xbde7bd61	-0.11315418
13	0x3cc8bf93	0.024505412
14	0x3b1871d8	0.0023261216
15	0xbc8461be	-0.016159888
16	0xbc1e31fd	-0.009655473
17	0xbc2e2456	-0.01062878
18	0xbc58e5d9	-0.013238394
19	0x3e8173a0	0.25283527
20	0xbe108bd2	-0.14115837
21	0x3cb0cd2d	0.02158221
22	0xbc01fe6a	-0.007934192
23	0x3d8f670f	0.07002079
24	0xbcb13a8e	-0.021634366
25	0xbe0e5066	-0.13897857
26	0x3d975072	0.073883906
27	0xbd003c8e	-0.03130775
28	0x3dd73927	0.10508948
29	0x3d21c0db	0.039490562
30	0xbc3dd19b	-0.011585618
31	0xbe044c1e	-0.12919661
32	0x3d611280	0.054949284
33	0xbc3b47ae	-0.011430664
34	0xbc513fea	-0.012771586
35	0x3dcabc3c	0.09899184
36	0x3ca18a82	0.019719366
37	0xbfaeab1c	-1.3645968
38	0xbc1f46a4	-0.009721432
39	0x3cf5125c	0.029915981
40	0xbbad4c5f	-0.005288645
41	0x3de693f2	0.11258687
42	0x3c9ce2a8	0.019151047
43	0x3c9c2488	0.019060388
44	0x3ce49ccb	0.027906796
45	0xbec9dee1	-0.39427856
46	0xbd5ad593	-0.053426336
47	0xbc88101f	-0.01660925
48	0xbd6f7d2d	-0.058468986
49	0x3db54092	0.088502064
50	0xbd31e2d9	-0.04342923
51	0xbabbac95	-0.0014318401
52	0xbd1db312	-0.038500853
53	0x3cbe2d19	0.023214864
54	0x3cc36092	0.02384976
55	0x3d52f3a1	0.051501874
56	0x3d2b53a7	0.041827824
57	0xbccb924c	-0.024850033
58	0xbbda0518	-0.0066534393
59	0x3d33d0b1	0.043900196
60	0xbd67a68c	-0.056555316
61	0x3cbcd34d	0.023049975
62	0x3c41222f	0.011787935
63	0x3cfa17cc	0.030528925
64	0x3d6e3afe	0.058161728
65	0x3de9707b	0.11398407
66	0xbc98b5ee	-0.018641438
67	0x3c5a9f6c	0.013343673
68	0x3d4231be	0.04741072
69	0xbd7e3b63	-0.062068354
70	0x3dd9787d	0.106186844
71	0x3bd91cda	0.006625754
72	0xbc2e7e8f	-0.010650291
73	0xbd2c0b12	-0.042002745
74	0x3da983f9	0.08277125
75	0x3c72ef52	0.014827566
76	0xbc6e8758	-0.014558636
77	0x3da9d704	0.08292964
78	0xbe7d4132	-0.24731901
79	0x3d157496	0.03648814
80	0x3ecf1f97	0.4045379
81	0x3ed7e2bb	0.4216517
82	0x3c3d9772	0.011571752
83	0xbe3061c5	-0.17224796
84	0x3a5c0dd8	0.0008394397
85	0x3bc9cb1d	0.006158246
86	0x3be4b2df	0.006979331
87	0x3c2cd342	0.010548415
88	0x3ba87729	0.005141158
89	0xbdd4553f	-0.10367822
90	0xbdc487fd	-0.0959625
91	0xbd4674de	-0.048451297
92	0x3db3db4f	0.08782064
93	0x3d36641b	0.04452906
94	0x3c3c3e0f	0.011489405
95	0xbe26f214	-0.16303283
96	0x3dd59fef	0.104308955
97	0xbdcd494b	-0.10023745
98	0x3cef4832	0.02920923
99	0x3ecd00ea	0.4003976
100	0x3ca3edea	0.020010907
101	0xbe21343c	-0.15742582
102	0x3ed8c895	0.42340532
103	0x3cc56fdc	0.02410119
104	0xbcfeee0f	-0.031119375
105	0x3d9b609a	0.07586785
106	0xbd0574cb	-0.032582086
107	0x3cd6ba89	0.026211994
108	0xbe1370d8	-0.14398515
109	0xbf8d9e63	-1.1063961
110	0x3ccf3d91	0.025297912
111	0x3dcd197d	0.10014627
112	0xbd195e03	-0.037443172
113	0x3c9a9b4e	0.018872883
114	0x3c9c14c2	0.019052867
115	0x3c3d6661	0.011560054
116	0x3e29e6c2	0.16591933
117	0x3d541a0b	0.05178265
118	0x3e736356	0.23768362
119	0x3da9fc9a	0.08300133
120	0xbd525555	-0.05135091
121	0x3bb4acca	0.005513762
122	0x3d9fc186	0.078005835
123	0xbca83a3d	-0.020535583
124	0x3a898cc9	0.0010494228
125	0x3d4abf01	0.04949856
126	0xbc8e086c	-0.017338
127	0x3c82d97a	0.015972842
128	0x3d4e9968	0.05043927
129	0xbe27158f	-0.16316818
130	0xba89e242	-0.0010519701
131	0x3ca66447	0.020311488
132	0x3ca12f9a	0.019676019
133	0xbc2dcb89	-0.010607609
134	0x3c990732	0.018680189
135	0x3d99191a	0.07475491
136	0xbce3187e	-0.02772164
137	0x3dac48c3	0.08412316
138	0x3dabd5f2	0.08390416
139	0xbce79349	-0.028268473
140	0xbe62a916	-0.22134814
141	0xbc1cc687	-0.009568817
142	0x3ccc6124	0.024948664
143	0xbddb8f23	-0.107206605
144	0xbd152e1e	-0.036420934
145	0xbbaca643	-0.0052688434
146	0xbe31dd9c	-0.17369694
147	0x3cb6cb24	0.022313662
148	0xbdabfc55	-0.08397738
149	0x3df6de23	0.12054088
150	0xbdafaab6	-0.085774824
151	0x3daf2b1d	0.08553145
152	0xbe7ef489	-0.2489797
153	0xbe1c4c71	-0.15263535
154	0xbc9eb6a7	-0.019374205
155	0xbe3708a6	-0.17874393
156	0xbc04691a	-0.008081699
157	0x3da73d0c	0.08165941
158	0xbe5c299e	-0.2150025
159	0x3c3de161	0.011589379
160	0xbdcefa10	-0.101062894
161	0x3dd83326	0.10556631
162	0xbe03539c	-0.12824863
163	0xbe40e740	-0.18838215
164	0x3d5b1fda	0.053497173
165	0xbcf784c3	-0.030214673
166	0xbe47b573	-0.19502811
167	0xbc994fd5	-0.018714825
168	0xbeeed2c4	-0.46645176
169	0xbb360964	-0.0027776593
170	0x3c2f3538	0.010693841
171	0xbd214775	-0.039374787
172	0xbd565f3b	-0.052336913
173	0x3d4a915a	0.049455024
174	0xbd996743	-0.07490399
175	0x3a40c4af	0.0007353527
176	0xbd96b81f	-0.07359337
177	0xbf121637	-0.5706515
178	0xbd422545	-0.047398824
179	0x39283a30	0.00016043405
180	0xbe8d7af1	-0.2763286
181	0xbd9d64eb	-0.07685264
182	0xbb83dac1	-0.00402388
183	0x3dec5d96	0.115412876
184	0xbe8567ce	-0.2605576
185	0x3d3b10c7	0.045670297
186	0x3db62397	0.08893507
187	0xbdc54a89	-0.09633357
188	0xbe85ca7b	-0.26131043
189	0x3bbcc516	0.005760799
190	0x3d8cb125	0.06869725
191	0xbcfa91af	-0.030587045
192	0xbe95a0d2	-0.2922426
193	0xbcad74a6	-0.021173786
194	0xbe58dc0f	-0.21177696
195	0xbdd283a8	-0.10279018
196	0xbcd2587a	-0.025676955
197	0xbdcafef1	-0.099119075
198	0xbe81feb9	-0.2538965
199	0x3e58398b	0.21115701
200	0xbcbc7380	-0.023004293
201	0x3db9adf3	0.09066381
202	0x3dd6e2fe	0.10492514
203	0xbca958c2	-0.020672206
204	0x3c844fbc	0.016151302
205	0xbd00f4a3	-0.031483304
206	0xbdd8d264	-0.10587004
207	0xbee2b9c7	-0.44282362
208	0x3c78c3ba	0.015183384
209	0xbd5173b4	-0.051135734
210	0xbd9a1492	-0.07523455
211	0x3cbd8496	0.023134511
212	0x3cd3503a	0.025795091
213	0xbdfffda9	-0.12499554
214	0xbe88e9b7	-0.2674081
215	0xbd918883	-0.07106116
216	0xbe421a28	-0.1895529
217	0x3dc7f790	0.09764016
218	0x3dc89377	0.09793752
219	0xbceee4f5	-0.02916191
220	0xbcafa4eb	-0.021440944
221	0xbdd84d69	-0.1056164
222	0xbeea5d50	-0.45774317
223	0x3e8aa161	0.27076247
224	0x3a0e7d05	0.00054354995
225	0xbddffa1e	-0.10936378
226	0xbd13f965	-0.036126513
227	0x3cef9f1c	0.029250674
228	0xbd79bf22	-0.060973294
229	0x3e18f965	0.14938886
230	0x3cae82bf	0.021302579
231	0xbe26d60d	-0.16292591
232	0xbdadad06	-0.08480267
233	0xbe91ab15	-0.28450838
234	0x3ce0b87c	0.027431719
235	0x3d97241d	0.07379935
236	0x3d787252	0.0606559
237	0xbcd6d75b	-0.026225736
238	0xbc8398a2	-0.016063992
239	0xbd944424	-0.07239559
240	0xbd0b7987	-0.034051444
241	0xbcb7b19f	-0.022423564
242	0xbe08051d	-0.132832
243	0xbcb012f4	-0.021493413
244	0xbd128817	-0.035774317
245	0x3dc756c2	0.097333446
246	0xbd11b531	-0.03557319
247	0x3d585614	0.052816465
248	0x3da06c91	0.078332074
249	0x3c83cbf7	0.016088469
250	0x3db28353	0.08716454
251	0x3de117f6	0.10990898
252	0xbcc348b2	-0.023838375
253	0x3cf7d56a	0.030253131
254	0x3e08a147	0.13342772
255	0xbd40d4e9	-0.047078047

features.6.bias f4 [65]
0	0xbdad1fe9	-0.08453352
1	0xbd5105a0	-0.051030755
2	0x3dc40ed2	0.09573139
3	0xbec1eef7	-0.37877628
4	0xbe35954b	-0.17732732
5	0xbe002481	-0.12513925
6	0xbeeb5c2a	-0.45968753
7	0x3e04fc6b	0.12986915
8	0x3e9831be	0.2972545
9	0x3e0da506	0.13832483
10	0x3d4cb01b	0.049972635
11	0x3e08134a	0.13288608
12	0xbe110057	-0.14160286
13	0xbe84e30b	-0.2595447
14	0x3ee1bde9	0.44090202
15	0x3dc028d3	0.093827866
16	0x3d103c31	0.035213653
17	0x3e31a782	0.17349055
18	0x3d858351	0.06519187
19	0x3e4360f0	0.19079947
20	0xbe4521b6	-0.19251141
21	0x3e4651b8	0.1936711
22	0xbc8601ee	-0.016358342
23	0xbd2fb218	-0.042894453
24	0xbdd8cfd1	-0.10586513
25	0xbe5170de	-0.20453212
26	0xbe545fb6	-0.20739636
27	0xbf1e8819	-0.6192642
28	0xbedb3429	-0.42813233
29	0xbddeed6c	-0.108851284
30	0x3e0246f9	0.12722386
31	0x3d076b99	0.033061597
32	0x3bff3b6a	0.007789065
33	0x3e5169ce	0.20450518
34	0xbdc8dfad	-0.09808288
35	0xbe558c2e	-0.20854256
36	0xbf12d6e8	-0.5735917
37	0x3e7322ef	0.23743795
38	0xbe724594	-0.23659354
39	0x3dbc243a	0.09186597
40	0x3d7ba5ff	0.061437603
41	0x3ccb36e8	0.024806455
42	0x3c376a52	0.011194782
43	0xbe9dadce	-0.30796665
44	0xbed5c698	-0.41753078
45	0x3dbb8269	0.09155733
46	0x3e296d9a	0.16545716
47	0xbc1f524c	-0.009724211
48	0xbe3aeae4	-0.18253666
49	0xbcf0f42d	-0.029413307
50	0x3e299514	0.16560775
51	0xbe22521a	-0.15851632
52	0xbe524985	-0.20535858
53	0xbe0f0972	-0.13968447
54	0xbed4353c	-0.41446865
55	0xbe8930ff	-0.26795194
56	0xbe250ca4	-0.16118103
57	0x3e6bd580	0.23030663
58	0x3db4f75f	0.08836245
59	0x3e02d367	0.12775956
60	0x3c8da5dd	0.017291004
61	0x3dfe8e9b	0.124295436
62	0xbd3860fa	-0.04501436
63	0xbe9063f1	-0.2820125
64	0xbe647fa0	-0.2231431

features.8.weight f4 [60, 65]
0	0x3c9876e0	0.018611372
1	0xbcbb7751	-0.022884043
2	0x3dfaf885	0.122544326
3	0x3e0ac25f	0.13550709
4	0x3bd9e339	0.0066494015
5	0xbe7bd6ca	-0.24593654
6	0x3dc53b6c	0.096304744
7	0xbcad75c5	-0.021174321
8	0xbc13bec3	-0.009017649
9	0xbe23c48b	-0.15992944
10	0x3d6702e5	0.056399245
11	0x3dc7a234	0.09747735
12	0x3e8b6aa2	0.27229792
13	0xbde1038a	-0.10987003
14	0xbdafea13	-0.08589568
15	0x3c984865	0.018589208
16	0xbdbb21b4	-0.09137288
17	0xbc206203	-0.009788993
18	0x3d002d4c	0.0312932
19	0xbdc065e3	-0.09394433
20	0x3b683028	0.0035429094
21	0xbe72a986	-0.2369748
22	0xbb4089ba	-0.0029378966
23	0x3d13b3be	0.036060087
24	0x3e0c2820	0.13687181
25	0x3be9ced4	0.0071352515
26	0xbb5ff1f7	-0.0034171322
27	0xbe18f37b	-0.1493663
28	0x3e93a99a	0.28840333
29	0xbd92fd60	-0.07177234
30	0xbab121a0	-0.0013514049
31	0xbdd2fbf8	-0.103019655
32	0xba404580	-0.0007334575
33	0x3db1cc7e	0.08681582
34	0xbd426de7	-0.047468092
35	0x3d12e92b	0.035866898
36	0xbcb39e4f	-0.021926073
37	0xbe58afeb	-0.21160857
38	0x3eaf157f	0.34196088
39	0xbc4d5a84	-0.012533788
40	0xbe001c5b	-0.12510817
41	0x3d61bf4a	0.055114068
42	0x3dc6284d	0.096756555
43	0xbdce22f5	-0.10065261
44	0x3defa2ae	0.117009506
45	0xbc50f05f	-0.012752621
46	0xbd2786cb	-0.040900033
47	0xbe097b6c	-0.13425988
48	0x3d73c80b	0.059516948
49	0x3d615d35	0.05502053
50	0xbcc5e079	-0.024154888
51	0xbb08551b	-0.002080268
52	0xbd5362fd	-0.051608074
53	0x3db6bd9e	0.08922885
54	0xbe00c8f6	-0.1257666
55	0x3d898384	0.06714538
56	0xbdb7739e	-0.08957599
57	0x3dd01c2e	0.10161625
58	0x3d4e1195	0.050309736
59	0xbe2e40bf	-0.17016886
60	0x3e248614	0.16066772
61	0x3db24f80	0.0870657
62	0x3d3ebaa5	0.046564717
63	0xbc11e67c	-0.008905049
64	0x3cdad29f	0.02671176
65	0x3f10bbd7	0.5653662
66	0x3d710d57	0.058850612
67	0x3d869ef5	0.065732874
68	0xbe197bdd	-0.14988656
69	0x3bae17c6	0.0053128926
70	0xbc418f32	-0.011813926
71	0x3e40b9ad	0.1882083
72	0xbde23840	-0.11045885
73	0x3c9589cd	0.018254185
74	0x3e00cdd7	0.12578522
75	0x3d1c9a0e	0.038232855
76	0xbd5cdbbe	-0.0539205
77	0x3d404705	0.04694273
78	0x3c59045a	0.013245666
79	0x3c61e636	0.013787797
80	0xbd0ca09c	-0.034332857
81	0x3e0907c9	0.13381876
82	0xbcfbc1ae	-0.030732002
83	0xbdeddd5b	-0.11614486
84	0x3c3f9221	0.011692555
85	0x3de3b9a7	0.11119395
86	0x3da9aa70	0.082844615
87	0xbd921ade	-0.07134031
88	0x3e2c1c54	0.16807681
89	0xbcf9281b	-0.030414632
90	0x3d861ee7	0.06548863
91	0xbe7154fb	-0.23567574
92	0x3d319c8d	0.04336219
93	0xbe9f5e18	-0.31126475
94	0xbd39ff61	-0.045409564
95	0xbd5137ef	-0.051078733
96	0x3bd61bd8	0.006534081
97	0xbb84b9ee	-0.004050485
98	0xbe33e482	-0.17567638
99	0xbe4fe1f6	-0.20301041
100	0x3cc29829	0.023754196
101	0xbd90629a	-0.07050057
102	0xbf39b94a	-0.72548354
103	0xbd72aad5	-0.05924495
104	0x3d21e01d	0.03952037
105	0x3e15a411	0.14613368
106	0x3de5ae1c	0.11214849
107	0x3dd85c35	0.10564462
108	0xbdefe444	-0.1171346
109	0xbd02270d	-0.031775523
110	0xbf8e74e6	-1.1129425
111	0x3d8fd845	0.07023672
112	0xbe091d44	-0.1339007
113	0xbd5ae4a6	-0.053440712
114	0x3cbf29de	0.023335394
115	0x3dd27834	0.10276833
116	0x3defcdf0	0.11709201
117	0x3ccb6d7d	0.024832482
118	0xbec50a92	-0.38484627
119	0xbcbd1886	-0.023082983
120	0xbda73db4	-0.08166066
121	0xbe5d52fc	-0.21613687
122	0x3ccae87f	0.024769066
123	0x3e21f576	0.15816292
124	0xbe42411e	-0.18970153
125	0x3dce2a28	0.100666344
126	0xbdda3d27	-0.10656195
127	0xbcc5af48	-0.024131432
128	0xbc3c1811	-0.011480347
129	0xbd63486e	-0.055488996
130	0xbd74f038	-0.059799403
131	0x3d12657f	0.035741325
132	0x3cb98f77	0.022651417
133	0xbdf88906	-0.1213551
134	0xbf0802d4	-0.53129315
135	0x3c99edbd	0.01879012
136	0xba00404e	-0.00048923946
137	0xbd2d2aab	-0.04227702
138	0xbea61eaf	-0.32445285
139	0xbdd3d04d	-0.103424646
140	0xbd086f50	-0.03330928
141	0xbe420413	-0.18946867
142	0x3d8540f4	0.065065295
143	0x3d10dbc2	0.035365827
144	0xbdaf5c43	-0.085625194
145	0xbdcab5af	-0.09897935
146	0xbe56480a	-0.20925918
147	0x3d502bdb	0.050823074
148	0xbe92ae6a	-0.28648692
149	0xbf038dfb	-0.5138852
150	0xbe70b27d	-0.23505588
151	0x3d4350c7	0.047684457
152	0x3cd14378	0.025544867
153	0xbf8e2294	-1.1104302
154	0xbbca89b9	-0.0061809686
155	0x3b0f6d9b	0.0021885398
156	0xbd033dde	-0.032041423
157	0xbdb0cf21	-0.08633257
158	0x39bd3446	0.00036087836
159	0xbd4857ba	-0.048911788
160	0xbdd27c25	-0.10277585
161	0xbe869608	-0.2628634
162	0x3d8f008a	0.06982525
163	0xbe600910	-0.21878457
164	0xbe2ec393	-0.17066793
165	0xbe3667f3	-0.17813091
166	0xbe233c2f	-0.15940927
167	0x3d983938	0.074327886
168	0xbd080072	-0.03320355
169	0xbe07be69	-0.1325623
170	0x3ebe8d7f	0.37217328
171	0x3de73e41	0.11291171
172	0xbda49deb	-0.08037933
173	0xb9811153	-0.00024617705
174	0x00055855	4.90865e-40
175	0x3de7e4b3	0.11322918
176	0xbd125c6c	-0.03573267
177	0x3e34e682	0.17666057
178	0xbe35806f	-0.17724775
179	0xbb3161b6	-0.0027066297
180	0xbe1c9bda	-0.15293828
181	0xbda098bc	-0.07841632
182	0xbaa14348	-0.0012303377
183	0xbda23fd7	-0.07922333
184	0xbda18fa4	-0.078887254
185	0xbc833ba0	-0.016019642
186	0xbe8cd856	-0.275088
187	0xbdec3483	-0.11533453
188	0xbe6d813d	-0.23193832
189	0xbc43da30	-0.011953875
190	0x3e2c6637	0.16835867
191	0xbc8de0b8	-0.017319068
192	0x3daaa816	0.08332841
193	0xbe00f237	-0.12592398
194	0x3e02872a	0.12746873
195	0xbd7488e5	-0.059700865
196	0x3dcd9197	0.10037535
197	0xbdfd2c56	-0.12361972
198	0x3d78e0c0	0.060761213
199	0xbd4d03d4	-0.05005248
200	0x3e9d5974	0.3073231
201	0xbb970e61	-0.0046098684
202	0xbde0864f	-0.10963117
203	0xbdfcd234	-0.123447806
204	0xbd9428da	-0.07234354
205	0x3e33f402	0.1757355
206	0x3de07620	0.109600306
207	0xbdca3eef	-0.09875285
208	0xbd47e570	-0.048802793
209	0xbd80e482	-0.062935844
210	0xbc3c4e97	-0.011493347
211	0xbca4e403	-0.020128256
212	0x3de545e6	0.11194973
213	0x3c4affc7	0.012390084
214	0xbee6d451	-0.4508386
215	0x3e1f9387	0.15583621
216	0xbe7e77da	-0.24850407
217	0xbe08abac	-0.13346738
218	0xbd5824ab	-0.052769344
219	0xbeb62be2	-0.35580355
220	0x3d604c46	0.05476024
221	0xbd741236	-0.05958768
222	0xbde6bbc7	-0.112662844
223	0xbe84ad15	-0.259133
224	0xbdefff50	-0.11718619
225	0x3dc05655	0.093914665
226	0xbd098254	-0.033571556
227	0x3dd5fc0c	0.10448465
228	0xbcd7eefc	-0.026359074
229	0xbe2fcd42	-0.17168143
230	0xbe0e3103	-0.13885884
231	0xbcdd62a8	-0.027024582
232	0x3cb85222	0.022500101
233	0xbe1d60cb	-0.15368955
234	0x3db2c4d7	0.087289505
235	0xbc27f9b4	-0.010252405
236	0xbda40790	-0.08009255
237	0xbce05555	-0.02738444
238	0xbb6024f2	-0.0034201709
239	0xbe0a7ddd	-0.13524576
240	0xbd76aa64	-0.06022109
241	0xbb8eb804	-0.0043554325
242	0xb8eba10b	-0.0001123567
243	0x3d1472ab	0.03624217
244	0xbe118a2f	-0.14212869
245	0xbd063b3a	-0.032771327
246	0xbe549a6a	-0.2076203
247	0xbcc529c3	-0.024067765
248	0x3e1af41c	0.15132183
249	0xbde7d746	-0.11320357
250	0x3cb86790	0.02251032
251	0x3d7acea7	0.061232235
252	0x3e803e8f	0.25047728
253	0xbda17f04	-0.078855544
254	0xbd673988	-0.05645135
255	0x3de0d8fb	0.10978886

features.8.bias f4 [60]
0	0xbc5e7cf5	-0.013579597
1	0xbbb489e5	-0.0055096024
2	0x3e12289c	0.14273304
3	0x3de5dd4d	0.112238504
4	0x3c3944b5	0.011307885
5	0x3c5b2ba0	0.0133771
6	0xbd4bb5e6	-0.04973402
7	0xbc99e6d8	-0.018786833
8	0xbd137f1d	-0.036009897
9	0x3b9a67fe	0.004712104
10	0x3c85370c	0.0162616
11	0xbe16031c	-0.14649624
12	0x3d498d81	0.049207214
13	0xbde497f4	-0.11161795
14	0xbddd97fd	-0.10820005
15	0x3d1d50b2	0.038407035
16	0x3dce5d06	0.100763366
17	0x3e453da1	0.19261791
18	0xbdd577a0	-0.10423207
19	0x3c89c747	0.016818656
20	0xbe87179a	-0.26385194
21	0x3df27428	0.11838561
22	0x3c06e1d3	0.008232552
23	0x3bce9ddf	0.006305441
24	0x3dcc48b4	0.099748045
25	0x3d185ca5	0.037197728
26	0xbe008755	-0.12551625
27	0x3bef3237	0.0072996872
28	0x3de40d2e	0.11135326
29	0x3c30dfaa	0.010795513
30	0x3e45c693	0.19314031
31	0xbcabba08	-0.02096273
32	0xbe06d1f7	-0.13166033
33	0xbdf2937f	-0.11844539
34	0x3d81e728	0.06342918
35	0xbe80bf4b	-0.25145945
36	0xbe226216	-0.1585773
37	0xbdf78fb3	-0.12087955
38	0xbe0570a4	-0.1303125
39	0xbe8ffa24	-0.2812053
40	0xbd87f871	-0.06639183
41	0x3e34fe4e	0.17675135
42	0x3e301d4f	0.1719868
43	0xbdacc60e	-0.084362134
44	0x3c1fd5a5	0.009755527
45	0xbe601744	-0.21883875
46	0x3e38621a	0.18006173
47	0x3d4e83fd	0.050418843
48	0xbe0025ed	-0.12514468
49	0x3dc75a90	0.0973407
50	0x3d1297fd	0.03578948
51	0xbdbf7074	-0.093476206
52	0x3e5d25d1	0.21596457
53	0x3d67f399	0.056628797
54	0x3d434cb0	0.047680557
55	0xbde4981d	-0.11161826
56	0x3c6c5da2	0.014426621
57	0xbe9a3abe	-0.30122942
58	0xbd8e78c4	-0.06956628
59	0xbd0ee3d9	-0.03488526

features.10.weight f4 [60, 60]
0	0xbd479846	-0.048729204
1	0xbe39aa95	-0.18131478
2	0x80055921	-4.91151e-40
3	0x00055a3b	4.91546e-40
4	0xbdf6844a	-0.12036951
5	0xbdf992df	-0.121862166
6	0x3d9096b4	0.07059994
7	0x8005613d	-4.9406e-40
8	0xa7840e18	-3.665264e-15
9	0x8005592c	-4.91166e-40
10	0x3cdbf3e7	0.0268497
11	0x3d46d045	0.048538465
12	0xbd7414c6	-0.059590124
13	0x3d586f9a	0.052840807
14	0xb32f0432	-4.074918e-08
15	0x3c0f6eb1	0.008754418
16	0x397e492f	0.0002425059
17	0x3a4b0a8d	0.00077454076
18	0x3dea38a8	0.114365876
19	0xba3ef6d2	-0.0007284704
20	0x3d9810ff	0.07425117
21	0x3d3f5c50	0.046718895
22	0x3e204fc2	0.15655425
23	0xbce18d6b	-0.027533254
24	0xba867807	-0.001025916
25	0x3b3296b0	0.0027250461
26	0xb935137e	-0.00017268767
27	0x00055a26	4.91517e-40
28	0x3b591dd6	0.0033129356
29	0x38312250	4.2232045e-05
30	0x800557ef	-4.90722e-40
31	0x3ae3d00b	0.0017380727
32	0x000560cc	4.93902e-40
33	0xbc7022fa	-0.014656777
34	0x000557ad	4.9063e-40
35	0x3c8672dd	0.016412193
36	0x3c0ef5a7	0.00872556
37	0x3dd65ccf	0.104669206
38	0x3c8ae2b2	0.0169538
39	0x3e3a48a9	0.1819178
40	0x3be706fc	0.007050393
41	0x3d2751e3	0.040849578
42	0x00055928	4.91161e-40
43	0xbd18a30f	-0.03726488
44	0xbbf7cc8b	-0.007562225
45	0x3deb9c6f	0.11504447
46	0x00055769	4.90534e-40
47	0x3d89bdbf	0.06725644
48	0xbcdba433	-0.026811695
49	0x800558d7	-4.91047e-40
50	0x3b50fe68	0.003188992
51	0x3e024ca6	0.12724552
52	0x3bec02d4	0.0072024856
53	0xbd6a38bc	-0.057183012
54	0x3cfaa24d	0.03059497
55	0xbe5cc060	-0.2155776
56	0x80055a62	-4.91601e-40
57	0x3dde305b	0.10849067
58	0x3d5dff33	0.054198455
59	0x3b238ee0	0.0024956986
60	0xbe742e17	-0.23845707
61	0xbea84129	-0.32862213
62	0xba1ca082	-0.0005974845
63	0xbc1ae890	-0.009454861
64	0xbe1f7deb	-0.15575378
65	0xbde73fb4	-0.11291447
66	0xbc3ed79f	-0.011648088
67	0xbd97f2c9	-0.074193545
68	0xbe2cd3ff	-0.16877745
69	0xbde981bc	-0.11401698
70	0x3dfd5be2	0.12371041
71	0xbde6f1d2	-0.11276592
72	0x3e45bc75	0.19310172
73	0xbdf6bb75	-0.12047473
74	0x3d049f3d	0.032378424
75	0xbe1b76a8	-0.15181983
76	0xbc3b6720	-0.011438161
77	0x3da79da1	0.08184362
78	0xbe053df5	-0.13011916
79	0x3ad285b8	0.001606158
80	0xbd91950b	-0.07108506
81	0x3c735fe3	0.014854404
82	0x3d4c71f5	0.049913365
83	0x3deeae76	0.116543695
84	0xbd895380	-0.067053795
85	0xbde4b702	-0.111677185
86	0x3c3b61d3	0.011436897
87	0xbc4f1397	-0.012638948
88	0xbb83fc17	-0.004027854
89	0xbcbb6b1b	-0.02287822
90	0x3e7b75a0	0.24556589
91	0x3b8fd274	0.0043891016
92	0xbe96bb7a	-0.29439908
93	0xbd6d0d22	-0.057873853
94	0xbcfda29a	-0.030961324
95	0xbe4ad2d3	-0.19806986
96	0xbdd6bc05	-0.10485081
97	0xbdf0ab7f	-0.1175146
98	0xbe8359fb	-0.25654587
99	0x3d64d993	0.055871557
100	0x3e2cf4dd	0.16890283
101	0xbd55af19	-0.05216894
102	0xbe005da0	-0.12535715
103	0xbd0306df	-0.031988975
104	0xbdca8ba9	-0.09889919
105	0x3e706904	0.2347756
106	0x3cd7c107	0.02633716
107	0x3e306a70	0.17228103
108	0x3c4ade0d	0.012382043
109	0xbe70a3c5	-0.23499973
110	0xbb27cdad	-0.002560477
111	0x3d2c8bf7	0.04212567
112	0x3c8f960a	0.017527599
113	0xbe99dccc	-0.30051267
114	0xbb14765b	-0.0022653553
115	0xbe14d781	-0.14535333
116	0x3c6bcabd	0.014391598
117	0xbddaa700	-0.10676384
118	0x3bd6d7b9	0.006556478
119	0xbe5fc169	-0.21851124
120	0xbd24c684	-0.04022838
121	0xbdb69551	-0.089151986
122	0xbe2f3a68	-0.17112124
123	0xbe1e8bdf	-0.15483044
124	0x3de7f272	0.1132554
125	0x3dd2189e	0.102586016
126	0x3c1a02b1	0.009400056
127	0xbda2542b	-0.0792621
128	0xbc636d18	-0.01388099
129	0x3e596776	0.21230873
130	0xbdb4cecb	-0.08828505
131	0xbca40405	-0.020021448
132	0x3e76ff67	0.24120866
133	0x3e140849	0.14456286
134	0x3e408b99	0.18803252
135	0x3e1ab5a3	0.15108351
136	0xbe21eb82	-0.15812495
137	0xbe4cbc02	-0.19993594
138	0xbdd579c9	-0.10423619
139	0x3ca20e92	0.019782338
140	0xbdf4c94b	-0.11952456
141	0xbe3e7493	-0.18599157
142	0xbe75427a	-0.2395114
143	0x3e0e95f5	0.13924392
144	0x3d492303	0.049105655
145	0x3e3e6299	0.185923
146	0x3ea00199	0.3125122
147	0x3c08cfda	0.008350337
148	0x3d1b214a	0.037873544
149	0xbd16b4c7	-0.036793496
150	0xbdd00930	-0.101580024
151	0xbd44822c	-0.047975704
152	0x3dd6bf54	0.10485712
153	0x3d36e70b	0.044653933
154	0xbd52077a	-0.05127666
155	0x3bc59222	0.0060293833
156	0xbd9cfa47	-0.07664924
157	0x3dc8e430	0.09809148
158	0x3cc67373	0.024224972
159	0xbe00fd77	-0.12596689
160	0x3dacbb88	0.08434206
161	0x3d3609cd	0.04444294
162	0xbd6c987d	-0.05776261
163	0xbdc02fb8	-0.09384102
164	0xbe22a834	-0.15884477
165	0xbcee4ac9	-0.029088395
166	0xbdc6d40c	-0.097084135
167	0xbebb40d1	-0.36572888
168	0xbd1ddfa4	-0.03854336
169	0x3d75bebc	0.05999635
170	0x3d83f84f	0.064438455
171	0xbddff4aa	-0.10935338
172	0x3e768b0d	0.24076481
173	0x3d53d97b	0.051721077
174	0xbe0f69bf	-0.14005183
175	0x3d31a65b	0.04337154
176	0x3e5ffb93	0.21873312
177	0xbe23ee0d	-0.16008778
178	0x3d6171cf	0.055040177
179	0xbe61c9ac	-0.22049588
180	0x3d8f7f38	0.07006687
181	0xbd7d1164	-0.061784163
182	0x3c6719de	0.014105288
183	0xbe4bf4b7	-0.1991757
184	0x3da66149	0.081240244
185	0xbd2895cc	-0.041158482
186	0xbcff750d	-0.031183744
187	0xbd7c3639	-0.06157515
188	0xbd02a0f9	-0.031891797
189	0xbc8da2fd	-0.017289633
190	0x3bc1cce1	0.005914316
191	0x3c88b0e8	0.016685918
192	0x3dcba183	0.09942915
193	0x3debf2ea	0.115209416
194	0x3dd167af	0.10224854
195	0x3d718717	0.058966722
196	0xbe08dfcf	-0.13366626
197	0xbea51ca6	-0.3224842
198	0xbe461fc0	-0.19348049
199	0xbdc593de	-0.09647344
200	0x3cf90bf7	0.030401213
201	0xbe9c40c8	-0.30518174
202	0xbe5ea997	-0.21744381
203	0x3e2856d8	0.16439378
204	0x3de7a654	0.113110214
205	0x3e679098	0.22613752
206	0x3c9d9fcd	0.019241238
207	0xbd869fea	-0.0657347
208	0x3d6f62b8	0.058443755
209	0xbbffa291	-0.007801362
210	0x3d0f58e6	0.03499689
211	0xbe3e1dd3	-0.18566065
212	0xbe506b97	-0.20353542
213	0xbcac2fe4	-0.02101893
214	0xbdf387c8	-0.118911326
215	0x3dd6f277	0.10495465
216	0x3dad65ec	0.08466706
217	0xbe4fd29b	-0.20295183
218	0xbe3d2ee8	-0.18474925
219	0x3db00290	0.08594239
220	0xbd5b585c	-0.053551063
221	0x3d83713b	0.064180814
222	0x3bedf4f8	0.0072618686
223	0x3ddb7290	0.107152104
224	0x3d70828c	0.05871825
225	0x3d7c8185	0.061646957
226	0x3aae358d	0.0013291106
227	0xbf07ecaf	-0.53095526
228	0xbdaa3628	-0.08311111
229	0x3d959dab	0.073054634
230	0x3e819d38	0.2531526
231	0xbdd482a4	-0.1037648
232	0x3db3671c	0.08759901
233	0xbc957fe8	-0.018249467
234	0x3e18e02f	0.14929269
235	0x3db42e33	0.08797874
236	0xbde2a37f	-0.11066341
237	0xbd6c0e52	-0.057630844
238	0xbc8575f1	-0.01629159
239	0xbe4cfcc9	-0.20018305
240	0xbc477ce5	-0.012175773
241	0x3e8ac1f2	0.27101094
242	0xbd166d23	-0.036725175
243	0xbcbc5cad	-0.02299341
244	0xbdc89de2	-0.09795739
245	0xbf09f727	-0.5389275
246	0x3d3a3f12	0.045470305
247	0xbd078b48	-0.033091813
248	0x3d00743a	0.031360842
249	0xbd8107a7	-0.06300288
250	0xbd337331	-0.043811027
251	0xbcf22cea	-0.029562432
252	0x3c87c631	0.016573997
253	0xbe4bae89	-0.19890799
254	0x3c84aae8	0.016194776
255	0x3ded8863	0.11598279

features.10.bias f4 [60]
0	0xbf01aac5	-0.506512
1	0xbc549bb8	-0.012976579
2	0x3ccdb7bb	0.025112024
3	0x3c50e397	0.012749574
4	0x3be5f040	0.0070171654
5	0x3e919f42	0.28441817
6	0x3d8cda9e	0.068776354
7	0x3d84c93b	0.06483694
8	0x3d9c774b	0.07639941
9	0x3e887f5a	0.26659662
10	0x3ca2184b	0.019786974
11	0xbdc7214f	-0.0972315
12	0x3e30a535	0.17250521
13	0xbdc1cf2b	-0.09463342
14	0xbc952def	-0.01821038
15	0xbc11f433	-0.008908319
16	0xbd3cc3b8	-0.04608509
17	0xbc8d4c82	-0.017248396
18	0xbada2a2e	-0.0016644651
19	0x3daeba1b	0.085315906
20	0x3bd291d6	0.0064260764
21	0xbcaf9a7f	-0.021435974
22	0x3da5a5a2	0.080882326
23	0xbe2261cc	-0.15857619
24	0xbdc54a15	-0.09633271
25	0x3d35d5ac	0.044393227
26	0xbca3b4d5	-0.019983688
27	0x3cb9f5a6	0.022700142
28	0xbc0738b3	-0.008253264
29	0x3d6080d1	0.05481035
30	0xbd2a8f16	-0.041640364
31	0x3d6f2aa1	0.058390263
32	0x3abc5ec2	0.0014371502
33	0x3d9c85e4	0.07642725
34	0xbb855ae9	-0.004069675
35	0x3db6cac8	0.08925396
36	0x3e603699	0.21895827
37	0x3e77b33f	0.2418947
38	0xbcf6a6f4	-0.030108906
39	0xbe00cfd7	-0.12579285
40	0x3d11bc9e	0.03558027
41	0xbd01462d	-0.031561065
42	0x3d847594	0.06467739
43	0xbcfc55c6	-0.030802619
44	0xbd948fb8	-0.07253975
45	0xbbbd0942	-0.005768926
46	0x3c40a39f	0.01175776
47	0xbc25bac8	-0.010115333
48	0xbaf86b3f	-0.001895286
49	0x3d3b145c	0.045673713
50	0x3c207cc4	0.009795371
51	0x3e8ecea0	0.27892017
52	0x3c987601	0.018610956
53	0x3d31b6c7	0.0433872
54	0x3dfd8f7d	0.12380884
55	0x3e45b8a1	0.19308712
56	0xbc9b3f50	-0.018951088
57	0x3da396d0	0.079877496
58	0xbd7cd848	-0.0617297
59	0xbcc3e951	-0.023914965
