best_parameters.pt (torch, 448984 bytes, 117 tensors)

features.0.weight f4 [70, 31]
000000 e1 24 a4 b9 39 09 09 bd 42 de f4 b9 31 4c 69 bc
       -0.00031307995 -0.03345606 -0.00046704902 -0.014239357
000010 f1 37 4b 3b 06 2f 92 bc 0c 58 74 bb 1f b8 94 bc
       0.0031008685 -0.017844688 -0.0037283925 -0.018154202
000020 ce d5 e2 bc 52 47 47 3c 2a 7d bf bc d3 2b 4e bc
       -0.02768984 0.012163 -0.023375113 -0.012583691
000030 c5 ce 89 bb 68 47 39 3d e2 ab 23 bd 67 df c5 3c
       -0.004205557 0.045234114 -0.039958842 0.024154378
000040 e5 eb f3 bc 20 42 03 3c 67 a8 cf 3c 86 d8 4c 3d
       -0.02977557 0.008011371 0.025348855 0.05001118
000050 ed 0a c8 bc 48 f7 80 3d 62 ac e6 3b 1f c2 ec bb
       -0.024419272 0.06297165 0.0070395926 -0.0072252895
000060 83 9c b1 3c 0c b0 cd bb ee de 08 3d 06 1c c2 bc
       0.021681076 -0.00627709 0.033415727 -0.023695003
000070 18 18 d5 3a 9c aa b8 bd 7b 04 00 bb a4 2a 11 ba
       0.0016257791 -0.09016916 -0.001953392 -0.0005537665
000080 de a2 91 bc 29 5a 05 00 3e 81 2f ba 5c 57 05 00
       -0.017777856 4.91521e-40 -0.0006694979 4.90516e-40
000090 e8 4d cb 3a fc 88 0e be 98 23 45 bd bc 33 fa be
       0.0015510889 -0.13919443 -0.048129648 -0.48867595
0000a0 c6 6f bc bb 35 b8 4e 3f b0 6f 53 3f 77 b2 96 bd
       -0.005750629 0.8074983 0.82592297 -0.07358258
0000b0 2e 5b 0a 3d 2b 15 49 bc 0b 92 58 3d 5a 01 2b 3c
       0.033778362 -0.012273113 0.052873652 0.010437334
0000c0 d6 3a 97 bc c8 53 9f bd b0 3a 92 3c fc ef 90 3b
       -0.018460672 -0.07779652 0.01785025 0.0044231396
0000d0 9d 9c 41 3d 50 4e 5e 3d 3c 97 35 be a1 3c 02 bc
       0.0472685 0.054273903 -0.17733473 -0.007949025
0000e0 47 a1 ec 39 93 3e 19 bb 19 cf 51 3c 6f 69 40 bc
       0.0004513359 -0.0023383244 0.012805724 -0.011743887
0000f0 af 3d 94 bd 5a 66 dd 3a 1a 65 44 3c 3d 0a df 3d
       -0.07238328 0.0016891465 0.011986995 0.10890625
000100 6e 18 a8 ba 0f 89 87 3e a7 96 a3 3a 4c 01 c2 bd
       -0.0012824663 0.26471755 0.0012480811 -0.094729036
000110 a6 23 5c bd fa 81 86 bd 71 a8 f9 bd 95 04 03 3d
       -0.053744934 -0.0656776 -0.12190331 0.03198679
000120 a7 51 2e bd fd 30 46 bd de 5d a2 bc 9b 7c 20 bd
       -0.04255834 -0.048386563 -0.01982015 -0.039181333
000130 b8 48 31 bd e6 c7 dc ba 1f 50 20 3d e7 b3 b9 bc
       -0.04328224 -0.0016844242 0.03913891 -0.022668792
000140 f9 1c 37 bc d2 0e 48 bd c2 a5 4a bc be 19 f7 3b
       -0.011176341 -0.04884226 -0.012368621 0.0075409105
000150 ac 95 3c bd 8c b2 e5 bb ac e8 a3 3b 05 4f 11 bd
       -0.046041176 -0.00700981 0.005002102 -0.03547575
000160 a5 a6 e3 3b c7 44 6d bd a1 5c e5 bb a9 c4 22 bd
       0.006947356 -0.05792692 -0.0069995676 -0.03973833
000170 db 8b 80 bb 0f 1b 40 3b 81 e6 c0 3d 78 c7 62 3b
       -0.003922922 0.0029313003 0.09418965 0.0034603756
000180 52 e2 4c 3c c2 72 f3 ba 7a 93 c0 3c 6f 67 13 3d
       0.012505131 -0.0018573629 0.023507822 0.035987314
000190 7a 9b 0b 3c 95 55 15 3c a7 50 aa bd 82 35 cb bd
       0.008520955 0.009114643 -0.083161645 -0.09922315
0001a0 07 57 db bd 61 76 1a bd f8 06 33 3a 04 d4 0a bc
       -0.107099585 -0.03771055 0.00068293465 -0.0084734
0001b0 c9 15 19 3d e9 b3 bc 3b 24 0e d7 bc 01 96 f7 bb
       0.03737429 0.0057587516 -0.02625186 -0.0075557237
0001c0 8a 6e 02 bc 74 47 3f bc 35 32 57 bb b3 b8 3d bc
       -0.007960925 -0.011674751 -0.0032836322 -0.01157968
0001d0 ea f8 8e 3a 02 4a 03 bd 66 9a a3 bc c6 3b 65 3d
       0.0010907922 -0.032053 -0.019971084 0.055965208
0001e0 83 05 01 bf a5 4b b2 ba 06 e2 b9 bc 15 7b 6f 3c
       -0.50399035 -0.0013602866 -0.022690784 0.014616747
0001f0 8b 2b 6f 39 4e e5 a5 bb a7 e3 a6 b7 e2 01 76 3d
       0.00022809037 -0.0050627356 -1.9894751e-05 0.06006039
000200 64 89 8f 3b b8 c3 c3 3c 83 b6 b3 be 3b ab 36 3c
       0.004380392 0.023897037 -0.35100183 0.011149223
000210 46 f0 e8 3f 21 10 9c bd 5a 20 38 3e 45 f7 1b 3e
       1.8198326 -0.07620264 0.17981091 0.15231045
000220 87 e4 9d bd 98 50 8d bd 1d 07 5f bd c4 9a f5 bd
       -0.07709604 -0.06900138 -0.054450143 -0.1199241
000230 f6 8d ab bc 7e 01 1f 3c e3 6b 0a bd 39 91 a1 bc
       -0.020941716 0.009704946 -0.033794295 -0.019722568
000240 66 4c 11 bd dd 26 f0 bd 2a 0d aa bd 42 15 74 b9
       -0.03547325 -0.117261626 -0.08303292 -0.00023277572
000250 8c 73 bc ba e4 3b 87 b9 5d bb 09 bb b5 5c c2 be
       -0.0014377697 -0.00025793829 -0.0021016218 -0.37961355
000260 7e 80 86 3b 47 38 22 be 74 d0 4a bb c3 d3 a6 ba
       0.004104673 -0.1584178 -0.0030947002 -0.0012727905
000270 69 d5 d2 bd 11 24 8b 39 90 87 3a bd 16 36 e8 3a
       -0.10294611 0.00026539018 -0.04553944 0.0017716314
000280 0f 57 2e be 22 ac 94 be 5d b2 47 bd 4f b6 90 bf
       -0.17025398 -0.29037577 -0.048754085 -1.1305636
000290 69 e0 c4 3d 93 70 1f bf 51 3c 10 bf 95 1c 03 be
       0.09613115 -0.6228115 -0.56342036 -0.12803872
0002a0 24 ab 14 be 57 d1 13 be 4f 56 4c be 21 a9 27 be
       -0.1451841 -0.14435326 -0.19954799 -0.16373111
0002b0 b2 45 ff bd b7 33 c5 bd 65 c7 0b be c0 d7 30 be
       -0.12464465 -0.096290044 -0.13650282 -0.17269802
0002c0 7b 6c fc bd df 06 41 be 2c 20 72 39 0a 41 81 bb
       -0.123253785 -0.18850277 0.00023090903 -0.003944521
0002d0 0b bb a4 39 62 28 f7 ba 40 a1 6f be 79 3d 39 3c
       0.00031419875 -0.001885664 -0.23401356 0.01130616
0002e0 d3 6f 84 be 48 e6 91 3a 01 b4 03 39 87 eb 8f 3c
       -0.25866565 0.0011131251 0.0001256019 0.017568363
0002f0 3e 82 bd 3a c3 ff aa bc 06 4d 54 bc 84 14 f1 3d
       0.0014458371 -0.02087391 -0.012957817 0.11771491
000300 c1 bc 37 3e 86 92 9b 3c c3 85 da bf 69 d7 a0 be
       0.17943098 0.018990766 -1.7072071 -0.31414345
000310 5e fa 4e 3f aa a4 36 3f 60 48 87 3e 5e 49 63 3e
       0.8085078 0.7134501 0.26422405 0.22195956
000320 a0 2b bd 3e 20 b4 52 3e c1 ae 72 3e 88 b7 c5 3e
       0.36947346 0.20576525 0.23699476 0.38616586
000330 ea 7d 7d 3e b3 d3 60 3e db 83 48 3e 42 fd 57 3e
       0.24755064 0.21955757 0.19581549 0.21092704
000340 cb 3f 4e 3e 9c 39 3e b8 c3 42 75 ba e5 85 9a 38
       0.20141523 -4.5353183e-05 -0.00093559566 7.368232e-05
000350 f4 90 12 3a 65 62 ef 3e 3f 43 b8 3c 60 b4 06 3e
       0.00055910577 0.46754757 0.022493003 0.13154745
000360 d8 24 be 3c 58 49 d8 b8 1f e2 e8 3c ed b1 63 3b
       0.023210928 -0.00010313344 0.028428135 0.0034743503
000370 08 ab 3c 3c af 0e f0 3c 50 ca 31 bd 6e 60 3d 3e
       0.011515386 0.029303877 -0.04340583 0.18493816
000380 ef 0f a8 bd 78 ba fd 3f 34 1d d9 be 8b 88 f3 3e
       -0.08206164 1.9822531 -0.42405093 0.47565112
000390 28 88 e2 3e 7e dd c0 3d 2e 4c 38 3d 48 1e c7 3d
       0.44244504 0.09417246 0.044994526 0.097225726
0003a0 d2 12 94 3d 24 cf cc bc f3 ea 08 3e 85 e0 44 3d
       0.07230152 -0.025001116 0.13370876 0.04806568
0003b0 df 0f f7 3d 09 4a c7 3d 0f 67 da 3d 86 c0 68 3d
       0.12063574 0.09730918 0.10664188 0.05682423
0003c0 71 e8 a9 38 d9 a0 8c b9 6c 35 31 39 51 f9 0f ba
       8.1018436e-05 -0.00026822722 0.00016899937 -0.0005492168
0003d0 46 45 8a 3c 3a 37 9c 3c 15 2f e5 3c 35 88 91 3c
       0.016878735 0.019069303 0.027976552 0.017765144
0003e0 09 c3 b2 3a d4 69 0e 3d 1c 50 db 39 d0 b1 0b 3d
       0.0013638447 0.034768894 0.0004183062 0.034105122
0003f0 9d 15 9e bb eb 19 28 3d 34 05 e5 3d 03 89 74 3d
       -0.004824354 0.041040342 0.11182633 0.059700977

features.0.bias f4 [70]
000000 29 b7 1e 3a 0a d4 6d 3d ed be 55 bc 89 80 f4 bb
       0.00060545147 0.058063544 -0.013046009 -0.0074616116
000010 23 e6 42 bc d6 51 01 be 4d 5b fe 3d 17 b3 af 3d
       -0.011895689 -0.12628874 0.12419758 0.085790806
000020 62 9b 19 3b b1 5f f3 3b 3c 05 89 3e e9 44 9b ba
       0.0023438563 0.007427179 0.26761806 -0.0011846098
000030 7b 38 ba bb b3 75 45 bb cb 3c 21 3c e5 8b 27 3e
       -0.0056830025 -0.0030129969 0.009841154 0.1636196
000040 4d 60 89 ba ea 4a 6c 3e d4 34 b9 bd 43 1d 82 bb
       -0.001048097 0.23075452 -0.09043279 -0.0039707734
000050 45 98 4c 3c b6 ef 94 3a 2b ca 33 bf d6 f0 85 3a
       0.012487476 0.0011362943 -0.7023036 0.001021887
000060 ab a4 9f bd d8 2a 5f be e1 f6 61 bb 79 e3 c7 bb
       -0.0779508 -0.21793687 -0.0034479427 -0.006100115
000070 ca d6 50 3d d4 44 83 ba 19 1c 07 3c f2 21 40 bb
       0.05098609 -0.0010015019 0.008246445 -0.0029317108
000080 e5 1b 8e 3f 0b 47 e7 3d 9e 0c b5 bb 0f 44 a6 bb
       1.1102263 0.11292847 -0.0055251857 -0.005074031
000090 74 29 87 bb 16 6f 2a bb 29 c9 f7 3e 72 1c b2 3b
       -0.0041248146 -0.0026006154 0.4839566 0.00543552
0000a0 0c 62 88 bd ec 74 20 3e e7 d0 d6 bb 51 12 64 3c
       -0.06659326 0.15669602 -0.006555665 0.013920383
0000b0 db dc 22 3f ec 5c 4a bb c6 89 39 3e a0 5c 4f bc
       0.6361825 -0.003087814 0.18118963 -0.012656361
0000c0 35 1f a5 bc 3c 2f 0e bc 1e 6d d6 bb 5d 53 48 bd
       -0.020156482 -0.008678254 -0.0065437695 -0.048907626
0000d0 62 40 07 3c 6d 10 6a bc 27 7f 1f bd 93 cf 2d b9
       0.008255096 -0.014286143 -0.03893962 -0.00016575893
0000e0 83 4d 58 bb ce 48 e5 3b 27 e1 8b be 25 95 7f bf
       -0.0033005185 0.0069972044 -0.27320215 -0.9983695
0000f0 c2 29 44 3c 7f ee 04 3e 28 6f 69 bb 8d 24 cd ba
       0.011972846 0.12981604 -0.0035619233 -0.0015651152
000100 83 36 bc 3a ad 24 38 bf bf da ab 3f 8e fa c6 3b
       0.0014359507 -0.7193096 1.3426131 0.006072349
000110 03 00 5f bc dc 80 81 3c
       -0.013610843 0.015808515

features.2.weight f4 [70, 70]
000000 27 01 a6 3c 36 92 01 bd 88 54 84 bb e3 79 ad bc
       0.020264221 -0.03163358 -0.004038397 -0.021176284
000010 e5 f2 ad 3d fe d7 65 3d 61 fa e1 be 6c 4a 96 3d
       0.08493594 0.05611419 -0.44136336 0.073384136
000020 7e 21 ec 3b 79 e5 d9 b9 c0 f5 06 be b6 e8 28 bd
       0.007206141 -0.00041560436 -0.13179684 -0.041237555
000030 72 40 ba bb 31 54 ee bc 7e 8d 63 bd 58 f2 b5 3d
       -0.005683952 -0.02909288 -0.05555486 0.08884114
000040 d5 08 b1 bd 90 65 ad 3d 54 7d 1e 3c c3 75 aa bd
       -0.08644263 0.08466637 0.009673435 -0.083232425
000050 df a0 b3 3c e5 30 41 bc 58 51 25 3e 46 7b 0e bc
       0.021927295 -0.0117914425 0.16144311 -0.008696383
000060 a5 17 13 3d 08 dd 2a 3e c8 3e ac 3c 03 7e 06 3d
       0.03591122 0.16685879 0.02102603 0.032835018
000070 53 e2 01 ba f7 ac e9 bb 84 69 6e 3c b3 7c 38 bc
       -0.00049546844 -0.0071312147 0.014551524 -0.011260199
000080 90 09 04 3e df 3d 58 3e ad 5a 37 bc 79 20 a0 bb
       0.12894273 0.21117352 -0.011191052 -0.0048866835
000090 ee 77 5c bd c0 54 07 bd 15 65 13 bf 93 74 a8 3c
       -0.05382531 -0.03303981 -0.57576114 0.0205634
0000a0 1e 99 42 3d 67 a8 d9 bd 1a b8 cf bc ce 10 aa 3c
       0.047509305 -0.10627823 -0.025356341 0.020759966
0000b0 db fe 80 bd 5e a8 12 3d c3 cc 3e 3c 38 e6 c9 3b
       -0.0629861 0.0358051 0.011645499 0.0061614774
0000c0 10 dd 06 3d 92 98 16 3d 59 00 81 bd 82 aa 07 be
       0.032925665 0.036766596 -0.062988944 -0.13248637
0000d0 97 1f 63 3d f1 59 6a 3d 9c 18 84 3c 84 68 6d 3d
       0.05545005 0.05721468 0.016125016 0.057961002
0000e0 ca 51 7b 3d 4d 75 9d bb 9e f2 09 3e df 33 5e be
       0.061357297 -0.004805243 0.13471457 -0.21699475
0000f0 a5 00 c3 3b 05 d3 c7 bc cc 40 a3 bb c8 a0 9f 3c
       0.0059510046 -0.024392614 -0.0049820896 0.019485846
000100 56 f6 1e bc 09 4e a2 3e 9b 14 a2 3f ba 88 c9 3c
       -0.009702286 0.3170016 1.2662538 0.02460133
000110 37 4e 9e 3b 28 14 fb bc 71 af 4b 3a f0 10 11 be
       0.0048311013 -0.03064926 0.0007769978 -0.14166617
000120 47 c7 3b 3d af b9 f7 3c 2a 47 f0 3c 3d 2f 92 3c
       0.045844343 0.030239908 0.029330809 0.01784479
000130 13 c9 ac 38 0f e9 bc 3e 95 fa b7 bc ee 5a a3 ba
       8.239052e-05 0.3689656 -0.022458354 -0.0012463012
000140 db 9e ba ba a1 20 bd bb 2e d2 d2 bb e0 71 33 3d
       -0.0014238016 -0.005771712 -0.006433747 0.04380977
000150 ca d2 95 bc 76 ea 8e 3e 4f e7 0d 3d 2b 69 e4 3d
       -0.018288989 0.27913254 0.03464442 0.11152872
000160 c8 4a a9 3d 11 d6 36 3c 91 6a d1 3b e1 10 47 3c
       0.082662165 0.011159436 0.0063908775 0.01215002
000170 88 6c a0 bc 68 20 61 bb 82 6f 40 3e 85 30 10 3d
       -0.019583002 -0.003435159 0.18792537 0.03520252
000180 50 a9 fd bd 4c 8c 16 3e c3 9c a8 3c 91 97 85 3d
       -0.123858094 0.14701957 0.020582562 0.065230496
000190 6c 5a 56 bd c3 e6 dc 3c d7 82 ca bc 21 61 05 80
       -0.052332327 0.026965505 -0.024720592 -4.94021e-40
0001a0 39 04 e5 3c e7 ad 9c bc f2 3e ca b9 d8 d8 73 3b
       0.027956115 -0.019125892 -0.0003857534 0.0037208106
0001b0 bb 8d 92 bf 91 11 88 3d 3d bb d2 bb a1 ce b6 ba
       -1.1449503 0.066439755 -0.006431012 -0.0013947078
0001c0 d9 0e 87 bc da 7c 29 bd 5d b7 ab be 63 47 46 bb
       -0.016486572 -0.041378833 -0.33538333 -0.0030254952
0001d0 3f e1 05 bf d1 ed 61 bd b2 77 f0 3c 9e 63 d2 3c
       -0.52296823 -0.05515844 0.02935395 0.025682267
0001e0 c9 10 16 bc b4 5b 82 be 2a a0 8a bc ea b6 75 bd
       -0.009159275 -0.2546059 -0.016922075 -0.059988894
0001f0 df f6 45 bd 26 36 41 bc f7 89 09 bd 40 3e 8a bc
       -0.048331138 -0.011792695 -0.03357884 -0.016875386
000200 1f 52 90 bd 4b b8 06 bf cf 10 3c bd ee 17 a8 3d
       -0.07046913 -0.5262496 -0.045914467 0.08207689
000210 52 98 43 bb 69 cf cb bc d8 c4 89 3b 3f 70 14 be
       -0.0029845429 -0.024879174 0.004204374 -0.14495943
000220 34 f0 88 be 0f 5e b1 be 75 0d 45 3c 2e 6a a7 bd
       -0.2674576 -0.34642074 0.012027134 -0.08174549
000230 5b 0f 0e bd 04 9f 86 3e 04 7a e5 3c c3 28 d9 bc
       -0.034682613 0.26293194 0.028012283 -0.026508695
000240 73 16 67 bd 01 82 83 be c9 2d c4 be 5b af a3 3c
       -0.056417894 -0.25685123 -0.3831618 0.019981077
000250 3d 70 b3 bc d7 2b d9 ba a8 13 88 3d fd 88 a8 3c
       -0.021904105 -0.0016568851 0.06644374 0.020573134
000260 9f 14 7e bd ec b3 1a bd 48 a1 11 3d 2f 97 91 3e
       -0.062031385 -0.037769243 0.0355542 0.28435656
000270 34 ae 08 3d 60 de 8b 3b 29 24 c1 bd 52 bc 4b 3d
       0.033369258 0.0042684525 -0.09430725 0.049740143
000280 c0 8d 95 3b 15 40 27 3d d4 25 b3 3d f0 d4 be ba
       0.004564017 0.040832598 0.087474495 -0.001455931
000290 6a 6b dc b7 81 13 7b 3e 72 e3 14 be 68 71 3b 3c
       -2.6276062e-05 0.24519159 -0.14539889 0.011440612
0002a0 32 b8 eb 3c 62 2a fe 3a e7 72 b6 3c 61 92 92 bc
       0.028774355 0.0019391293 0.022271587 -0.017892065
0002b0 91 20 2e 3d 1a ac f7 bd 54 d3 ab 3c df c5 86 3c
       0.042511526 -0.12093373 0.020974793 0.016451774
0002c0 1c 29 10 3d 4b a5 80 bd db a6 0f be 84 f7 52 bd
       0.035195455 -0.06281527 -0.14028494 -0.05150558
0002d0 7b 7a 1b bc 75 0a 1a be 41 4f da 3d d3 b0 59 3c
       -0.009489651 -0.15043052 0.10659648 0.013286787
0002e0 42 f1 bf 3e 38 78 1c 3d 4a ac 97 3d 20 37 31 bd
       0.37488753 0.038200587 0.074059084 -0.043265462
0002f0 4f 83 1f 3c 74 57 16 3c 0f fb 41 3d 9c 7e 79 3c
       0.009735896 0.009176124 0.04735857 0.01522794
000300 54 41 ce 3c 5d 7b 21 bc fd b7 1f bd 9c 81 c0 bd
       0.025177635 -0.009856072 -0.038993824 -0.09399721
000310 e6 31 f1 3a 06 50 fb bc 1a 20 48 3e e4 29 f6 ba
       0.0018401712 -0.030677807 0.19543496 -0.0018780795
000320 96 69 bd bd ac e0 47 3d 99 05 68 bb 88 f8 af 3d
       -0.092486545 0.04879825 -0.0035403727 0.085923254
000330 89 27 16 3d a3 03 96 3d a4 0e b0 3f ab 71 03 bd
       0.036658797 0.073249124 1.3754468 -0.032090824
000340 be 4a 09 bd 50 59 e2 bb 13 e9 09 bc 9c 21 27 be
       -0.033518545 -0.0069076195 -0.008417386 -0.16321415
000350 b2 f4 10 3e 75 8c a9 3d 2d 91 82 bd fc fe 6b be
       0.14155844 0.08278743 -0.06375346 -0.23046488
000360 89 05 71 be 91 6a 19 bf ae 07 26 bd 4e 58 41 bc
       -0.23537268 -0.5992823 -0.040534668 -0.011800839
000370 11 34 0d be 10 20 f7 bc e6 51 d2 3d bd 45 c1 bd
       -0.13789393 -0.030166656 0.10269527 -0.0943713
000380 69 5a f6 bc 03 07 ba bd 46 c5 ca 3d 27 2e f6 3c
       -0.030072408 -0.09083369 0.09900908 0.030051304
000390 75 1b 85 ba 15 83 b8 3d 29 05 fb 3c 94 10 a1 ba
       -0.0010155278 0.09009377 0.030642109 -0.0012288266
0003a0 90 f7 53 3e 1c bc 25 bd 12 a0 d5 bc 2c d8 61 3e
       0.20699906 -0.0404626 -0.026077304 0.2205512
0003b0 ad 98 e4 3c 19 5c 86 3c 63 11 77 3d 52 65 03 3d
       0.027904833 0.016401337 0.060319316 0.03207905
0003c0 c7 8a a2 3d ea b0 c4 3b 43 f0 50 3f bc a9 bb 3e
       0.07936626 0.006002535 0.8161661 0.36652935
0003d0 a2 d1 23 3e 6b 3f 0d bd b5 e9 ae 3c 21 6a 5e bd
       0.15997937 -0.03448431 0.021351675 -0.05430043
0003e0 06 6a c8 3e de 9f 8a bc e1 de 85 3d 1e 3d ab 3e
       0.3914339 -0.016921934 0.065366514 0.33445066
0003f0 30 a4 10 bd ff f9 47 bd d5 a6 6d be 5f 59 0e bd
       -0.03531283 -0.0488224 -0.23208173 -0.0347532

features.2.bias f4 [70]
000000 0a e4 20 b9 f1 85 c8 3b c7 e5 98 bb 2d 9a 39 bd
       -0.0001534374 0.0061194827 -0.0046660635 -0.04531305
000010 e6 36 a8 bb 51 62 c6 3c 23 29 02 35 55 eb 15 3c
       -0.0051334975 0.024216803 4.8488636e-07 0.009150346
000020 a8 b0 17 bd 67 7f 81 bc 3a c2 83 ba 33 4f 0b bb
       -0.037033707 -0.01580782 -0.0010052391 -0.0021256923
000030 6b 5e 6b bd 11 8f 2c bb ed 10 57 bd b9 90 88 bc
       -0.05746309 -0.0026330391 -0.052506376 -0.016670572
000040 95 4c cf 3d 55 f6 6b 3d 33 9c 66 be a2 2e 55 bd
       0.10122029 0.057607967 -0.22520523 -0.052046426
000050 1c 21 11 bb 66 25 85 3a af b4 47 bb f2 58 0e bc
       -0.002214498 0.001015824 -0.0030472686 -0.008688198
000060 06 67 ab 3c 0d d2 72 bb 5d 0b 6a bb 19 d2 a1 bc
       0.020923149 -0.003705147 -0.003571234 -0.019753503
000070 eb 91 62 bb d7 ad 30 37 15 72 76 3d 3e 8f 7b bc
       -0.0034571837 1.0530893e-05 0.06016739 -0.015353976
000080 d7 08 0c bb bf dc a2 3d 83 92 8c ba c2 e4 e2 bc
       -0.0021367574 0.0795226 -0.0010724816 -0.02769697
000090 6c ec 6c bd 4b 1e bb bd 81 f4 03 bc a8 10 af 3d
       -0.057842657 -0.09136637 -0.0080539 0.08548099
0000a0 ea ce 38 bd e6 30 f6 3a b6 71 4d bd 22 02 41 34
       -0.045119204 0.0018782883 -0.05015727 1.7975302e-07
0000b0 8d 2f 54 bc 73 cc b6 be c1 e8 ac 3d 80 a1 8f bd
       -0.01295079 -0.35702857 0.08442832 -0.070132256
0000c0 91 48 e7 bd 91 98 95 bc 74 34 ea 37 db e4 aa 3d
       -0.11293138 -0.018261226 2.79194e-05 0.08344432
0000d0 d5 12 19 3c 63 d5 0b b9 c1 0e 9a bd 5a d0 92 b4
       0.009342869 -0.00013335566 -0.07522345 -2.7346215e-07
0000e0 a1 1e 08 bb 23 e5 79 b8 3a b3 b7 33 f9 6f c3 bd
       -0.002077021 -5.9579626e-05 8.554203e-08 -0.095428415
0000f0 58 04 fa bb 82 97 66 ba 4a 0d b3 b5 5e 90 99 37
       -0.0076299123 -0.000879638 -1.3340407e-06 1.8306248e-05
000100 f1 e0 32 3d ee d1 70 bc 24 41 21 34 81 e4 90 bc
       0.043671552 -0.014698489 1.5017991e-07 -0.017687084
000110 88 dc 33 3c d9 66 1f 3d
       0.010977872 0.038916443

features.4.weight f4 [70]
000000 75 73 a1 be fc f3 db 3e 62 ae ab 3e 7c b2 c5 3e
       -0.315334 0.42959583 0.3353148 0.38612735
000010 8a 28 b5 3e 09 d5 13 3f 00 11 a8 3e 44 bd ae 3e
       0.3538249 0.5774694 0.3282547 0.34128773
000020 00 24 90 be de 5a 24 bf ac f4 8c 3e 50 91 8c 3e
       -0.28152466 -0.6420115 0.2753042 0.27454615
000030 ba df 0c 3f d4 67 9a 3e 79 f6 cb 3e 4b 49 bd 3e
       0.5502888 0.3015734 0.3983648 0.3696998
000040 a9 45 2d 3f 6e 07 ea 3e 9f 4c 3c 3f 14 af e2 be
       0.6768442 0.45708793 0.73554415 -0.442742
000050 5e f5 e0 3e f6 3c 93 3e ea 72 72 3e 86 f3 e2 3e
       0.439372 0.28757447 0.23676649 0.4432642
000060 52 25 da 3e 33 8f b8 3e 01 86 ca 3e ea 78 06 3f
       0.42606598 0.36046752 0.39555362 0.5252825
000070 7f a7 2a 3f b7 41 84 3e d7 85 0d 3f 26 43 14 3f
       0.6666183 0.25831386 0.5528235 0.5791496
000080 44 c9 86 3e 1e f9 f9 3e 54 00 80 3e 8c 80 9d 3e
       0.26325428 0.48822874 0.2500025 0.30762136
000090 96 f0 c3 3e 4f b8 33 3f 6c 4a c2 3e 2e 49 f5 3e
       0.3826949 0.7020311 0.37947404 0.47907394
0000a0 63 a7 a0 3e 80 78 a8 3e cb 3e a0 3e 31 6e 80 be
       0.31377706 0.32904434 0.31297907 -0.2508407
0000b0 6b c3 dc 3e b0 72 88 3f 4d 07 2b bf 96 0f cf 3e
       0.43117842 1.066 -0.66808015 0.4044158
0000c0 db 61 bc be 48 41 b1 3e fe 6a 9f be 28 a5 d8 3e
       -0.36793408 0.34620118 -0.31136316 0.42313504
0000d0 4c b3 7c 3f 0d e0 7b 3e ae f8 b3 3e cf 2e ab 3e
       0.98711085 0.24597187 0.35150665 0.3343415
0000e0 46 be 9b 3e 58 0f 7f 3e 08 c1 a4 3e b6 00 93 3e
       0.30418605 0.24908197 0.3217852 0.2871148
0000f0 8e 28 e2 3e 59 8c 77 be c1 e8 7b be 87 c9 a4 3e
       0.44171566 -0.24174632 -0.24600507 0.32185003
000100 52 96 b8 3e 45 2d a0 3e dc d4 80 3e d5 57 d9 3e
       0.36052185 0.31284538 0.251624 0.42449823
000110 90 6f af 3e 00 27 cd be
       0.34264803 -0.40068817

features.4.bias f4 [70]
000000 63 19 0b be 60 6c 63 3e 25 b7 87 be d1 6f 93 bb
       -0.13583903 0.2220931 -0.26506916 -0.0044994135
000010 33 72 35 3e 70 bd 9c 3e e7 55 97 3d 8f cc 4d 3e
       0.17719345 0.3061328 0.073894314 0.20097564
000020 22 01 93 3c d2 d1 16 be 2b 41 6e 3c a9 a3 5d 3d
       0.017944876 -0.14728478 0.014541904 0.054111157
000030 f5 67 8b 3e 23 97 82 3d f6 b0 72 3e 78 65 b6 3d
       0.2722775 0.06376483 0.23700318 0.089060724
000040 51 a7 d4 3e 4c b6 3a 3e fc 5e 01 3f 26 cb e0 bd
       0.41533902 0.18233603 0.5053556 -0.109762475
000050 26 bd b2 3d d6 da bd 3d 82 82 02 3b 77 31 68 3e
       0.087274835 0.09270255 0.0019914214 0.2267512
000060 ae df 5a 3e 98 95 78 3d a1 27 0f 3e 29 85 dc 3d
       0.2137439 0.06068954 0.13979961 0.10767586
000070 b2 4d a2 3e 93 18 c8 3c 50 e6 b3 3e ea 4b 16 3e
       0.31699902 0.02442578 0.35136652 0.14677396
000080 a0 50 4a 3d 18 7c b0 3e d3 76 8e 3c ad bf da 3d
       0.049393296 0.34469676 0.017390644 0.106810905
000090 47 3c cd 3d 33 48 a1 3e ed 01 84 3d dd 73 48 3e
       0.100212626 0.31500396 0.0644568 0.19575448
0000a0 e1 0e f7 3d 34 be 16 3e bd f1 e5 3d 49 7f 00 bd
       0.12063385 0.14720994 0.112277485 -0.03137139
0000b0 c4 70 30 3e 50 c0 e3 3e 9a 63 38 be c1 ec 35 3e
       0.17230517 0.4448266 -0.18006745 0.17766096
0000c0 1a 96 b0 3c 05 62 0e 3e 25 00 08 be bd 44 43 3e
       0.021555949 0.13904579 -0.13281305 0.1906919
0000d0 69 f9 ad 3e 7f f0 ba bd 2e 7e 98 3d af e2 0e 3e
       0.33979347 -0.09127902 0.07445942 0.1395366
0000e0 20 7e 2f be 64 e5 29 bb 45 ea ab 3d 7c 4a d3 3d
       -0.17137957 -0.002592408 0.08394293 0.10316941
0000f0 e1 0e 31 3e b1 a4 25 bc 1d 9a 1d bd 98 f3 43 be
       0.17290832 -0.010110066 -0.038477052 -0.19135892
000100 e9 00 13 3e ea 77 fd 3d 35 3c e9 3c c5 d5 29 3e
       0.14355816 0.123763874 0.028471092 0.16585453
000110 9a 44 4e 3e 52 b5 2f be
       0.20143357 -0.17159012

features.4.running_mean f4 [70]
000000 87 1d 99 42 58 35 16 41 64 e0 b8 42 a0 33 4f 42
       76.55767 9.388023 92.43826 51.800415
000010 b2 57 0a 41 71 d3 1e 41 30 ee e8 42 7a f7 a4 41
       8.64641 9.926621 116.46521 20.620838
000020 e5 7e 5e 42 52 62 64 40 b5 57 c9 42 45 5c be 42
       55.62392 3.568501 100.6713 95.180214
000030 93 2e 33 41 81 c8 a7 42 88 2c 0d 41 b3 b9 32 41
       11.198871 83.89161 8.823372 11.170337
000040 2c da 2f 41 fd 69 04 41 aa 4e 7a 41 ab 61 01 40
       10.990765 8.275876 15.644205 2.0215862
000050 c1 2c 89 3f 30 78 69 41 9b 31 dd 42 9e 4b 29 41
       1.0716783 14.591843 110.596886 10.580961
000060 1d 63 3f 41 45 ba 52 3f 89 da e7 3f 82 b9 f4 3f
       11.961698 0.82315475 1.8113567 1.9119112
000070 76 35 73 41 a4 99 e2 42 eb 7b 6e 41 85 dc 5a 40
       15.200552 113.30008 14.905253 3.4197094
000080 6e b8 d6 42 da 73 87 41 f2 87 de 42 7c be b4 40
       107.360214 16.931568 111.26552 5.6482525
000090 3f c2 3e 40 1a a6 17 41 25 81 59 3f a8 4e 8b 40
       2.9806058 9.478052 0.84962684 4.3533516
0000a0 92 d8 16 41 81 a8 04 41 5a 1e 8c 40 3e 44 e8 42
       9.427874 8.291139 4.378705 116.133286
0000b0 31 ac 09 41 2d 23 95 40 be 10 69 40 3b fc 23 41
       8.604539 4.660544 3.6416469 10.24908
0000c0 28 ef da 41 79 de c5 40 4f 7a b9 42 ed f3 03 41
       27.366776 6.1834073 92.738884 8.247052
0000d0 c4 ce 4f 40 15 a9 ce 42 76 93 66 40 db b2 e3 42
       3.246995 103.33024 3.6027503 113.84933
0000e0 44 98 cc 42 e8 58 06 43 92 a9 c0 42 90 1e 8f 41
       102.29739 134.34729 96.33119 17.889923
0000f0 f2 9a e6 40 86 1c e4 42 ea 92 e0 42 2c 64 cf 42
       7.206414 114.05571 112.28694 103.69565
000100 d4 b5 0b 41 33 4a cc 40 29 99 e7 42 94 12 09 41
       8.731892 6.3840575 115.79914 8.567036
000110 72 ae a7 41 2f 68 4e 41
       20.960178 12.900435

features.4.running_var f4 [70]
000000 ca 83 69 43 79 5d 12 43 7d 4e 9c 43 45 9f ce 43
       233.5148 146.36513 312.6132 413.2443
000010 68 21 db 42 f4 f8 57 43 5e 34 52 43 6d e2 f6 43
       109.56525 215.97247 210.20456 493.76895
000020 df d6 12 44 42 8b 0d 43 c7 d2 83 43 63 4e be 43
       587.35736 141.54398 263.6467 380.6124
000030 b2 56 8e 43 74 1b 44 43 8a ca b6 42 82 0a 1a 43
       284.6773 196.10724 91.395584 154.04105
000040 a5 35 45 43 89 52 56 43 e0 5b cf 43 22 5a 92 41
       197.20955 214.3224 414.71777 18.29401
000050 28 65 99 41 b1 eb 82 43 05 1e 2d 44 3b 03 5c 43
       19.174393 261.84134 692.46906 220.01262
000060 41 b3 9b 43 e3 b8 86 41 f0 69 57 41 64 e9 55 42
       311.40042 16.840277 13.463364 53.47792
000070 00 95 29 44 02 78 1e 44 ac 83 b3 43 2c 0a 02 43
       678.3281 633.8751 359.0287 130.03973
000080 6b 0b ae 43 7f d1 c9 43 c8 e2 0f 44 fe 11 b2 42
       348.0892 403.6367 575.54346 89.03514
000090 84 2c e3 41 a2 85 92 43 a6 a3 8d 41 2a 37 57 42
       28.396736 293.044 17.704906 53.80387
0000a0 3c 1d af 42 26 50 2b 43 13 00 cc 41 74 88 4a 44
       87.5571 171.31308 25.500036 810.1321
0000b0 e5 e4 5a 43 03 15 ff 42 bf 0f d7 42 bf 63 6d 43
       218.89412 127.54104 107.530754 237.38963
0000c0 50 88 05 43 8e 40 df 42 fa f2 99 43 0f a5 17 43
       133.53247 111.62608 307.89825 151.64476
0000d0 7c 68 9d 42 ee ee cd 43 f8 97 29 42 a5 46 93 43
       78.70407 411.86664 42.398407 294.5519
0000e0 8d cc d8 43 a9 9f e0 44 d0 02 38 43 b3 38 2e 43
       433.59805 1796.9894 184.01099 174.22148
0000f0 c9 22 07 43 9b 40 f9 43 e4 d9 1d 44 fa dd cb 43
       135.13588 498.50473 631.40454 407.7342
000100 21 7d 04 43 30 a8 ce 42 30 bb 7a 44 77 33 44 43
       132.48878 103.32849 1002.9248 196.20103
000110 2a c8 03 44 f7 4b 7a 43
       527.12756 250.29674

features.6.weight f4 [65, 70]
000000 de 80 ad ba a7 62 06 3c a5 22 b0 3c 1f 75 a5 bd
       -0.0013237258 0.0082022315 0.021500895 -0.0807898
000010 ce 85 f9 3c fc 29 80 bc a8 b1 71 bc 7a d8 44 3d
       0.03045931 -0.01564502 -0.014751829 0.04805801
000020 84 48 60 bd 75 93 e1 3c 55 e6 8f 3d 16 0d 31 3d
       -0.054756656 0.027536133 0.07026354 0.04322537
000030 56 39 eb bd d4 25 c8 3c 25 6f 09 3b 3c 83 81 bc
       -0.11485545 0.0244321 0.0020970788 -0.015809648
000040 10 7f 1e bc 77 24 2a bc 5d 13 40 bc 1c c8 80 3e
       -0.009673849 -0.01038467 -0.011723367 0.2515267
000050 ae 5e 11 be 04 8d bf 3c 1b 6b e6 bb 5f 29 8e 3d
       -0.14196274 0.023382671 -0.007031811 0.06941485
000060 ed 4b b5 bc 16 97 0f be 29 6d 93 3d 69 a3 0f bd
       -0.02213093 -0.14022478 0.07198555 -0.03506795
000070 ac b0 da 3d 10 e4 27 3d d1 29 23 bc 12 a5 06 be
       0.10678229 0.04098898 -0.0099587 -0.13148907
000080 3f e1 62 3d 00 c3 39 bc f5 f3 4a bc 01 e8 cc 3d
       0.055390593 -0.0113379955 -0.012387265 0.10005189
000090 0b 3c ad 3c dc 59 ae bf f0 92 1d bc dc 4e ec 3c
       0.021146795 -1.3621173 -0.009617552 0.028846197
0000a0 6b 12 d1 bb 06 fa e6 3d cc 24 9b 3c dc 22 92 3c
       -0.0063803694 0.11278157 0.018938445 0.017838888
0000b0 b3 a9 ec 3c 8a aa c9 be 5c 69 53 bd 90 8b 88 bc
       0.028889513 -0.39387923 -0.05161415 -0.016668111
0000c0 96 d0 6c bd 6b 05 b1 3d 7e ad 37 bd 06 c7 f3 ba
       -0.05781611 0.086436115 -0.04484319 -0.0018598742
0000d0 5a 4a 1e bd d5 22 bf 3c 97 f1 d5 3c a9 e7 57 3d
       -0.038645126 0.023332039 0.026116176 0.052711163
0000e0 00 fd 2d 3d 03 5c c6 bc dc 40 78 bb e4 cc 37 3d
       0.042477608 -0.024213796 -0.0037880456 0.044873133
0000f0 be 7f 67 bd 8c f7 a7 3c 99 a4 37 3c 99 67 ff 3c
       -0.05651831 0.020503782 0.011208677 0.031177329
000100 28 30 6a 3d 7d cb e7 3d e5 fb 9d bc ba 2f 22 3c
       0.05717483 0.11318109 -0.019285152 0.009899074
000110 ed 05 45 3d 51 48 7d bd 62 ec d8 3d 91 8d f9 3b
       0.048101354 -0.061836544 0.105919614 0.007615753
000120 f3 0b 1d bc 48 d4 24 bd 54 dc a7 3d a7 d1 73 3c
       -0.009585368 -0.04024151 0.08196321 0.014881528
000130 88 38 69 bc 16 30 aa 3d 05 1b 7c be ce 1e 10 3d
       -0.0142346695 0.08309953 -0.24619682 0.035185628
000140 c5 7d ce 3e 0c 87 d6 3e 94 bb 41 3c db 3b 2e be
       0.4033033 0.41899908 0.011824507 -0.1701502
000150 bf 3d 7e 3a 46 3f 90 3b 46 70 db 3b 76 5e 35 3c
       0.0009698532 0.004402074 0.0066967336 0.0110698845
000160 15 8b 9f 3b 89 18 d6 bd be 88 c5 bd 3f f1 48 bd
       0.004868875 -0.104538985 -0.09645222 -0.049058195
000170 fa 1d af 3d b2 01 34 3d f3 87 34 3c ee 52 24 be
       0.085506395 0.04394693 0.011018741 -0.1604726
000180 ec 16 db 3d 23 33 cb bd ec 02 ee 3c 80 5b cb 3e
       0.106977314 -0.09921863 0.029054128 0.39718246
000190 e8 ec 91 3c f3 f8 1c be 2e 6d d8 3e 64 a3 c6 3c
       0.017813161 -0.15329342 0.42270797 0.024247833
0001a0 c5 86 fb bc 20 f2 9a 3d cd b9 06 bd b3 e0 db 3c
       -0.030703912 0.07565713 -0.032892037 0.026840543
0001b0 11 9a 10 be ab 78 8f bf b1 70 ca 3c 61 b2 ce 3d
       -0.14121272 -1.12087 0.024711939 0.10092617
0001c0 b5 50 1c bd bb 3d 98 3c 22 52 94 3c 78 72 3d 3c
       -0.038162906 0.018584123 0.01810557 0.011562936
0001d0 81 3d 2b 3e 6d ea 5b 3d d6 05 73 3e c0 16 ab 3d
       0.1672268 0.053690363 0.23732695 0.083539486
0001e0 38 9f 4d bd 88 c0 de 3b a6 a8 a0 3d ba 54 a8 bc
       -0.05020067 0.006797854 0.07844667 -0.020548213
0001f0 d6 c7 19 3a f0 95 49 3d 7b 91 91 bc 97 ba 67 3c
       0.00058662647 0.049215257 -0.017769566 0.014143608
000200 88 a0 44 3d 15 35 27 be 98 4e fd ba d2 61 a4 3c
       0.048004657 -0.16328843 -0.0019325791 0.020066176
000210 37 6c a7 3c 5e 0c 33 bc 3d 5c 8e 3c 0e 95 9c 3d
       0.020437343 -0.010928242 0.017377967 0.076456174
000220 78 ef e8 bc 48 16 ab 3d f6 9e a9 3d 66 f4 ce bc
       -0.0284345 0.08353859 0.082822725 -0.025263023
000230 00 ba 61 be 1a 0c 24 bc dc d0 cd 3c d9 ab d8 bd
       -0.2204361 -0.010012651 0.025124006 -0.10579652
000240 3b 24 10 bd f4 1f 10 bb 06 48 2e be 91 47 b2 3c
       -0.035190802 -0.0021991702 -0.17019662 0.021762641
000250 16 d2 b2 bd 3c d3 f6 3d 13 0b b0 bd 5d a4 b3 3d
       -0.08731477 0.120520085 -0.08595862 0.08771584
000260 a5 f8 7c be 32 d4 1a be 65 6f 9f bc 0c 2a 37 be
       -0.24704225 -0.15120009 -0.019462297 -0.17887133
000270 55 05 15 bc e1 67 a7 3d 2b 7b 59 be 09 4f 5c 3c
       -0.00909551 0.0817411 -0.21238391 0.013446578
000280 e9 ac d2 bd e8 1d d9 3d 66 06 01 be c2 66 45 be
       -0.10286886 0.10601407 -0.12600097 -0.1927748
000290 37 47 5e 3d 8b 3a e9 bc 8d 53 47 be dc 2b b8 bc
       0.054267135 -0.028470298 -0.19465466 -0.022481851
0002a0 e9 df ed be 1a 1f d7 ba eb e6 25 3c 88 06 23 bd
       -0.46459892 -0.0016412467 0.010125856 -0.03980115
0002b0 33 21 52 bd 3f e0 39 3d 02 ea 97 bd 08 bf 26 3a
       -0.051301192 0.045379873 -0.0741768 0.00063608633
0002c0 ff 7e 97 bd c4 09 12 bf e6 2f 3e bd 99 5d e4 3a
       -0.073972695 -0.5704615 -0.0464324 0.0017422914
0002d0 6b 5d 8d be 7e b2 9e bd b2 a1 5a bb 91 40 eb 3d
       -0.27610335 -0.077488884 -0.0033360538 0.114869244
0002e0 2d 84 84 be c1 53 2d 3d c8 bc b2 3d 9e 98 c5 bd
       -0.25882092 0.042316202 0.087274134 -0.0964825
0002f0 5c b8 86 be c5 5e c9 3b 87 f0 8a 3d 80 7b fb bc
       -0.2631253 0.0061453306 0.06784158 -0.030698538
000300 d1 e3 96 be 30 a7 99 bc cd 2a 54 be 7a d8 cf bd
       -0.29470685 -0.018756479 -0.20719452 -0.101487115
000310 61 40 c9 bc 55 27 c6 bd 29 7b 7f be e8 75 57 3e
       -0.024566831 -0.09675471 -0.24949326 0.21041071
000320 16 52 ce bc b1 b2 b7 3d b3 29 d3 3d 08 de 9f bc
       -0.025185626 0.089696296 0.10310688 -0.019515052
000330 38 fc 7c 3c 28 71 01 bd 5f 50 d3 bd 4d 54 e3 be
       0.015440993 -0.031602055 -0.10318064 -0.44400254
000340 b5 ef 72 3c 68 1c 54 bd a8 54 9a bd dd 1f c6 3c
       0.014827658 -0.051784903 -0.07535678 0.024185115
000350 78 1b d7 3c 58 8d 00 be 00 b4 87 be 0b 8d 90 bd
       0.026258215 -0.12553918 -0.26504517 -0.07058152
000360 f2 2c 42 be 66 d1 c8 3d 68 33 c8 3d 60 57 ed bc
       -0.18962458 0.098055646 0.0977543 -0.028972328
000370 19 e6 a5 bc 02 7e d9 bd 2e 15 ea be 01 70 8a 3e
       -0.02025132 -0.10619737 -0.45719284 0.27038577
000380 6a e3 79 3a 02 a9 e0 bd be bb 12 bd 99 18 e7 3c
       0.00095324835 -0.10969736 -0.035823576 0.028209971
000390 6a 93 7c bd 9a fa 16 3e 00 d7 ba 3c ca d2 27 be
       -0.061664023 0.14744034 0.022807598 -0.16389003
0003a0 6c 55 ad bd 7b 2e 91 be 51 ca d7 3c 20 50 91 3d
       -0.084635586 -0.28355774 0.02634159 0.07095361
0003b0 76 12 75 3d 1b 1f c0 bc 47 50 62 bc 53 79 98 bd
       0.05983206 -0.023452332 -0.013813085 -0.07445016
0003c0 a8 31 0c bd 9f 6f ac bc a9 b5 0a be 9c 01 ab bc
       -0.034227043 -0.021049319 -0.1354586 -0.02087479
0003d0 3e f4 15 bd fe fd c3 3d 9d 52 11 bd e1 21 5a 3d
       -0.03660988 0.095699295 -0.035479177 0.053254966
0003e0 5c 75 9c 3d 53 d6 82 3c f4 f2 b3 3d e7 3e e0 3d
       0.07639572 0.015971338 0.08786574 0.10949498
0003f0 68 ad bf bc 91 25 fd 3c d8 46 05 3e 98 dd 46 bd
       -0.023398116 0.030901702 0.13015306 -0.048551172

features.6.bias f4 [65]
000000 ec 06 ab bd 8c 9c 45 bd 59 c3 c2 3d 6c 89 c1 be
       -0.083509296 -0.048244998 0.09509916 -0.37800157
000010 51 8e 35 be ec 20 fd bd 98 db e9 be 1a af 03 3e
       -0.1773007 -0.12359795 -0.4567535 0.12859765
000020 63 6d 97 3e 0b 82 0d 3e 55 97 50 3d 47 1f 05 3e
       0.29575643 0.13819139 0.05092557 0.13000213
000030 91 27 11 be a6 2d 84 be 49 7d e2 3e 2a 73 c2 3d
       -0.1417525 -0.25816077 0.4423621 0.09494622
000040 a8 87 17 3d 0b a6 31 3e 09 fd 84 3d 53 c2 42 3e
       0.036994606 0.17348497 0.06493575 0.19019441
000050 81 4f 44 be 18 a7 44 3e 2a f5 80 bc 2e a0 2a bd
       -0.19170953 0.19204366 -0.015741903 -0.041656666
000060 59 b3 d3 bd d7 bd 50 be bd da 52 be 1f 59 1e bf
       -0.10336942 -0.20384918 -0.20591255 -0.6185474
000070 b5 6b da be 5e c7 dc bd 98 65 03 3e 27 28 10 3d
       -0.426603 -0.10780214 0.12831724 0.035194542
000080 19 e5 1c 3c 2d b9 50 3e 3f 56 c8 bd da ec 53 be
       0.0095761055 0.20383139 -0.09782075 -0.2069582
000090 76 68 12 bf cc b8 72 3e 3e d1 74 be 54 87 be 3d
       -0.57190645 0.23703307 -0.23907945 0.093031555
0000a0 ff aa 7c 3d d8 48 cf 3c 2b fe 2b 3c ec ed 9b be
       0.061686512 0.02530329 0.01049761 -0.30454957
0000b0 07 a3 d5 be 03 63 bb 3d d6 d4 28 3e b5 d5 15 bc
       -0.41725942 0.09149744 0.1648744 -0.00914519
0000c0 3c 7a 39 be 16 1d ec bc 28 38 2a 3e 85 6d 23 be
       -0.18113035 -0.028822463 0.16622984 -0.15959747
0000d0 23 a0 51 be ee cf 0f be 9b e1 d5 be af a7 88 be
       -0.20471244 -0.14044163 -0.41773686 -0.26690432
0000e0 87 c7 23 be aa 90 6a 3e 01 cf b4 3d 4f 3e 02 3e
       -0.15994082 0.22906747 0.08828545 0.12719081
0000f0 84 25 9a 3c be 9e fe 3d 59 82 43 bd af 7a 8f be
       0.018816717 0.124326214 -0.04773173 -0.28023288
000100 1a c5 64 be
       -0.22340813

features.8.weight f4 [60, 65]
000000 69 f4 99 3c 7b e0 c1 bc 86 ec ff 3d 02 2b 0a 3e
       0.018793302 -0.023666611 0.12496285 0.13492969
000010 ec 28 a6 3b bc b4 7d be b2 be c1 3d b9 8d a8 bc
       0.0050707962 -0.24775976 0.094602 -0.020575391
000020 f8 cb 2a bc 14 47 26 be cd ba 68 3d 2d 43 c3 3d
       -0.0104246065 -0.16238052 0.056818772 0.09534297
000030 d6 e6 88 3e 92 6d de bd 0f 14 b1 bd a1 f6 8c 3c
       0.26738614 -0.10860743 -0.08646404 0.017207446
000040 10 f7 bd bd 62 96 0b bc df 91 f5 3c 8d 86 c0 bd
       -0.09275639 -0.008519741 0.029976783 -0.094006635
000050 58 45 15 3b d2 b9 72 be d1 51 a5 ba 81 a7 1b 3d
       0.0022776928 -0.23703697 -0.0012612884 0.03800154
000060 51 a8 07 3e f5 be eb 3b 2c dc 86 bb f1 d9 19 be
       0.13247801 0.0071943947 -0.004115602 -0.15024544
000070 36 5e 93 3e 3e 69 98 bd e0 b8 1c bb 86 9a d3 bd
       0.28782815 -0.07441948 -0.0023913905 -0.103322074
000080 bf da 66 bb c5 2f b1 3d fa e0 4d bd a4 a3 14 3d
       -0.0035225598 0.086516894 -0.050263382 0.036288872
000090 e1 34 bd bc f7 b0 5c be ee e1 ae 3e 85 e9 4f bc
       -0.023096504 -0.21551882 0.34156746 -0.012689953
0000a0 bb 15 02 be c3 2f 60 3d e8 11 c5 3d ec ec d0 bd
       -0.12703602 0.05473305 0.09622556 -0.10201439
0000b0 00 fe f0 3d 2c 91 5e bc 3e 97 34 bd 32 74 07 be
       0.11767197 -0.013584416 -0.04408955 -0.13227919
0000c0 a8 3d 6e 3d 6a f0 5b 3d d5 4f cd bc aa 36 fc ba
       0.05816427 0.053696074 -0.025062481 -0.0019242365
0000d0 ce 60 50 bd 77 27 b8 3d 05 46 02 be c8 4d 86 3d
       -0.05087357 0.08991902 -0.12722023 0.06557804
0000e0 56 af c0 bd d4 c0 d3 3d 41 bd 49 3d 21 d9 2f be
       -0.09408443 0.103395134 0.049252752 -0.17172672
0000f0 b4 d1 26 3e b0 33 b3 3d 0b 32 36 3d 39 78 0b bc
       0.16290933 0.08750093 0.04448132 -0.00851255
000100 f6 5e d1 3c 3d 62 11 3f 9d f5 72 3d dc 56 86 3d
       0.025557976 0.56790525 0.059316266 0.06559536
000110 66 af 17 be 9d f3 98 3b 5a ae 1e bc 28 47 41 3e
       -0.14813003 0.004667713 -0.009685123 0.188748
000120 f4 a7 e1 bd 41 53 93 3c e0 ea 01 3e 63 78 22 3d
       -0.11018363 0.017984034 0.12687254 0.03966559
000130 82 3f 62 bd e9 1c 44 3d 78 bf 2f 3c e3 8f 5b 3c
       -0.055236347 0.047879133 0.010726802 0.0134010045
000140 2c d0 0e bd 58 7c 07 3e 49 2b 00 bd fb ae f6 bd
       -0.034866497 0.13231027 -0.03129128 -0.120450936
000150 6c 71 33 3c 15 48 e2 3d 58 f9 a6 3d 5e f5 89 bd
       0.010952335 0.11048905 0.08153027 -0.06736253
000160 7f a3 2a 3e c6 24 fd bc 6b 9c 83 3d 5c a7 71 be
       0.16663931 -0.030901324 0.06426319 -0.23598999
000170 bd 98 33 3d 24 9f 9e be cc 12 28 bd de 0e 4e bd
       0.043846834 -0.3098079 -0.04103355 -0.050307147
000180 c0 18 c6 3b 20 55 8d bb 13 6a 34 be 44 84 4e be
       0.006045431 -0.004313126 -0.17618589 -0.20167643
000190 f9 fe bf 3c b7 38 8d bd 7b b5 39 bf b6 1f 65 bd
       0.02343701 -0.06895583 -0.7254254 -0.055938445
0001a0 45 8b 26 3d 13 42 15 3e eb 37 e5 3d 21 a8 d8 3d
       0.04066016 0.14575987 0.11192306 0.10578943
0001b0 bd 51 ee bd 03 14 fd bc 5d 4a 8e bf d0 2a 8f 3d
       -0.11636684 -0.030893331 -1.1116444 0.06990588
0001c0 b8 b3 06 be 63 cf 55 bd 7b 06 c0 3c 8d b6 d2 3d
       -0.13154495 -0.052199733 0.02344059 0.10288725
0001d0 8f 5f ee 3d 9f 69 cc 3c 22 43 c6 be e5 db c1 bc
       0.1163932 0.024952708 -0.38723093 -0.023664424
0001e0 97 12 a6 bd b3 6f 60 be 42 79 d7 3c 9a 50 21 3e
       -0.081090145 -0.2191761 0.026302937 0.15753403
0001f0 50 15 42 be 6e d3 ce 3d 47 c6 ce bd 53 90 b9 bc
       -0.18953443 0.10098921 -0.10096412 -0.022651827
000200 8b 11 55 bc d7 51 63 bd 34 3c 7b bd 9f 4c 11 3d
       -0.013004671 -0.05549797 -0.06133671 0.035473462
000210 b8 0e b9 3c 59 c3 f5 bd 9e 04 08 bf 90 9a 84 3c
       0.022590026 -0.1200015 -0.53132045 0.016186982
000220 22 2c d3 b8 8c e0 32 bd f0 58 a6 be 8c e7 ce bd
       -0.000100694844 -0.043671176 -0.3248973 -0.10102758
000230 e7 ef 08 bd 64 1e 42 be 74 83 71 3d 46 f4 10 3d
       -0.033431914 -0.18956906 0.058963254 0.035389207
000240 3d 2d ad bd e5 a3 cb bd 9b 81 53 be 37 f2 4e 3d
       -0.08455894 -0.0994337 -0.2065491 0.050523963
000250 3a b3 91 be c5 67 03 bf 8d 1b 71 be 1c f0 40 3d
       -0.28457052 -0.51330215 -0.23545666 0.047103986
000260 f9 60 d1 3c 99 4d 8e bf d6 89 27 bc 12 aa 42 3b
       0.025558935 -1.1117431 -0.010225734 0.002970342
000270 67 87 07 bd 3e 05 ad bd db 66 1b b8 78 96 4f bd
       -0.033088114 -0.084482655 -3.705067e-05 -0.050680608
000280 75 36 d3 bd 0a bd 87 be b2 ac 8f 3d 9d 42 60 be
       -0.10313121 -0.26511413 0.07015361 -0.21900411
000290 9e 61 2e be 1a 40 36 be aa 18 22 be 51 07 94 3d
       -0.17029426 -0.1779789 -0.15829721 0.07227958
0002a0 17 84 07 bd 17 5f 07 be 34 1a be 3e 1f 28 e7 3d
       -0.033084955 -0.13219868 0.37129366 0.11286949
0002b0 51 64 a8 bd 24 8b b6 b9 21 1e cd 08 53 6c e6 3d
       -0.08222259 -0.00034817413 1.2345072e-33 0.1125113
0002c0 3e 90 12 bd 66 94 34 3e 0b 9a 35 be a2 32 a3 ba
       -0.03578209 0.17634735 -0.17734544 -0.0012451003
0002d0 72 fc 1c be c8 a5 a2 bd 97 39 7c b9 05 27 ab bd
       -0.15330675 -0.079417765 -0.00024054047 -0.08357052
0002e0 76 97 a8 bd a5 96 7e bc 36 b2 8d be a0 26 ee bd
       -0.08232014 -0.015538846 -0.27675027 -0.11628461
0002f0 a2 1d 6e be ec 28 4f bc ce 70 2c 3e 4c 03 8c bc
       -0.23253492 -0.012644034 0.16839907 -0.017091416
000300 5d a4 aa 3d 1b 83 02 be e8 c2 01 3e c8 3d 70 bd
       0.08332131 -0.12745325 0.12672007 -0.05865267
000310 57 38 cd 3d f5 84 fa bd d4 66 81 3d 92 8e 50 bd
       0.100205116 -0.12232391 0.06318441 -0.050917216
000320 1c be 9c 3e c4 c2 a2 bb 8f 2f e1 bd b3 f9 fc bd
       0.30613792 -0.0049670655 -0.10995399 -0.12352314
000330 73 14 93 bd 32 48 34 3e 6f 05 e2 3d 79 42 c2 bd
       -0.07181635 0.17605665 0.110361926 -0.09485335
000340 bb 05 46 bd db 6d 80 bd b2 6b 4b bc 63 44 9e bc
       -0.04834531 -0.06270953 -0.012415813 -0.019319719
000350 65 70 e2 3d 66 26 5d 3c dd 82 e7 be 57 d0 1e 3e
       0.11056594 0.013497924 -0.45217028 0.15509163
000360 d7 92 7c be 36 85 06 be 57 fd 50 bd d7 86 b7 be
       -0.2466539 -0.13136753 -0.051022854 -0.35845062
000370 2c 9f 5c 3d 1c e5 6a bd 18 a2 e7 bd a9 79 85 be
       0.053862736 -0.057347402 -0.11310214 -0.26069382
000380 e8 ce ef bd 2d b6 bf 3d fc 0e 09 bd 97 8f d4 3d
       -0.11709386 0.09360919 -0.033461556 0.1037895
000390 fd 33 cc bc b2 b4 2e be 4e 79 0d be 7f 36 dd bc
       -0.024927134 -0.17061117 -0.13815805 -0.027003525
0003a0 c5 13 b0 3c 87 9f 14 be 83 ca b6 3d c7 40 34 bc
       0.021493802 -0.1451398 0.08925345 -0.011001772
0003b0 03 7b a6 bd fe b0 cc bc 84 05 d7 bb d7 70 0b be
       -0.081289314 -0.02498674 -0.006561937 -0.13617264
0003c0 78 f7 75 bd 7b 69 b8 bb 9f 7c d2 3a 38 67 0e 3d
       -0.060050458 -0.0056278086 0.0016058868 0.034766406
0003d0 cd 56 12 be 74 29 09 bd ae f4 53 be 13 7e c9 bc
       -0.14290924 -0.0334868 -0.20698807 -0.02459625
0003e0 cd d2 1b 3e df 75 e5 bd 4f 29 b4 3c 1a 0b 83 3d
       0.15217133 -0.11204123 0.021992354 0.06398602
0003f0 b9 fb 7f 3e de 80 a3 bd ba be 66 bd 95 42 e0 3d
       0.24998368 -0.07983564 -0.056334235 0.109501995

features.8.bias f4 [60]
000000 c3 c4 6b bc 15 ad d1 bb 35 a0 11 3e e8 73 e5 3d
       -0.014390173 -0.006398807 0.1422127 0.11203748
000010 11 89 2e 3c b6 3d 58 3c 2e 88 4d bd e2 46 97 bc
       0.010652796 0.013198307 -0.0501787 -0.018466417
000020 6a 6e 11 bd dc d5 60 3b e1 a3 88 3c bc bf 15 be
       -0.03550569 0.0034307158 0.016679706 -0.14623922
000030 02 ed 42 3d 8f 68 e1 bd 2a dc dd bd 75 a4 17 3d
       0.04758931 -0.11006271 -0.108330086 0.037022073
000040 15 38 cd 3d 1d 7d 43 3e 2e 93 d4 bd ad 53 81 3c
       0.100204624 0.19090696 -0.10379635 0.01578697
000050 98 de 86 be bc 4c f3 3d 22 bd 1d 3c 9e 9a ce 3b
       -0.263417 0.1187987 0.009627612 0.006305053
000060 ae a7 c8 3d 29 b8 18 3d 1f d0 00 be c1 62 1a 3c
       0.09797607 0.037285004 -0.12579392 0.009422959
000070 98 fd e6 3d b6 a7 24 3c 47 0a 45 3e c9 d8 a4 bc
       0.11278838 0.010049751 0.19242202 -0.020122902
000080 03 54 06 be 11 80 ef bd 3f 5d 80 3d 26 c3 7f be
       -0.13117985 -0.116943486 0.06267785 -0.24976787
000090 54 70 22 be ba a8 f7 bd 49 96 02 be a2 79 8f be
       -0.15863162 -0.12092729 -0.12752642 -0.28022486
0000a0 08 20 85 bd b5 8f 34 3e 53 c8 30 3e 5c d6 a8 bd
       -0.0650025 0.17632945 0.17263918 -0.08244011
0000b0 4c 88 10 3c d0 33 60 be 57 59 36 3e a9 11 4f 3d
       0.008821558 -0.21894765 0.17807518 0.05055395
0000c0 87 4b 00 be 38 26 c5 3d 03 fe 13 3d 09 47 bf bd
       -0.12528811 0.0962643 0.036130916 -0.09339721
0000d0 25 e1 5a 3e be bd 6a 3d 4c f7 42 3d a9 ff df bd
       0.21374948 0.05730986 0.047599122 -0.10937435
0000e0 f7 dc 65 3c a0 e1 98 be 2c 32 8e bd f5 66 0c bd
       0.014029733 -0.29859638 -0.06943163 -0.034277875

features.10.weight f4 [60, 60]
000000 8a 5e 3e bd 69 e8 3a be 6c 57 05 80 c0 17 36 00
       -0.04647688 -0.1825272 -4.90539e-40 4.967637e-39
000010 aa 8c f8 bd 9e 7c fa bd 15 06 95 3d 3d 61 05 80
       -0.121362045 -0.122308 0.07276551 -4.9406e-40
000020 1d 32 ec b7 2c 59 05 80 c8 49 ee 3c 47 ac 43 3d
       -2.8156728e-05 -4.91166e-40 0.029087916 0.04777172
000030 63 3f 7d bd 9d 29 58 3d 14 2a 6d a7 c5 7a 25 3c
       -0.06182803 0.05277406 -3.2913168e-15 0.010100071
000040 b9 82 26 38 6b 79 55 3a 82 96 e4 3d de 88 68 38
       3.969923e-05 0.0008143398 0.111615196 5.5440578e-05
000050 75 53 9c 3d c5 be 3e 3d d9 40 21 3e 5b fe de bc
       0.07633106 0.04656865 0.15747394 -0.027220896
000060 0e d0 11 3a 8e 68 be 38 05 ab 72 39 73 d6 57 34
       0.00055623136 9.079381e-05 0.00023142628 2.0101452e-07
000070 6b fe d4 3a 3b c7 00 38 ef 57 05 80 81 5e 14 3b
       0.0016250139 3.0703126e-05 -4.90722e-40 0.0022639337
000080 96 ff 93 28 45 a2 65 bc ad 57 05 00 6e e9 91 3c
       1.6431121e-14 -0.014015739 4.9063e-40 0.017811503
000090 42 10 20 3c 4c 5a d8 3d fa bb 8b 3c 1f 26 38 3e
       0.009769501 0.10564098 0.017057408 0.17983292
0000a0 78 d2 d5 3b a1 4e 2a 3d bd e6 d0 1e 92 c1 19 bd
       0.006525334 0.041578893 2.2118288e-20 -0.03753812
0000b0 50 cc b8 bb 62 d0 e9 3d 6c 57 05 80 af 1c 84 3d
       -0.0056395903 0.11416699 -4.90539e-40 0.064507835
0000c0 ba 4e e6 bc d7 58 05 80 96 83 41 3b 37 fc 01 3e
       -0.028113712 -4.91047e-40 0.0029527894 0.12693869
0000d0 77 53 ea 3b fe eb 65 bd 9a 3a f6 3c 1f 37 5e be
       0.007151063 -0.056133263 0.03005724 -0.21700715
0000e0 5c 57 05 00 db cc dd 3d 5b 1f 5e 3d 63 2e 7b 3b
       4.90516e-40 0.10830089 0.05422912 0.003832721
0000f0 80 2a 75 be 9d 8b a8 be 4d 9e 8b ba 09 ce f3 bb
       -0.23941994 -0.32919016 -0.0010652036 -0.007440333
000100 fe b6 1d be 0c 49 ea bd db 79 42 bc 85 df a0 bd
       -0.15401837 -0.11439714 -0.011869873 -0.07855133
000110 70 9a 29 be 1f 33 ed bd e3 5e fb 3d ff 89 e4 bd
       -0.1656282 -0.11582016 0.122739576 -0.11159133
000120 89 af 44 3e 94 41 f4 bd 3a 8c 02 3d eb 29 19 be
       0.19207586 -0.119265705 0.03187201 -0.14957397
000130 4b f4 30 bc df 06 aa 3d 56 21 06 be 00 db 47 ba
       -0.0108004315 0.08302092 -0.13098654 -0.0007623881
000140 ff 40 8d bd 89 b5 7e 3c 6d 7e 4c 3d 81 2b f0 3d
       -0.06897163 0.015546211 0.049925257 0.11727048
000150 01 6f 89 bd d2 05 e5 bd 77 8b 39 3c 6c 28 3a bc
       -0.067106254 -0.11182751 0.011324755 -0.011362176
000160 6c 7e 77 bb 43 33 ce bc 16 d3 79 3e 32 ea 8e 3b
       -0.0037764562 -0.025170928 0.24396929 0.0043614144
000170 88 e4 97 be 3a 75 67 bd 87 46 05 bd af 0f 4b be
       -0.29666543 -0.05650828 -0.032537963 -0.19830202
000180 41 7f d5 bd 7e f2 ee bd 9e 9f 83 be 51 f6 6a 3d
       -0.104246624 -0.116673455 -0.25707716 0.057363812
000190 85 5c 2d 3e 70 07 52 bd 59 c2 fe bd 35 53 01 bd
       0.16929825 -0.051276624 -0.124394126 -0.031573493
0001a0 ca 8f cc bd d8 6f 6f 3e f5 a2 d1 3c a6 8e 2f 3e
       -0.09988363 0.23382509 0.0255904 0.1714426
0001b0 f3 71 67 3c fe 77 70 be 2e 7c 8a bb 8a 7c 33 3d
       0.014126289 -0.23483273 -0.004226229 0.04381994
0001c0 8b 97 5d 3c a6 ee 97 be d5 3f cc 39 51 06 15 be
       0.0135249 -0.29674262 0.0003895747 -0.14553191
0001d0 63 7f 43 3c f7 30 db bd dd 0b dd 3b 95 b9 5e be
       0.011932227 -0.10702699 0.006745799 -0.21750481
0001e0 ea 17 37 bd 88 0d bc bd 60 f0 2e be 3b 77 1e be
       -0.04470054 -0.091822684 -0.17083883 -0.1547517
0001f0 6c 33 e6 3d 06 bc d1 3d 5f 3f f2 3b a0 b7 a3 bd
       0.11240277 0.10240941 0.0073928083 -0.07994008
000200 c7 fa 53 bc d3 ef 57 3e 0e 47 b9 bd a3 d5 98 bc
       -0.012938208 0.2108758 -0.09046756 -0.018656557
000210 76 f7 76 3e 02 00 11 3e 93 ab 3d 3e 07 b8 18 3e
       0.24117836 0.14160159 0.18522482 0.14913951
000220 85 7e 23 be 28 5b 4c be 39 36 d8 bd ce c0 b2 3c
       -0.15966232 -0.19956648 -0.10557217 0.021820452
000230 65 92 f8 bd 9d 0f 42 be 75 96 75 be 7d 98 0c 3e
       -0.121372975 -0.18951268 -0.23983176 0.13730045
000240 f7 2c 35 3d e5 4b 3b 3e 4b 13 9f 3e f8 20 83 3b
       0.044232335 0.1829067 0.31069407 0.004001733
000250 16 89 2a 3d f0 e3 14 bd 91 c8 ce bd d9 fb 55 bd
       0.04163464 -0.03635019 -0.10096849 -0.052242134
000260 82 3d d6 3d 18 be 2d 3d 2d ab 59 bd c9 5e c4 3b
       0.104609504 0.042417616 -0.05314176 0.0059927446
000270 b8 40 a3 bd bd 23 c9 3d f8 83 ea 3c 20 b1 03 be
       -0.079713285 0.0982127 0.02862738 -0.12860537
000280 02 d2 a8 3d f8 06 32 3d 9d 9a 66 bd 50 43 c3 bd
       0.08243181 0.043463677 -0.056299794 -0.09534323
000290 90 d1 25 be 9b 9b e6 bc 8a 05 c9 bd 6b 0f bb be
       -0.16193223 -0.02815037 -0.098155096 -0.365352
0002a0 81 85 20 bd f0 20 71 3d d2 eb 81 3d 44 62 e4 bd
       -0.03918982 0.058869302 0.06343807 -0.11151555
0002b0 5f 0a 77 3e dd 61 55 3d c6 3c 0e be 10 22 2e 3d
       0.2412505 0.052095283 -0.1389037 0.042512953
0002c0 fb cf 5c 3e b4 ac 25 be e1 cf 63 3d e8 54 60 be
       0.21563713 -0.16179162 0.05561817 -0.21907389
0002d0 04 c5 92 3d 01 07 7b bd ca ef 88 3c 35 da 49 be
       0.07166484 -0.061285976 0.016715903 -0.19712146
0002e0 a9 dc a9 3d f3 62 1e bd aa 28 0c bd 5a 83 7f bd
       0.08294041 -0.038668584 -0.034218468 -0.062381126
0002f0 91 1b f6 bc 6f ad 98 bc 7a ec cb 3b ed b5 8f 3c
       -0.030042442 -0.018637387 0.0062232586 0.017542804
000300 6a 0c cb 3d 68 a6 ec 3d cd fa d1 3d 9c 35 72 3d
       0.09914477 0.11555177 0.102529146 0.059133157
000310 78 d5 09 be 05 72 a3 be 5c 56 48 be da 92 c1 bd
       -0.13460338 -0.31922927 -0.19564193 -0.09451838
000320 d7 0b f2 3c 3c 94 9a be 6c b1 5c be c9 81 25 3e
       0.029546661 -0.3019122 -0.21552056 0.1616279
000330 e3 eb e8 3d 7c f8 63 3e 34 45 99 3c dd bc 84 bd
       0.11373117 0.22262758 0.018709756 -0.06481335
000340 38 f1 73 3d 36 e6 a7 bb 75 29 0d 3d 93 cf 3d be
       0.059556216 -0.005123879 0.034463365 -0.18536215
000350 c8 03 50 be eb 03 9b bc 66 57 f9 bd cc ca d4 3d
       -0.20313942 -0.018922767 -0.12174873 0.10390243
000360 82 dd af 3d 40 af 4c be 1e 74 3c be 95 bb ae 3d
       0.08587171 -0.19988728 -0.1840367 0.08531872
000370 85 f2 57 bd b4 16 89 3d a8 f1 0e 3c 8b 1f de 3d
       -0.05272152 0.066937834 0.0087246075 0.1084586
000380 6e 71 74 3d 17 19 82 3d 3c b6 94 3a ff df 07 bf
       0.059678487 0.06352442 0.0011345814 -0.53076166
000390 27 9f ab bd f3 12 98 3d 27 bb 81 3e b2 d5 d7 bd
       -0.08379965 0.07425489 0.25338098 -0.10538806
0003a0 23 02 b1 3d 55 fe 62 bc d7 16 1b 3e 64 4f b5 3d
       0.08642986 -0.013854583 0.15145431 0.08853033
0003b0 dd 31 df bd bd 17 6a bd 41 45 92 bc fc c7 4e be
       -0.108981825 -0.057151545 -0.017855288 -0.20193475
0003c0 8b 54 5e bc 23 7a 8a 3e 53 b2 2d bd 5d 4d bf bc
       -0.013569961 0.27046308 -0.04240639 -0.02335232
0003d0 3a 3f c9 bd 10 39 09 bf 1f e4 40 3d a1 e8 13 bd
       -0.09826513 -0.53602695 0.047092553 -0.036110524
0003e0 9a 35 f9 3c 94 d7 84 bd f5 67 31 bd f8 0c f0 bc
       0.030421067 -0.06486431 -0.04331203 -0.029303059
0003f0 30 5b 90 3c 0d 0b 49 be a7 c2 92 3c ba 22 ef 3d
       0.017621607 -0.19633122 0.017915083 0.116765454
