best_parameters_silu.pt (torch, 450577 bytes, 117 tensors)

features.0.weight f4 [70, 31]
0	0xbe95d747	-0.29265806
1	0x3e0ebcda	0.13939229
2	0xbac99510	-0.0015379507
3	0x3cd26f74	0.02568791
4	0xbb6fa576	-0.0036567128
5	0x3c539459	0.012913787
6	0x3c2192d8	0.00986167
7	0xbc8fae60	-0.017539203
8	0xbd911414	-0.07083908
9	0xbbc254c7	-0.0059305164
10	0xbad9e12d	-0.0016622894
11	0x3d1f8fa0	0.03895533
12	0xbbfb6f51	-0.007673182
13	0xbac25e01	-0.0014829041
14	0xbce652f6	-0.02811573
15	0xbc555169	-0.013019898
16	0xbc897ab3	-0.01678214
17	0xbc1908d1	-0.009340481
18	0xbd1891d1	-0.037248436
19	0xbc15a4bb	-0.009133513
20	0xbc15dbc2	-0.009146633
21	0xbcb2bbf2	-0.021818135
22	0xbc459c23	-0.012061152
23	0xbc92c4e8	-0.017916158
24	0x3d1b907d	0.03797959
25	0xbda4f650	-0.08054793
26	0xbe7d2089	-0.24719442
27	0x3e826be3	0.25472936
28	0xbbc3e7be	-0.0059785536
29	0xbd327c40	-0.043575525
30	0xba90b9d5	-0.001104171
31	0x38071007	3.2201435e-05
32	0xbd2861fb	-0.041109066
33	0xbde0d57e	-0.109782204
34	0xbc12b4ce	-0.00895424
35	0xbe5f79f4	-0.21823865
36	0x3c79c963	0.015245768
37	0xbdec0a6d	-0.11525426
38	0x3e6dba73	0.23215656
39	0x40b118d0	5.534279
40	0xbd222258	-0.039583534
41	0xbfaa86bf	-1.3322371
42	0xbfa1764f	-1.261423
43	0xbc9641e5	-0.018341968
44	0xbe8a6ce2	-0.27036196
45	0x3e08a753	0.13345079
46	0xbdce0850	-0.10060179
47	0xbd66bc8c	-0.056332156
48	0x3de40d2f	0.11135327
49	0x3d466478	0.04843566
50	0x3e5f8ed4	0.21831828
51	0x3dd480d7	0.10376137
52	0xbe0018c1	-0.12509443
53	0x3dc147c0	0.09437513
54	0xb89e8375	-7.558513e-05
55	0x3a107eb7	0.0005512046
56	0xb9af3814	-0.00033420383
57	0x38e05805	0.00010697547
58	0x3b67960d	0.003533724
59	0xbe09b1e9	-0.13446774
60	0xbd2f5890	-0.04280907
61	0xbdba9491	-0.09110368
62	0xbc83a584	-0.016070135
63	0xbe1fe519	-0.15614738
64	0xb6d3bfb0	-6.3106054e-06
65	0x3cdf2d98	0.02724342
66	0xba6fe76d	-0.00091516116
67	0xbc97dfd7	-0.018539352
68	0xbb8fff9d	-0.004394485
69	0xbbb59e04	-0.0055425186
70	0xbf3a62a1	-0.72806746
71	0xbcc1ee57	-0.02367322
72	0xbe68523e	-0.22687623
73	0xbe673549	-0.2257892
74	0xbd803c22	-0.062614694
75	0xbd09ba73	-0.033625077
76	0xbd0c9db3	-0.03433008
77	0xbd25668f	-0.04038101
78	0xbd0d9ca9	-0.03457323
79	0xbd644f84	-0.055739895
80	0xbd245178	-0.040116757
81	0xbc735347	-0.014851398
82	0xbc8e42f5	-0.017365912
83	0xbccf97ed	-0.025340999
84	0xbd171b57	-0.036891308
85	0xbdcff44f	-0.1015402
86	0x3d19a8e0	0.037514567
87	0x3c63901f	0.013889342
88	0xbc084f5d	-0.008319703
89	0xbf3634f6	-0.7117456
90	0xba9dd82b	-0.0012042572
91	0xbd8b8a58	-0.06813496
92	0x39820c47	0.0002480468
93	0xbe6a9172	-0.22907045
94	0x3ee0d854	0.43915045
95	0xbb19cf6f	-0.0023469587
96	0x3bcaa2c4	0.006183954
97	0x3bedd0e6	0.0072575686
98	0x3c2e58d5	0.010641296
99	0x3b19cffe	0.002346992
100	0xbc48778d	-0.012235534
101	0x3d817b3d	0.06322334
102	0xbd9e9f6e	-0.077452525
103	0x3c80931a	0.015695143
104	0x3cc1d8d4	0.023662962
105	0x3ae63c81	0.0017565639
106	0x3c2188b6	0.009859255
107	0xbab0c87d	-0.0013487485
108	0x3c3adba8	0.011404909
109	0x3a816994	0.0009873384
110	0xbc1806e4	-0.009278987
111	0xbba25051	-0.004953422
112	0x3a694120	0.0008897949
113	0x3bc4f23e	0.006010323
114	0xbc1a1314	-0.009403963
115	0x39e5972c	0.00043790916
116	0xbc09d5ac	-0.00841276
117	0xbe9cadb6	-0.3060128
118	0xba8ac7ae	-0.0010588074
119	0x3c1d27df	0.009592026
120	0x3c7ec489	0.015549787
121	0xb79bd28a	-1.857548e-05
122	0xbc827729	-0.01592596
123	0xbb0cc1e8	-0.0021477882
124	0xbb9ea4c8	-0.004841421
125	0x3c4abddb	0.012374367
126	0x3ad2d79e	0.0016085987
127	0xba5a4b7e	-0.0008327289
128	0xba104106	-0.00055028533
129	0x3c158f65	0.009128426
130	0x3c48b1d1	0.012249426
131	0x3a852022	0.0010156671
132	0x3c543c0e	0.012953771
133	0xbd03f04a	-0.03221158
134	0x3c7b84dc	0.0153515
135	0x3c7de957	0.015497527
136	0x3c1ab7e2	0.009443255
137	0x3c121a18	0.008917354
138	0x3c4950fa	0.012287373
139	0x3c3e17e5	0.011602377
140	0x3c5a6873	0.013330567
141	0x3c098e5a	0.008395756
142	0x3c2e53d6	0.010640105
143	0x3c4693c1	0.012120188
144	0x3c301c6e	0.010748966
145	0x3c36562b	0.0111289425
146	0x3c1e5863	0.009664628
147	0xbc190d17	-0.0093415
148	0x3c6eea3e	0.014582215
149	0xbbc21616	-0.005923043
150	0xb9e0afaf	-0.00042855504
151	0x3c444359	0.011978948
152	0x3a81e2ee	0.0009909549
153	0x3bebfba4	0.0072016288
154	0x3b01d04f	0.0019808
155	0xbc198e9b	-0.009372379
156	0x3cb9905d	0.022651846
157	0x3ad5da14	0.0016315603
158	0x3c2abf6e	0.010421617
159	0x3b35f4d1	0.002776433
160	0x3abb99c5	0.0014312795
161	0x36dbeeda	6.5545146e-06
162	0x3937e399	0.00017537027
163	0x3b783a95	0.0037876714
164	0xbc85f9fd	-0.016354555
165	0xba81991b	-0.0009887548
166	0xbab07631	-0.0013462958
167	0x3ad09d47	0.0015916013
168	0x3a3b62e0	0.00071482174
169	0x3a90eb44	0.0011056443
170	0x3a987fcb	0.0011634765
171	0xb9b576f9	-0.00034611652
172	0xbb189006	-0.0023279204
173	0xbacb40cb	-0.0015506981
174	0x3af32a2c	0.0018551997
175	0xbb010e7a	-0.0019692467
176	0x3ad4961e	0.0016219055
177	0xba5e1f1b	-0.0008473263
178	0xbc5f1d84	-0.013617877
179	0x3bf54ba6	0.0074858246
180	0xbb18916f	-0.0023280045
181	0xbb581fa9	-0.0032977855
182	0xbc570ac6	-0.013125127
183	0xb94e8cbd	-0.0001969812
184	0xba0a0502	-0.00052650284
185	0x3b6715f8	0.0035260897
186	0xbe6e3342	-0.23261741
187	0x3dbb9994	0.09160152
188	0xbbd743cb	-0.006569361
189	0x3d070173	0.032960366
190	0xbc1decfa	-0.009639019
191	0x3ae68852	0.0017588234
192	0x3b0b98f3	0.0021300882
193	0x3a0aceda	0.00052951055
194	0xbdc8f63c	-0.098125905
195	0x3cb2b4ba	0.021814693
196	0x3d3265c7	0.043554094
197	0x3d37b718	0.044852346
198	0x3b861a08	0.0040924586
199	0x3ca5753d	0.020197505
200	0x3c978734	0.018497087
201	0x3b8a9541	0.0042292182
202	0x3ab0f447	0.0013500535
203	0x3c29ece2	0.010371419
204	0x3c81fd6a	0.015867908
205	0x3c8dca7d	0.017308468
206	0x3b8864ed	0.004162422
207	0x3ada3ac4	0.0016649594
208	0x3bd49a84	0.0064881463
209	0xbbaec995	-0.005334089
210	0x3d53252d	0.051549125
211	0xbed4afba	-0.4154032
212	0xbe22b245	-0.15888317
213	0x3df2ee50	0.11861861
214	0xbac114ff	-0.0014730989
215	0xbc88c430	-0.016695112
216	0xbb3098a3	-0.0026946447
217	0x3aba0661	0.0014192575
218	0x3c108c01	0.008822442
219	0x3c122e55	0.008922179
220	0x3c2881d5	0.010284861
221	0xbd2eeb92	-0.042705126
222	0x3e9c9963	0.30585775
223	0x3ddb8651	0.10718978
224	0x3d8516b3	0.0649847
225	0x3e0a50f2	0.1350744
226	0xbf256a62	-0.6461545
227	0x4097d6f4	4.7449894
228	0x4096b084	4.7090473
229	0xbc52ea91	-0.012873308
230	0x3df63860	0.120224714
231	0x3e88ba36	0.26704568
232	0x3eda35d8	0.42619205
233	0x3e68a522	0.22719243
234	0x3d535bb5	0.05160113
235	0x3e04d93d	0.12973495
236	0x3c94de2a	0.018172342
237	0x3e991352	0.29897553
238	0x3df19578	0.11796087
239	0x3eb270c7	0.34851667
240	0xb9f146b1	-0.0004601977
241	0x3a140108	0.00056459056
242	0xb8d65e92	-0.0001022193
243	0x3999465f	0.00029234865
244	0x3d0380cc	0.032105252
245	0x3cbfe5b1	0.023424955
246	0xbb4c8ea7	-0.0031212957
247	0x3cb96114	0.022629298
248	0x3b88188a	0.004153316
249	0xbde34c05	-0.11098484
250	0x000568a0	4.9671e-40
251	0xbd9bab8f	-0.076010816
252	0x80056890	-4.96687e-40
253	0xbdad711e	-0.08468841
254	0x3dc3ee36	0.095669195
255	0xbccbfe38	-0.024901494

features.0.bias f4 [70]
0	0xbbadcb0a	-0.005303745
1	0xbf1c6973	-0.610984
2	0xbcd83574	-0.026392676
3	0x3b23119f	0.002488233
4	0x3c318067	0.010833836
5	0xba51b71c	-0.00080000027
6	0x3bd5fb92	0.0065302337
7	0x3f7befa0	0.98412514
8	0x3a9af5fc	0.0011822577
9	0xbc12925a	-0.008946026
10	0x3c68fc47	0.014220304
11	0x3e65179f	0.22372292
12	0x3e32e3be	0.17469689
13	0x3c34a1fd	0.011024949
14	0xbd82b1b0	-0.063815475
15	0x389cc22d	7.474828e-05
16	0xbd8e67eb	-0.069534145
17	0x3bf5077d	0.0074776993
18	0x3c5a0612	0.013307111
19	0xbb71b974	-0.003688422
20	0xbc7b2b98	-0.015330218
21	0xbc8ebc45	-0.017423758
22	0xbaf9a359	-0.0019045874
23	0xbcd74819	-0.026279496
24	0x3e025d9e	0.12731025
25	0x3bd132a9	0.006384213
26	0x3bc39c83	0.0059695854
27	0xbc07ea84	-0.008295659
28	0xbbd0f6f7	-0.0063770968
29	0xbc596cef	-0.013270601
30	0xbd64d0ad	-0.05586307
31	0x3ee1fac5	0.44136634
32	0xbb0a16a8	-0.0021070633
33	0x3aa81ffd	0.0012826916
34	0xbbbb5203	-0.0057165637
35	0x3c5f8baa	0.013644138
36	0x3fb08ec5	1.379357
37	0xbead422c	-0.33839548
38	0xbf085141	-0.53248984
39	0xbcd67238	-0.02617751
40	0xbb551b31	-0.0032517428
41	0xbd83f3ec	-0.06443009
42	0x3bcd9473	0.0062738
43	0x3f0dea6b	0.5543582
44	0x3a8455d0	0.0010096375
45	0x3a8a7a84	0.0010565077
46	0xbf5ca0d4	-0.86182904
47	0x3a3cb846	0.000719909
48	0x3badaf8f	0.005300469
49	0xbca0854e	-0.019594815
50	0x3f10fb98	0.566339
51	0x3ba65b96	0.005076836
52	0x3b1dd761	0.0024084675
53	0x3d40ca46	0.047067903
54	0xbedfface	-0.43746036
55	0xbcae183c	-0.02125179
56	0x3a5657ea	0.00081765524
57	0xbec44022	-0.3833018
58	0x3b96f311	0.0046066125
59	0x3d366d2b	0.044537704
60	0x3cb7a9f5	0.022419909
61	0x3bccad88	0.0062462725
62	0x3bab4af3	0.0052274405
63	0xbbbf23bd	-0.0058331178
64	0x3e8c6dfc	0.2742766
65	0xbc78518f	-0.015156164
66	0xbe250647	-0.16115676
67	0x3cb6fa12	0.02233604
68	0xbc80fba0	-0.015744984
69	0xbbdf21d5	-0.006809453

features.2.weight f4 [70, 70]
0	0xbd9e587c	-0.07731721
1	0xbea2a557	-0.3176677
2	0xbc04f183	-0.0081142215
3	0x3d682854	0.056679085
4	0xbbd0f44a	-0.006376778
5	0xba6f3729	-0.0009125346
6	0xbb268aac	-0.0025412245
7	0x3b73af14	0.0037183212
8	0x3be8ace2	0.0071006874
9	0x3a4857ca	0.0007642476
10	0xb5bebda7	-1.4211299e-06
11	0x3b67dd80	0.0035379827
12	0xbd621c8e	-0.055203013
13	0x3b3e0b73	0.0028998523
14	0xbc5b1a3b	-0.013372953
15	0xbc5c6ab8	-0.013453178
16	0x3e14b898	0.14523542
17	0x3d93ea00	0.07222366
18	0x3d647964	0.05577983
19	0xa03a3a32	-1.5774068e-19
20	0x3d1a589b	0.037682157
21	0xbe17017d	-0.14746661
22	0x3d831315	0.06400124
23	0x3c806a5c	0.015675716
24	0xbe538b9c	-0.20658726
25	0xbd00b14c	-0.031419083
26	0xbbd0a5aa	-0.006367405
27	0x3e3ae971	0.18253113
28	0x3dc754fb	0.097330056
29	0xbc6269ac	-0.013819139
30	0x3e258ca7	0.16166936
31	0x3d073989	0.033013854
32	0xbe197d15	-0.14989121
33	0xbdf62911	-0.120195515
34	0x3d5fb283	0.0546136
35	0xbc8f9ccc	-0.017530821
36	0xbf309c04	-0.6898806
37	0xbf45a51e	-0.77205074
38	0x3e365841	0.17807104
39	0xbc312487	-0.010811931
40	0xbacd0bbc	-0.0015643756
41	0xbe10e3cf	-0.14149402
42	0xbc951ca5	-0.018202135
43	0xbe7275e3	-0.23677783
44	0x3a8048ef	0.0009787361
45	0x3bb45a00	0.005503893
46	0x3e59b33d	0.2125978
47	0xbb3918fb	-0.002824365
48	0x3c188e75	0.009311308
49	0xbc99fff6	-0.01879881
50	0xbed669c0	-0.41877556
51	0xbb0498c6	-0.0020232662
52	0x3b1d3925	0.002399036
53	0x3df502c2	0.11963417
54	0x3edca2df	0.4309301
55	0xbb4e3b61	-0.0031468498
56	0x3b86b8e6	0.004111397
57	0x3acbac98	0.0015539108
58	0xbdec3b32	-0.11534728
59	0x38606718	5.3501775e-05
60	0xbc9d27ae	-0.01918396
61	0xbd5a3508	-0.05327323
62	0x3c1539f0	0.009108052
63	0xbc8b451d	-0.01700073
64	0x3bb41f3d	0.005496888
65	0xbdafb45c	-0.08579323
66	0x3db0ce3e	0.086330876
67	0xbd62645d	-0.055271495
68	0xbd3f7179	-0.046739075
69	0xbd79d379	-0.06099269
70	0xbd91b493	-0.0711452
71	0xbce476d9	-0.027888702
72	0xbce92312	-0.028459106
73	0x3dacf3d6	0.084449455
74	0xbc967923	-0.01836831
75	0xbadba0b5	-0.0016756268
76	0x3d877af4	0.06615248
77	0x3eecf8b1	0.46283486
78	0x3d17772e	0.036978893
79	0x3d565668	0.052328497
80	0xbdcb70c7	-0.0993362
81	0x3b6c0eb4	0.0036019506
82	0x3e902996	0.28156728
83	0xbe663790	-0.22482133
84	0x3de325bc	0.11091182
85	0xbdb1e5d9	-0.08686418
86	0xbe2eab59	-0.17057551
87	0xbd9e7df1	-0.07738865
88	0x3d993a17	0.07481783
89	0x3dcd5a34	0.100269705
90	0xbca54ff2	-0.020179722
91	0x3b08ac28	0.0020854566
92	0xbd86a175	-0.06573764
93	0xbd66aa50	-0.056314766
94	0x3e44fcf4	0.19237119
95	0xbc21a430	-0.0098658055
96	0x3c5ec8f4	0.013597716
97	0x3cc301b1	0.023804517
98	0xbddbe07d	-0.10736177
99	0x3da5cf51	0.08096183
100	0xbd948883	-0.072526
101	0x3e896235	0.2683274
102	0xbd8bc1b6	-0.06824057
103	0x3d4b0d0d	0.049572993
104	0x3d151668	0.03639832
105	0xbe1f0996	-0.15531
106	0x3f349485	0.7053912
107	0x3e82a320	0.2551508
108	0xbe50efa9	-0.20403923
109	0x3dc0866d	0.0940064
110	0xbe2fdb36	-0.17173466
111	0x3d16b1ef	0.036790784
112	0x3ca12f15	0.01967577
113	0xbd056f8a	-0.032577075
114	0x3cc619b1	0.024182172
115	0x3bf9a9b3	0.0076191067
116	0xbe5e50e6	-0.21710548
117	0x3d1e0e9b	0.038588148
118	0x3c4fbfa0	0.012679964
119	0x3dac5f1c	0.08416578
120	0x3db632ce	0.08896409
121	0xbc818733	-0.015811538
122	0x3d64d55b	0.055867534
123	0x3c0728b5	0.008249451
124	0xbe97d9c0	-0.29658318
125	0x3c1fa1b1	0.00974314
126	0x3b80946c	0.0039239433
127	0xbc1066d4	-0.008813579
128	0xbb7d9b19	-0.0038697182
129	0xbd9d8d21	-0.07692934
130	0x3d9377e4	0.07200602
131	0xbc39f42a	-0.011349717
132	0x3db7806e	0.08960043
133	0xbd3a989d	-0.0455557
134	0x3e800415	0.25003114
135	0x3dd1c067	0.10241776
136	0xbc9afe22	-0.018920008
137	0xbddf33d3	-0.108985566
138	0x3ca2848b	0.019838592
139	0x3cd96120	0.02653557
140	0xbdb4b6a2	-0.08823897
141	0x3ec1450b	0.37747988
142	0xbdff7164	-0.124727994
143	0x3bbc916f	0.0057546417
144	0x3c858949	0.016300814
145	0xbbaedbb3	-0.005336249
146	0xbd855707	-0.0651074
147	0xbe8613e2	-0.26187044
148	0xbd05d3df	-0.03267276
149	0x3ccb9690	0.024852067
150	0xbc272207	-0.010200984
151	0xbe41ba6a	-0.18918768
152	0x3cb9141b	0.022592595
153	0xbe081628	-0.13289702
154	0x3e128f56	0.14312491
155	0xbd9460c9	-0.07245023
156	0x3d10d9ac	0.035363838
157	0xbd07123f	-0.032976385
158	0xbdae90f1	-0.08523739
159	0x3c48998d	0.012243641
160	0x3d010400	0.031497955
161	0x3d70590a	0.058678664
162	0xbd8bde67	-0.06829529
163	0xbcf4743d	-0.029840583
164	0xbe113c0e	-0.14183065
165	0xbcb23c2e	-0.021757212
166	0xbca680f0	-0.020325154
167	0x3d1db4d0	0.038502514
168	0xb9678718	-0.00022080203
169	0x3db76ff4	0.089569
170	0xbdbeaf8c	-0.09310827
171	0xbc9b22f4	-0.018937565
172	0x3d0bf0d6	0.034165226
173	0xbd362421	-0.04446805
174	0x3e0b0f03	0.13579945
175	0x3cac6728	0.021045282
176	0xbf39d306	-0.7258762
177	0xbe0b120c	-0.13581103
178	0xbe23050d	-0.15919895
179	0xbdbfddd0	-0.09368479
180	0xbd75ca52	-0.0600074
181	0x3dc1fb10	0.094717145
182	0xbbc25d64	-0.005931543
183	0xbd48fcb4	-0.04906912
184	0xbb8dfe55	-0.0043332973
185	0x3bd96c6b	0.006635239
186	0x3e642686	0.2228032
187	0xbc9e5f8a	-0.019332666
188	0x3dcaa6da	0.09895106
189	0x3d4271b0	0.047471702
190	0xbd349296	-0.044085108
191	0xbca9904a	-0.020698685
192	0x3cbeae1f	0.023276387
193	0x3e24052b	0.16017596
194	0xbc5e2ec6	-0.013560956
195	0xbd07a0d8	-0.033112377
196	0x3b509303	0.0031825907
197	0xbe327b4d	-0.17429848
198	0x3c07981f	0.008276015
199	0xbe987a3b	-0.29780754
200	0x3c98f8e0	0.01867336
201	0x3d02d3df	0.031940337
202	0x3c9f6e91	0.019461902
203	0xbda75bc5	-0.081718005
204	0x3e74a6df	0.23891781
205	0xbe3b6798	-0.18301237
206	0xbd375617	-0.044759836
207	0xbd9a3fb2	-0.0753168
208	0xbd5166b4	-0.051123336
209	0xbd97f003	-0.074188255
210	0xbd4ddf8b	-0.050262015
211	0x3e5bd951	0.21469618
212	0x3c96f031	0.018425079
213	0x3d9ac4ad	0.07557044
214	0x3c09f209	0.008419522
215	0xb8b15592	-8.4559564e-05
216	0xbd20d56c	-0.039266035
217	0xbd869d01	-0.06572915
218	0x3d68eda6	0.056867264
219	0xbcc51238	-0.024056539
220	0x3ca97647	0.020686282
221	0x3e29366c	0.16524667
222	0x3df1c66a	0.118054226
223	0x3af65d51	0.0018796121
224	0xbd957ac9	-0.0729881
225	0xbca0a2bb	-0.019608846
226	0xbd7bba91	-0.06145722
227	0x3d9ff59c	0.07810518
228	0xbb203813	-0.0024447485
229	0xbd4e811c	-0.050416097
230	0xbc7af993	-0.015318292
231	0x3d39c053	0.04534943
232	0xbd1906c1	-0.037359957
233	0xbc6dbae3	-0.014509889
234	0x3d96265a	0.07331534
235	0x3e0eacc2	0.1393309
236	0xbcebf246	-0.028802048
237	0x3d2346a9	0.03986231
238	0x3d710ef7	0.058852162
239	0xbd8a1016	-0.067413494
240	0x3e32e7df	0.17471264
241	0x3f00e9b2	0.5035659
242	0x3c67a916	0.014139434
243	0x3b07062f	0.002060305
244	0x3d8c3c05	0.06847385
245	0xbd4b14c3	-0.049580347
246	0x3f8bbba3	1.0916637
247	0xbd135507	-0.03596976
248	0xbe246abf	-0.16056345
249	0x3cf56c8f	0.029958991
250	0xbe272995	-0.16324456
251	0x3da20cb4	0.07912579
252	0x3d90c496	0.07068746
253	0x3d6aaa3c	0.057291254
254	0xbc280c93	-0.010256904
255	0xba8333ed	-0.0010009982

features.2.bias f4 [70]
0	0xbd9f7d8c	-0.07787618
1	0x3b0f143c	0.002183213
2	0xbc90a68f	-0.017657546
3	0x35808f6f	9.578488e-07
4	0xbc5fa293	-0.013649601
5	0x3d23bda0	0.039975762
6	0xbc656c0e	-0.014002813
7	0x3e7a6a4e	0.24454615
8	0xbb56a4cb	-0.0032752033
9	0x3ce17cf8	0.02752541
10	0xbd4412c4	-0.04786946
11	0xbc74eef9	-0.014949554
12	0xbcb27328	-0.021783426
13	0x38978ca0	7.2264345e-05
14	0x34d523c2	3.970036e-07
15	0xbd0176d1	-0.031607453
16	0xbeadd9c8	-0.33955216
17	0x3b66a063	0.0035190813
18	0xbc8a02d8	-0.01684706
19	0xbb3f0b1a	-0.0029150904
20	0xbb3759f0	-0.002797719
21	0xbd37bd10	-0.04485804
22	0xba0bc6b4	-0.0005332038
23	0xbc911987	-0.017712368
24	0xba5f0eb0	-0.00085089635
25	0xbdda4f28	-0.10659629
26	0x3cf7b335	0.03023682
27	0x3a18123d	0.00058010576
28	0xbc9467c0	-0.018115878
29	0xbd608e34	-0.054823115
30	0x3e0276ae	0.12740585
31	0x3af0d718	0.001837465
32	0x3cac0186	0.02099682
33	0xbe9ca052	-0.30591065
34	0xbdd36007	-0.1032105
35	0xbd6bbaee	-0.057551317
36	0xbc0a4f23	-0.008441719
37	0xbdd90a97	-0.10597723
38	0xbeac3b85	-0.3363916
39	0xbbd070fc	-0.006361125
40	0xbd587e92	-0.05285508
41	0xbd3e247c	-0.046421513
42	0x38fbae64	0.000120010955
43	0xbcdd1cdb	-0.026991298
44	0x384c999d	4.8780454e-05
45	0xbe0d8f7c	-0.13824266
46	0x3e06514c	0.1311695
47	0xbe1611ff	-0.14655302
48	0xbab61786	-0.0013892509
49	0xbe16f42c	-0.14741582
50	0xbe7bb73b	-0.24581616
51	0x3d96def1	0.073667414
52	0x3a862214	0.0010233545
53	0xbb3fa72d	-0.0029243932
54	0xbd3dd57d	-0.046346176
55	0xbb9ed51a	-0.004847181
56	0xbc7f2f3a	-0.0155752245
57	0x3d6c8140	0.05774045
58	0xbc9cd19e	-0.019142922
59	0xbd0d3827	-0.03447738
60	0x3d0075b7	0.03136226
61	0xbca2174b	-0.019786498
62	0x3d4c7e8f	0.049925383
63	0xbcb95f25	-0.022628376
64	0xbcabf9ca	-0.020993132
65	0x3c87af65	0.016563127
66	0xbc973c0f	-0.018461255
67	0xbb0f7c43	-0.0021894134
68	0x3d0192ec	0.031634256
69	0x3db6dd60	0.08928943

features.4.weight f4 [70]
0	0x3f9f715b	1.2456468
1	0x3f737d9a	0.9511353
2	0x3f33399d	0.70009786
3	0x3f58344d	0.84454805
4	0x3f36dba8	0.7142892
5	0x3f8df3d9	1.1090041
6	0x3f3a4504	0.7276156
7	0x3fa37acb	1.2771848
8	0x3f708c55	0.9396413
9	0x3f652f62	0.89525425
10	0x3f933980	1.1501923
11	0x3f7b58de	0.98182476
12	0x3f7e7bfb	0.9940793
13	0x3f6d7e96	0.9277128
14	0x3f782128	0.9692559
15	0x3f8ed841	1.1159745
16	0x3fd08ac7	1.6292351
17	0x3f5a5376	0.852836
18	0x3f719a01	0.94375616
19	0x3f2bb8d4	0.670789
20	0x3f2caf7c	0.6745527
21	0x3f56cf7a	0.83910334
22	0x3f5edb57	0.87053436
23	0x3f8a8c2f	1.0824031
24	0x3f585625	0.84506446
25	0x3f892a51	1.0716039
26	0x3f416188	0.75539446
27	0x3f5d2c2b	0.8639552
28	0x3f80f362	1.0074275
29	0x3f859efa	1.0439141
30	0x3fb2932d	1.3951164
31	0x3f6c064d	0.92197114
32	0x3f5947b7	0.84875053
33	0x3fd11615	1.6334864
34	0x3f864849	1.049081
35	0x3fa65473	1.2994522
36	0x3f39827f	0.72464746
37	0x3f5e82a8	0.86918116
38	0x3fd39df9	1.6532584
39	0x3f58d560	0.84700584
40	0x3fb275d4	1.3942208
41	0x3f6c3c0a	0.9227911
42	0x3f970419	1.1798126
43	0x3f68069d	0.9063509
44	0x3f62117b	0.88307923
45	0x3f979fcb	1.184564
46	0x3fa69558	1.3014326
47	0x3f855966	1.0417907
48	0x3f5c8540	0.86140823
49	0x3f7edaad	0.9955242
50	0x3fa498f0	1.2859173
51	0x3f864316	1.0489223
52	0x3f382f67	0.7194733
53	0x3f6dcc28	0.9288964
54	0x3fb4149a	1.4068787
55	0x3f8a1d05	1.0790106
56	0x3f3d9f55	0.74071246
57	0x3f9b95a4	1.2155042
58	0x3f375bdb	0.71624535
59	0x3f63dd00	0.89009094
60	0x3f6e69d1	0.93130213
61	0x3fac2398	1.3448362
62	0x3f63ab36	0.8893312
63	0x3fceaf4f	1.614725
64	0x3f53f196	0.82790506
65	0x3f676d6f	0.9040136
66	0x3f746af6	0.9547571
67	0x3f5464e0	0.82966423
68	0x3f54b1aa	0.83083594
69	0x3f661043	0.89868563

features.4.bias f4 [70]
0	0x3ef03a85	0.46919647
1	0x3ed3314a	0.41248542
2	0x3e8492f6	0.25893372
3	0x3e321443	0.17390542
4	0x3e9100b3	0.28320846
5	0x3eb148f4	0.3462597
6	0x3e89be98	0.26903224
7	0x3f19e4ac	0.6011455
8	0x3d91f49c	0.07126734
9	0x3f030a14	0.51187253
10	0x3ebf75e8	0.37394643
11	0x3e3978b0	0.18112445
12	0x3edebcb8	0.43503356
13	0x3dc958a0	0.09831357
14	0x3ee57b74	0.4482075
15	0x3e756cfd	0.23967357
16	0x3f79243a	0.973209
17	0x3c44001c	0.011962917
18	0x3f006c20	0.50164986
19	0xbf031bec	-0.5121448
20	0xbf045fdc	-0.5170877
21	0x3ee2faf6	0.44332093
22	0x3e24bc28	0.16087401
23	0x3ef8e015	0.4860846
24	0x3cb71352	0.02234808
25	0x3edba0bd	0.4289607
26	0x3e9218b4	0.28534472
27	0x3bb5ec48	0.0055518486
28	0x3e65047e	0.22364995
29	0xbee0bf61	-0.4389601
30	0x3ef9e2ed	0.48805943
31	0x3ede3286	0.4339792
32	0x3e856ce4	0.2605964
33	0x3f861551	1.0475255
34	0x3ef102c0	0.4707241
35	0x3ee7b040	0.45251656
36	0xbeeb7767	-0.45989534
37	0x3e5374d1	0.2065003
38	0x3effe161	0.49976638
39	0x3e8df349	0.27724674
40	0x3e9b2ff9	0.30310038
41	0x3edffba9	0.4374669
42	0x3e8d05cb	0.27543482
43	0x3f056b02	0.52116406
44	0x3e43a80f	0.19107078
45	0x3efd8fbe	0.4952373
46	0x3ef85ca5	0.48508182
47	0x3e8a43c5	0.2700483
48	0x3e113878	0.14181697
49	0x3e8755c3	0.26432618
50	0x3ec2f189	0.38074902
51	0x3ecb48d7	0.3970401
52	0x3d12a929	0.035805855
53	0xbce9c73c	-0.028537385
54	0x3ea93b14	0.33052886
55	0x3eb34df2	0.35020405
56	0x3e977588	0.29581857
57	0x3f00a1fb	0.5024716
58	0x3e8e2b1d	0.27767268
59	0x3ece982c	0.40350473
60	0x3ef0cb80	0.47030258
61	0x3eade859	0.3396633
62	0x3ec9ca35	0.39412084
63	0x3ef789cc	0.48347318
64	0x3de82340	0.113348484
65	0x3f0f697a	0.5602032
66	0x3f06e89a	0.5269867
67	0x3e9e5558	0.30924487
68	0x3f0cbc8f	0.5497522
69	0x3ea5a318	0.32350993

features.4.running_mean f4 [70]
0	0x4139ca59	11.611901
1	0x431fa23c	159.63373
2	0x420c6e28	35.107574
3	0x43169a11	150.60182
4	0x42270c69	41.76212
5	0x406439ac	3.56602
6	0x420d8635	35.38106
7	0x40e9f80c	7.311529
8	0x42c3bc1f	97.867424
9	0x4133e3f7	11.2431555
10	0x41163446	9.387762
11	0x3fa64bb9	1.2991859
12	0x411bec16	9.745138
13	0x42d18d19	104.77558
14	0x43270f90	167.06079
15	0x3fedd427	1.8580369
16	0x4181566b	16.167196
17	0x431672b8	150.44812
18	0x417de82f	15.869185
19	0x43184103	152.25395
20	0x43185deb	152.36687
21	0x414d665b	12.837489
22	0x4311df1f	145.87157
23	0x415fcdd1	13.987748
24	0x431b883a	155.53214
25	0x40ca5923	6.323381
26	0x40dfd15b	6.994306
27	0x4302d908	130.84778
28	0x402d2b68	2.7057743
29	0x426f6f7c	59.85887
30	0x4096fa54	4.7180576
31	0x416fdd0b	14.991466
32	0x40f4e8da	7.6534243
33	0x41d53253	26.649572
34	0x41110632	9.064013
35	0x40ce8580	6.4537964
36	0x4307e1ed	135.88252
37	0x4119ea4c	9.619701
38	0x3fbed047	1.4907311
39	0x4091bfff	4.554687
40	0x3fc74773	1.556868
41	0x41446521	12.27469
42	0x405c9804	3.4467783
43	0x420373c2	32.863045
44	0x42f48b23	122.27175
45	0x41059320	8.348419
46	0x40d18888	6.5479164
47	0x407dd2bd	3.9659874
48	0x43107d4d	144.48946
49	0x40cde050	6.433632
50	0x3f2b3a6f	0.6688604
51	0x409823a2	4.7543497
52	0x42db86e6	109.76347
53	0x42c92731	100.576546
54	0x40938f3d	4.611235
55	0x40a4f98e	5.155463
56	0x421f1b0a	39.776405
57	0x40c7667a	6.2312593
58	0x4217bb56	37.932945
59	0x40b8fe2c	5.781027
60	0x41118e99	9.097314
61	0x405c51ee	3.4425006
62	0x412c53f3	10.770495
63	0x410860df	8.52365
64	0x4247bae5	49.932514
65	0x4134fd68	11.311867
66	0x4196c2c6	18.845104
67	0x40ad1e3b	5.4099402
68	0x4186b1ff	16.836912
69	0x408da117	4.4259143

features.4.running_var f4 [70]
0	0x442c0e6b	688.2253
1	0x448b1bbf	1112.8671
2	0x4495bb49	1197.8527
3	0x4484349f	1057.6444
4	0x44d5de68	1710.9502
5	0x42aa83cc	85.257416
6	0x449ee727	1271.2235
7	0x42e712e8	115.53693
8	0x4443d332	783.2999
9	0x432e0900	174.03516
10	0x43869b8f	269.2153
11	0x41f2e4aa	30.361652
12	0x436983c1	233.51466
13	0x4460671d	897.61115
14	0x44b6bf21	1461.9728
15	0x4236ecff	45.73144
16	0x44232c1d	652.6893
17	0x44857288	1067.5791
18	0x43e14583	450.54306
19	0x4431f28e	711.7899
20	0x4433284d	716.6297
21	0x43709a8a	240.60367
22	0x449d7626	1259.6921
23	0x442167d8	645.62256
24	0x4485b33d	1069.6012
25	0x43134d84	147.3028
26	0x42d5c71f	106.88891
27	0x43a144ea	322.5384
28	0x42aa5c49	85.180244
29	0x43a9f2d0	339.89697
30	0x42c9ed36	100.9633
31	0x43fb9e1c	503.23523
32	0x42cbd89d	101.92307
33	0x44980115	1216.0338
34	0x437b356c	251.20868
35	0x433f90cd	191.56563
36	0x4445c310	791.04785
37	0x4316f041	150.93849
38	0x419de66b	19.737509
39	0x425c03fc	55.00389
40	0x421c523b	39.080303
41	0x437bb606	251.71103
42	0x42c03150	96.09631
43	0x443d7e1a	757.97034
44	0x43e558e8	458.69458
45	0x434c9ec7	204.62022
46	0x4304c249	132.75893
47	0x428387cd	65.765236
48	0x448fe8c8	1151.2744
49	0x42b68cf9	91.27534
50	0x4088b4ba	4.2720613
51	0x429f0888	79.51666
52	0x43d170a7	418.8801
53	0x44572e7e	860.72644
54	0x4322e60d	162.89864
55	0x42a47bde	82.24193
56	0x44b8d300	1478.5938
57	0x42efc777	119.88958
58	0x44b30c02	1432.3752
59	0x42824a48	65.14508
60	0x42f4e140	122.43994
61	0x42d55d56	106.6823
62	0x43553ac5	213.22957
63	0x440145d4	517.09106
64	0x446d528f	949.29
65	0x43571c3a	215.11026
66	0x4415717d	597.77325
67	0x42936534	73.69766
68	0x439b88b4	311.068
69	0x424d765f	51.365597

features.6.weight f4 [65, 70]
0	0x3c411c48	0.011786528
1	0xbc928a73	-0.017888283
2	0xbc820792	-0.01587275
3	0x3e220b7c	0.15824693
4	0xbd5049ef	-0.05085176
5	0xbe82a89d	-0.25519267
6	0xbdc08f8f	-0.09402382
7	0xbe3e1b21	-0.18565036
8	0x3d940204	0.07226947
9	0xbf06fba8	-0.52727747
10	0xbc63430f	-0.0138709685
11	0xbd85321e	-0.065037
12	0xbf113f9e	-0.567377
13	0x3da645d1	0.08118785
14	0xbd57ba82	-0.052668102
15	0xbd007ba6	-0.03136792
16	0xbe21faf6	-0.1581839
17	0x3e259865	0.16171415
18	0xbc53408e	-0.012893809
19	0x3e494165	0.19653852
20	0x3e622567	0.2208458
21	0x3c4f9df9	0.012671941
22	0x3e12aa51	0.14322783
23	0xbd708f3e	-0.058730356
24	0x3e3030fb	0.17206185
25	0xbddadfb0	-0.10687196
26	0x3d91275c	0.07087585
27	0x3d348571	0.044072572
28	0xbd17f4c7	-0.037098672
29	0x3dc4db37	0.096121244
30	0x3d4873ca	0.04893855
31	0xbbba2f21	-0.0056818877
32	0xbe129982	-0.14316371
33	0xbca68b4f	-0.0203301
34	0xbd50e66d	-0.051001
35	0xbd0f8043	-0.03503443
36	0x3df893e1	0.12137581
37	0x3dd73ebc	0.105100125
38	0xbe02a1d6	-0.12757048
39	0xbf34faa2	-0.70694935
40	0x3cf92cc3	0.030416852
41	0xbf56727a	-0.8376843
42	0x3c56ef00	0.0131185055
43	0xbf22ff09	-0.636704
44	0xbd578311	-0.05261523
45	0xbf0acd9c	-0.54219985
46	0xbdd4317f	-0.10361003
47	0x3dbabbc4	0.09117845
48	0x3e1b4bdb	0.15165655
49	0x3da699b4	0.08134785
50	0x3e9af2ff	0.30263516
51	0xbe2b4599	-0.16725768
52	0xbe89ddea	-0.2692712
53	0x3dc1deeb	0.09466346
54	0x3d54ad56	0.05192312
55	0x3e13b0b7	0.1442288
56	0xbdd2089b	-0.102555476
57	0xbe6aa4b7	-0.22914396
58	0xbdb3cae5	-0.087789334
59	0xbbf10327	-0.007355112
60	0xbedb550f	-0.42838332
61	0xbc76fc1b	-0.015074755
62	0xbe9090d6	-0.282355
63	0x3d12795a	0.03576026
64	0x3c2a0d24	0.0103791095
65	0xbe851691	-0.2599378
66	0xbca9dd77	-0.020735485
67	0xbdacbdb9	-0.08434624
68	0xbed6a38d	-0.41921654
69	0xbd9958c9	-0.074876375
70	0x3b3f833e	0.0029222514
71	0x3db61275	0.08890239
72	0x3dc87100	0.09787178
73	0x3c94200f	0.018081693
74	0x3db1319a	0.08652039
75	0x3da06ae7	0.0783289
76	0x3de85c57	0.113457374
77	0x3d8898ff	0.06669807
78	0xbc995353	-0.01871649
79	0xbd012ae4	-0.031535044
80	0xbbd14593	-0.0063864677
81	0x3e26aa88	0.1627599
82	0x3d16dc86	0.0368314
83	0xbd5312c3	-0.051531564
84	0x3d987cf3	0.07445707
85	0xbdad15e4	-0.08451441
86	0xbe0ecde3	-0.13945727
87	0x3bc530df	0.006017789
88	0x3cff296f	0.031147687
89	0x3d3aaea0	0.04557669
90	0x3cbd5a94	0.02311448
91	0xbd84ca71	-0.06483925
92	0x3babf7a9	0.0052480293
93	0x3d3bd278	0.045855016
94	0xbbf81d76	-0.0075718714
95	0x3c33ef53	0.010982352
96	0x3c1996ce	0.009374334
97	0xbdfdd647	-0.12394386
98	0x3cabf825	0.020992348
99	0x3e511c18	0.20420873
100	0x3e8a181d	0.26971522
101	0xbccb1b5c	-0.02479332
102	0x3c00eba5	0.007868682
103	0x3d221694	0.039572313
104	0x3c839f83	0.016067272
105	0xbe9e33be	-0.3089885
106	0x3d5abcdd	0.05340277
107	0xbc31117e	-0.010807393
108	0x3eeb0a9f	0.4590654
109	0x3dc95106	0.09829907
110	0xbdacea5b	-0.08443137
111	0xbd74ed3a	-0.05979655
112	0xbe6e27fc	-0.2325744
113	0x3db14327	0.086553864
114	0x3c8657d1	0.016399296
115	0xbc2a4525	-0.010392462
116	0xbb058284	-0.0020371983
117	0x3e0c2e62	0.13689569
118	0xbb455eed	-0.0030116395
119	0xbe459fa9	-0.19299187
120	0x3d1dfbda	0.038570262
121	0xbd9088c2	-0.070573345
122	0x3cbd7093	0.023124969
123	0xbd542fc0	-0.05180335
124	0x3f30ff0a	0.6913916
125	0xbd0f3d07	-0.03497031
126	0x3e038d34	0.12846833
127	0xbe8e68d1	-0.27814344
128	0x3dcdbcde	0.10045789
129	0xbb9e9238	-0.004839208
130	0xbd00b931	-0.031426612
131	0x3db22d04	0.08699992
132	0xbe1dc8e7	-0.1540867
133	0xbf65ccbf	-0.8976554
134	0xbc1f1edd	-0.009711948
135	0x3d37cc13	0.044872355
136	0x3ce604a3	0.028078383
137	0xbbabe254	-0.0052454863
138	0xbd5fd730	-0.05464858
139	0x3cc75ead	0.024337137
140	0xbe8a098b	-0.26960406
141	0xbded8720	-0.11598039
142	0xbe9d3453	-0.30703983
143	0xbd2759de	-0.04085719
144	0xbeb3ec86	-0.3514139
145	0xbfcf8ba6	-1.6214492
146	0xbe9f4d2e	-0.3111357
147	0xbd598f96	-0.05311545
148	0x3bda3c4c	0.00666002
149	0xbd440f75	-0.047866303
150	0xbdf1d2ed	-0.11807809
151	0xbee0f0ac	-0.43933618
152	0xbeb29517	-0.34879372
153	0xbc595d5f	-0.01326689
154	0xbe2061fe	-0.15662381
155	0xbd513b24	-0.05108179
156	0xbdfffe24	-0.12499645
157	0xbd1b8a0c	-0.03797345
158	0xbeda39ba	-0.42622167
159	0xbd3505f5	-0.044195134
160	0xbd32d4a9	-0.04365984
161	0xbe821168	-0.25403905
162	0xbd0bb3e2	-0.034107096
163	0xbd0de2d1	-0.034640137
164	0xbd0377c4	-0.03209664
165	0xbcd8e479	-0.026476132
166	0xbd09e5bc	-0.033666357
167	0xbdf3b6ac	-0.11900076
168	0xbd014a84	-0.031565204
169	0x3c576d3e	0.013148604
170	0x3d80c48e	0.0628749
171	0xbf0fa50b	-0.5611121
172	0x3e331722	0.17489293
173	0xbf00fa80	-0.5038223
174	0xbd7a81bd	-0.061158884
175	0xbe9f6e75	-0.3113896
176	0xbd5efa2d	-0.054437805
177	0x3d39ce00	0.045362473
178	0xbe45e77b	-0.19326584
179	0xbdb8d77e	-0.09025477
180	0xbe1534c3	-0.14570908
181	0x3c2117fa	0.009832377
182	0x3d98d068	0.07461625
183	0xbdc09cf0	-0.094049335
184	0xbd98225e	-0.0742843
185	0xbe14cf6d	-0.14532252
186	0xbde60010	-0.11230481
187	0xbe36fb5f	-0.17869328
188	0xbd574964	-0.052560225
189	0x3aa2c26b	0.001241756
190	0xbbc5e231	-0.006038927
191	0x3b403db6	0.0029333658
192	0xbdad08e8	-0.08448964
193	0xbd568a63	-0.05237807
194	0xbe8d68df	-0.27619073
195	0xbf5f6629	-0.8726526
196	0xbed51916	-0.41620702
197	0xbd7077b1	-0.058707897
198	0xbeb2cb32	-0.3492065
199	0xbc95be93	-0.01827935
200	0xbd879ef6	-0.06622116
201	0x3d85a93c	0.065264195
202	0xbe3a1851	-0.18173338
203	0xbec9716c	-0.39344347
204	0xbda035f0	-0.07822788
205	0x3bb54fa9	0.005533178
206	0xbefdaf0f	-0.49547622
207	0xbc2c4ae8	-0.010515906
208	0xbcd9dfe6	-0.02659602
209	0xbcc2aa76	-0.023762923
210	0x3c320954	0.010866482
211	0x3e7db003	0.24774174
212	0xbdca9040	-0.09890795
213	0x3f012651	0.5044909
214	0xbe0b7ec0	-0.1362257
215	0xbe0356b9	-0.12826051
216	0xbefa0ecc	-0.48839414
217	0xbeec44d1	-0.46146253
218	0x3e795638	0.24349296
219	0xbedd4cf5	-0.43222776
220	0x3ea0aa32	0.3137985
221	0x3d7e2a61	0.062052134
222	0x3e70283a	0.23452845
223	0x3e638e7c	0.22222322
224	0x3e8e0182	0.27735525
225	0xbc319d6f	-0.010840758
226	0xbeb82129	-0.359628
227	0xbe58c2b7	-0.21168028
228	0xbf0bba0f	-0.5458078
229	0xbd7c6d51	-0.06162769
230	0xbce8d30f	-0.028420953
231	0xbee23bdf	-0.44186303
232	0x3f01c168	0.5068574
233	0xbef82529	-0.4846585
234	0xbe22f6b6	-0.15914425
235	0xbe7749f4	-0.24149305
236	0xbeac129f	-0.33607957
237	0x3e0dab9e	0.13834998
238	0xbc63ede7	-0.013911701
239	0xbe31a01f	-0.17346238
240	0x3dfba59e	0.12287448
241	0xbe0f0da4	-0.13970047
242	0xbebcafb8	-0.36852813
243	0x3d13f965	0.036126513
244	0xbee1bcf9	-0.44089487
245	0xbe27635e	-0.163465
246	0xbe3ce623	-0.18447165
247	0xbede64e6	-0.43436354
248	0xbd778dbf	-0.060437914
249	0xbe99ca2e	-0.30037063
250	0xbdedc4e2	-0.11609818
251	0x3d6bb814	0.057548597
252	0xbd971b8c	-0.07378301
253	0xbf319126	-0.69362104
254	0xbd87ebb7	-0.06636756
255	0x3dcbe74c	0.09956226

features.6.bias f4 [65]
0	0x3dc35346	0.095373675
1	0xbdbaf263	-0.09128263
2	0x3d4ad434	0.04951878
3	0xbf4cad94	-0.7995236
4	0x3efc58f3	0.49286613
5	0x3d15f325	0.036608834
6	0x3e3b759f	0.18306588
7	0x3f0c3c63	0.5477964
8	0x3ea68990	0.32526827
9	0x3f0acec9	0.5422178
10	0xbcd20952	-0.02563921
11	0x3d96bf63	0.07360723
12	0x3d608f16	0.054823957
13	0x3ed112f1	0.40834764
14	0x3f2390db	0.63892907
15	0x3e8bdc2a	0.2731641
16	0x3e4ba849	0.19888414
17	0x3d51c0d9	0.051209304
18	0xbe276cc0	-0.16350079
19	0x3eb9ec0c	0.36312902
20	0x3e56fde2	0.20995286
21	0x3e65fc8a	0.22459617
22	0xbd07d34a	-0.033160485
23	0xbe1dfd7d	-0.1542873
24	0xbe589dad	-0.21153899
25	0xbef418cc	-0.4767517
26	0x3c53698e	0.012903584
27	0xbde2c857	-0.11073368
28	0xbe986841	-0.2976704
29	0x3f1e6d45	0.6188548
30	0x3e17c7b3	0.14822273
31	0xbdd5ff3c	-0.10449073
32	0xbe64e456	-0.22352728
33	0x3ed1ea4b	0.40999064
34	0xbd4e6cdf	-0.050396796
35	0xbe00e3b9	-0.1258687
36	0xbfc37fd7	-1.5273389
37	0x3d8995b7	0.06718009
38	0x3dc48d73	0.09597292
39	0xbf16cd65	-0.5890716
40	0x3dca951f	0.09891724
41	0xbef6c13d	-0.48194304
42	0x3f3245e4	0.69637895
43	0xbf46db0c	-0.7767799
44	0x3e3e5278	0.18586147
45	0x3ecc2978	0.39875388
46	0xbc983b66	-0.01858301
47	0xbd4fe5d6	-0.050756298
48	0xbe64f005	-0.22357185
49	0x3e88d05a	0.2672146
50	0x3e80a84f	0.2512841
51	0xbe9247f2	-0.28570515
52	0x3c12a394	0.008950133
53	0xbbfd5994	-0.007731626
54	0x3d5545e7	0.052068617
55	0xbe2e0f74	-0.16998082
56	0x3ef601a4	0.48048127
57	0xbf2d9943	-0.67811984
58	0xbe9293be	-0.28628343
59	0x3e8151a8	0.2525761
60	0x3dca1afd	0.09868429
61	0xbe5fd5f9	-0.21858968
62	0x3c97b7a9	0.018520193
63	0xbe197cb1	-0.14988972
64	0xbeab94ba	-0.33511907

features.8.weight f4 [60, 65]
0	0xbd1f2258	-0.038851112
1	0xbc8ec3cd	-0.01742735
2	0x3ead0104	0.33789837
3	0x3df5f890	0.120103
4	0xbda9255c	-0.08259079
5	0xbef1b546	-0.47208613
6	0x3e0762df	0.1322131
7	0xbd86c718	-0.06580943
8	0xbae2bfba	-0.0017299571
9	0xbd7380cb	-0.059449
10	0x3e9027bd	0.28155318
11	0xbbc1b709	-0.005911712
12	0x3cd2c2bc	0.025727622
13	0x3e63ac72	0.22233751
14	0xbec9390d	-0.3930134
15	0xbe11251e	-0.14174315
16	0xbe46da34	-0.19419175
17	0xbe016161	-0.12634803
18	0x3da27b26	0.07933645
19	0xbce76dc6	-0.028250586
20	0xbd68e95c	-0.056863174
21	0xbde9b629	-0.114116974
22	0xbcba85ee	-0.02276894
23	0x3e6d3fc4	0.23168856
24	0xbcf11703	-0.029429918
25	0x3e023a66	0.1271759
26	0xbe397a01	-0.18112947
27	0xbe91231f	-0.28347108
28	0x3b89fd97	0.0042111385
29	0xbe91ba34	-0.28462374
30	0xbdc8ddec	-0.09807953
31	0x3e90ecf4	0.2830578
32	0x3e8ee010	0.2790532
33	0x3c91d3e6	0.017801236
34	0x3e24da0b	0.16098802
35	0xbe00424c	-0.1252529
36	0xbecb29af	-0.3968024
37	0x3ca55968	0.020184234
38	0xbe73096e	-0.23734066
39	0xbe2a6131	-0.16638638
40	0x3de79c4b	0.113091074
41	0xbdb301a4	-0.08740547
42	0xbd8842d8	-0.066533744
43	0xbdebb746	-0.11509566
44	0xbda2a949	-0.07942445
45	0xbe418470	-0.18898177
46	0xbd74cf7a	-0.059768178
47	0x3e36fe93	0.1787055
48	0x3c3eed93	0.011653322
49	0x3da29ce6	0.07940082
50	0xbdbcd06b	-0.0921944
51	0xbea2d074	-0.31799662
52	0xbe26dcc2	-0.1629515
53	0x3dc6f666	0.097149655
54	0xbd8536fb	-0.06504627
55	0xbd0635d0	-0.032766163
56	0xbe726667	-0.23671876
57	0xbd88a3e1	-0.066718824
58	0xbcb4df17	-0.022079034
59	0x3c192104	0.00934625
60	0xbf0c37ef	-0.5477285
61	0x3e6205d5	0.22072537
62	0xbe0fc012	-0.14038113
63	0x3d91a511	0.07111562
64	0xbc0988d1	-0.008394436
65	0x3c4d2970	0.0125220865
66	0xbd473c57	-0.04864153
67	0xbdd52e42	-0.104092136
68	0xbe4e9c12	-0.20176724
69	0x3c9349c2	0.017979506
70	0xbf04d589	-0.5188833
71	0xbdeff403	-0.117164634
72	0xbc9b57aa	-0.0189627
73	0xbe1cb8d1	-0.15304877
74	0xbd037f3a	-0.032103755
75	0xbf404d69	-0.7511812
76	0xbe73cd17	-0.23808704
77	0x3d0cb378	0.034350842
78	0x3e5846d3	0.21120767
79	0x3e533496	0.20625529
80	0xbda3f1a4	-0.08005074
81	0xbd6f12a4	-0.058367386
82	0xbed30103	-0.4121171
83	0xbdfbe3d6	-0.12299316
84	0xbe29692b	-0.16544025
85	0xbed500d6	-0.416022
86	0xbd09570e	-0.033530287
87	0xbe815e8e	-0.25267452
88	0xbcdff0e7	-0.02733655
89	0xbe3b7e17	-0.18309818
90	0x3ce28513	0.027651345
91	0xbdb35ab0	-0.08757532
92	0x3e552a80	0.20816994
93	0x3d017265	0.031603236
94	0x3d183d35	0.037167747
95	0x3c9f448f	0.019441871
96	0x3e0e778b	0.1391279
97	0x3dae5ca1	0.08513761
98	0xbd518f79	-0.051162217
99	0xbd0c7dc7	-0.034299638
100	0x3e380f06	0.17974481
101	0xbd8f9225	-0.07010297
102	0xbe0784a5	-0.13234194
103	0x3d1d4826	0.038398884
104	0xbb81e619	-0.0039641974
105	0xbc90a00c	-0.017654441
106	0x3dd4a4ac	0.10382971
107	0xbe518dac	-0.204642
108	0x3dd882aa	0.10571797
109	0xbde18b3f	-0.11012887
110	0x3d81a829	0.06330902
111	0x3dc04836	0.09388773
112	0x3eafa20e	0.34303325
113	0xbea89931	-0.32929376
114	0x3dae727c	0.0851793
115	0xbcb69403	-0.022287374
116	0x3e34d2be	0.17658517
117	0x3cb5ba98	0.022183701
118	0xbebfa810	-0.3743291
119	0xbecb0968	-0.39655614
120	0xbe077372	-0.13227633
121	0xbd56fabb	-0.05248521
122	0xbf6f7488	-0.9353719
123	0x3e7abbb1	0.24485661
124	0xbdba0a02	-0.0908394
125	0xbdb25e77	-0.08709424
126	0x3cbaef99	0.022819327
127	0x3e2e6b94	0.17033225
128	0x3dd60e7b	0.10451981
129	0x3dc264b2	0.09491862
130	0xbe8253c6	-0.2545454
131	0xbea98629	-0.3311017
132	0xbe15249c	-0.14564747
133	0xbd742299	-0.059603307
134	0x3e314972	0.17313173
135	0x3e60da9f	0.21958397
136	0xbc13cab4	-0.009020496
137	0xbd6875ac	-0.056752846
138	0xbc879c6a	-0.016554076
139	0xbd939547	-0.07206207
140	0xbebc96ff	-0.3683395
141	0xbed0ca3c	-0.40779293
142	0xbe29b299	-0.16572036
143	0xbe534c51	-0.20634581
144	0x3eecf538	0.46280837
145	0xbe3fdd00	-0.18736649
146	0xbe33f246	-0.17572889
147	0xbd9f7220	-0.077854395
148	0x3d52630f	0.051364
149	0x3daf6df2	0.08565892
150	0xbe2be0fd	-0.16785045
151	0xbe0edb45	-0.13950832
152	0x3d864419	0.06555957
153	0xbe1a348d	-0.15059109
154	0xbe030904	-0.12796408
155	0x3e3c8848	0.18411362
156	0xbe88473b	-0.26616845
157	0x3e0e6dcc	0.13909072
158	0x3d5b6b27	0.053568985
159	0xbc1e5d7c	-0.009665843
160	0x3e57cffa	0.2107543
161	0x3ee4ff79	0.4472616
162	0x3e454d21	0.19267704
163	0xbda92a0e	-0.082599744
164	0xbe894426	-0.26809806
165	0x3d8a843f	0.06763505
166	0xbdb09385	-0.08621887
167	0x3d92c806	0.07167058
168	0x3d678fdb	0.056533676
169	0xbeb70f0a	-0.3575366
170	0xbea13a36	-0.31489724
171	0x3e6c0781	0.23049738
172	0xbe2407a6	-0.16018543
173	0xbe08ea8f	-0.13370727
174	0xbe0f8ca2	-0.14018491
175	0x3e8c3eab	0.27391562
176	0x3d3d43b8	0.04620716
177	0x3e216dc7	0.15764533
178	0x3e686049	0.2269298
179	0xbe8bcb9a	-0.27303773
180	0xbe799927	-0.24374829
181	0xbea7c925	-0.3277065
182	0xbe86e52e	-0.26346725
183	0xbd958d32	-0.073023215
184	0xbee2f0b2	-0.4432426
185	0xbd9031a2	-0.07040717
186	0xbda43211	-0.08017362
187	0xbeee98b0	-0.46600866
188	0xbe4201bd	-0.18945976
189	0x3bd266ef	0.006420962
190	0xbcc9829d	-0.024598414
191	0xbda420e5	-0.08014087
192	0xbe8bce01	-0.27305606
193	0xbd34e34b	-0.044162076
194	0x3d3d2ad1	0.04618341
195	0xbdccaa12	-0.09993376
196	0xbe14040a	-0.14454666
197	0xbc01810c	-0.007904302
198	0x3a9cf561	0.0011974984
199	0xbe035f20	-0.12829256
200	0xbe9e0ffc	-0.3087157
201	0x3dc2faab	0.09520467
202	0x3d934c89	0.07192332
203	0xbe1831be	-0.14862725
204	0xbd0f32b1	-0.034960452
205	0x3d42e932	0.047585674
206	0xbd7765a7	-0.060399678
207	0xbd97809a	-0.07397576
208	0xbc2c6233	-0.010521459
209	0xbdaac06e	-0.08337484
210	0x3dc37f25	0.09545735
211	0xbe2308a7	-0.1592127
212	0x3cdfc178	0.027313933
213	0xbea93191	-0.3304563
214	0x3d825407	0.06363683
215	0x3a9547c8	0.001138919
216	0xbcbf0a02	-0.023320202
217	0x3dbe4d65	0.092921056
218	0xbd84ed26	-0.06490545
219	0x3e046829	0.12930359
220	0xbe0f94bc	-0.14021581
221	0xbc60889d	-0.013704446
222	0xbe223e91	-0.1584418
223	0x3e42ff56	0.19042715
224	0x3c649987	0.013952619
225	0x3e06ec07	0.13175975
226	0xbd5ccb40	-0.05390477
227	0x3e5fe674	0.21865255
228	0x3dc25c67	0.094902806
229	0xbe3d75c8	-0.18501961
230	0x3d3ddd85	0.046353836
231	0x3d65fb13	0.056147646
232	0xbe663d97	-0.22484432
233	0x3de99f2e	0.11407314
234	0x3df36938	0.11885303
235	0xbdd2d474	-0.102944285
236	0xbcb4355c	-0.0219981
237	0x3e210e24	0.1572805
238	0xbd23398d	-0.039849807
239	0xbcedd17c	-0.029030554
240	0xbce812de	-0.02832931
241	0x3d9c5082	0.07632543
242	0xbdd4f776	-0.10398762
243	0xbcfd2f11	-0.030906232
244	0xbd8d3302	-0.068944946
245	0xbd9adddc	-0.075618476
246	0x3d2952a9	0.041338596
247	0xbda31ce9	-0.079644985
248	0xbe2c3351	-0.1681645
249	0xbd18533c	-0.037188753
250	0x3dc2f5ba	0.09519525
251	0xbdca05ba	-0.098643735
252	0xbd8c3b04	-0.06847194
253	0x3d8905b8	0.06690544
254	0x3d19b38e	0.037524752
255	0xbd65927f	-0.056047913

features.8.bias f4 [60]
0	0xbdf7aa39	-0.12093014
1	0xbe3fe515	-0.18739732
2	0xbd6a76d9	-0.05724225
3	0x3ebe4717	0.37163612
4	0xbe989949	-0.29804447
5	0xbf0cefd2	-0.55053437
6	0xbed9a716	-0.4251029
7	0xbf2d2056	-0.67627466
8	0xbea9c567	-0.3315842
9	0xbf1503b4	-0.58208776
10	0xbdb7f2e3	-0.08981874
11	0x3e4797a6	0.19491443
12	0xbf0521c8	-0.5200467
13	0xbe07d622	-0.13265279
14	0xbefaed6b	-0.4900926
15	0xbe988cf2	-0.29795033
16	0xbecaa06a	-0.3957551
17	0xbec8baa3	-0.39204893
18	0xbcb936fe	-0.02260923
19	0xbec55a00	-0.38545227
20	0xbe206c65	-0.15666349
21	0xbe336d8d	-0.17522259
22	0xbe5ba309	-0.21448912
23	0xbf3c99e7	-0.73672336
24	0xbef89180	-0.48548508
25	0xbf0a6ebf	-0.54075235
26	0xbdbf6ef2	-0.09347333
27	0xbeab1f08	-0.33422112
28	0xbebecee0	-0.37267208
29	0xbe1a4ca0	-0.15068293
30	0xbe8abb80	-0.27096176
31	0xbe3df879	-0.18551816
32	0xbe645012	-0.2229617
33	0xbeeb5434	-0.4596268
34	0xbee0f785	-0.43938842
35	0x3e1399f6	0.144142
36	0x3d90e9c4	0.07075837
37	0xbe8a85c2	-0.27055174
38	0x3d0289f2	0.031869836
39	0xbe0e011e	-0.13867614
40	0xbea0d632	-0.31413418
41	0xbe3a5df6	-0.18199906
42	0xbf8b76b5	-1.0895602
43	0xbea97648	-0.33098054
44	0xbeb1aa97	-0.34700462
45	0xbe24101f	-0.16021775
46	0xbe460be2	-0.1934047
47	0xbdf37217	-0.11886995
48	0x3df7b43a	0.12094922
49	0xbe182063	-0.14856105
50	0xbe578629	-0.21047272
51	0xbf027c34	-0.5097077
52	0xbede8b70	-0.43465757
53	0xbe9c3107	-0.30506155
54	0xbe876288	-0.2644236
55	0xbeb57ca8	-0.35446668
56	0xbc224df5	-0.009906282
57	0xbe8456bf	-0.25847432
58	0xbdb99811	-0.090622075
59	0xbe8b5c37	-0.27218792

features.10.weight f4 [60, 60]
0	0xbe36aba1	-0.17838909
1	0xbe5e91bd	-0.21735282
2	0x3e763d05	0.24046715
3	0x3d8632bc	0.065526456
4	0xbe56ad0f	-0.20964454
5	0xbe0a5f64	-0.13512951
6	0xbda3edeb	-0.080043636
7	0x3d9ae367	0.07562905
8	0x3dd824c9	0.10553891
9	0xbda85916	-0.08220117
10	0xbe23f194	-0.16010123
11	0x3d5037f3	0.050834607
12	0xbf000a37	-0.50015587
13	0x3e233549	0.15938295
14	0xbccadb93	-0.024762904
15	0xbe224406	-0.15846261
16	0xbd85d5c0	-0.0653491
17	0x3cae7fc9	0.021301167
18	0x3de396b2	0.11112727
19	0x3d629668	0.05531922
20	0x3d7a6497	0.061131086
21	0xbe03210a	-0.12805572
22	0x3e32c82f	0.17459176
23	0x3d31c770	0.04340309
24	0x3e26402c	0.16235417
25	0x3e011133	0.12604217
26	0x3d792683	0.060827743
27	0xbc68b3e6	-0.014203047
28	0xbbd08c4f	-0.0063643823
29	0x3c6b23e1	0.014351816
30	0xbdfa953c	-0.122354954
31	0x3d201a9f	0.039087888
32	0xbc8c56c9	-0.017131226
33	0xbe07a89b	-0.13247912
34	0x3ddfa49b	0.10920068
35	0xbdcfac9e	-0.10140346
36	0xbe7c092e	-0.24612877
37	0x3da9be92	0.082883015
38	0x3d85ade4	0.06527308
39	0x3e54355c	0.2072348
40	0xbe54c422	-0.20777944
41	0x3dc7379a	0.09727402
42	0x3d5c00e5	0.05371179
43	0x3d4d6df8	0.050153702
44	0x3d708297	0.05871829
45	0x3d8cf9a5	0.068835534
46	0x3d94f5c0	0.072734356
47	0x3c2867a7	0.010278619
48	0x3e31a5a0	0.17348337
49	0xbede6865	-0.43439022
50	0xbcca9c39	-0.024732696
51	0x3d81d4c5	0.06339411
52	0x3de6f0e3	0.11276414
53	0x3ce2565a	0.027629066
54	0x3c1c553b	0.009541805
55	0x3d9cb7c9	0.07652242
56	0xbc4d9651	-0.012548045
57	0xbe21a427	-0.15785275
58	0xbec62091	-0.3869672
59	0xbe3b2e7b	-0.1827945
60	0xbe231e0a	-0.15929428
61	0x3cccb337	0.0249878
62	0xbc8f6c2b	-0.017507633
63	0x3d681237	0.056657996
64	0x3df0e293	0.117619656
65	0x3d965aa5	0.07341508
66	0xbe6d567f	-0.23177527
67	0xbd4dbf00	-0.05023098
68	0x3dd85423	0.10562923
69	0x3d3442ea	0.044009127
70	0x3cc5fe00	0.024168968
71	0xbdde286c	-0.108475536
72	0xbde6c2be	-0.11267613
73	0xbd5f05b8	-0.054448813
74	0x3dce9102	0.10086252
75	0x3c8c54e5	0.017130325
76	0xbc2695ae	-0.010167522
77	0xbdcba19b	-0.09942933
78	0xbe781317	-0.24226032
79	0xbdef6473	-0.11689081
80	0xbe1084fb	-0.14113228
81	0x3dd7c71a	0.105360225
82	0xbe567975	-0.2094477
83	0xbd7b84aa	-0.061405815
84	0xbea89f99	-0.32934263
85	0xbeaa94eb	-0.3331674
86	0x3dcc095d	0.099627234
87	0xbdde117d	-0.108431794
88	0x3d522ef3	0.051314306
89	0x3dfdedf5	0.12398902
90	0x3c9a3fd9	0.018829273
91	0x3c5b0508	0.013367899
92	0x3e22d215	0.15900452
93	0x3e3e25d3	0.18569116
94	0xbdfaa50a	-0.1223851
95	0x3ded969c	0.11600992
96	0x3e05f7ca	0.13082805
97	0xbdbdcf78	-0.09268087
98	0x3bf6f3e8	0.0075364
99	0xbe613748	-0.21993744
100	0x3dcc1355	0.09964625
101	0xbd30bb10	-0.043147147
102	0x3c1a3c8f	0.009413852
103	0x3e2835f3	0.1642683
104	0x3d6fe04b	0.05856351
105	0x3d8084e9	0.062753506
106	0xbda98644	-0.08277562
107	0xbd140af7	-0.03614327
108	0xbe8c6c97	-0.27426597
109	0x3e85a875	0.26105085
110	0xbd2f2b09	-0.04276565
111	0xbe31bb6e	-0.17356655
112	0x3e75c1ba	0.23999682
113	0xbd8bf1d3	-0.06833234
114	0xbde97332	-0.11398925
115	0xbd0585c6	-0.03259828
116	0x3d9228fc	0.071367234
117	0xbe2d7816	-0.1694034
118	0x3ecc929f	0.39955613
119	0x3e094737	0.13406073
120	0x3e0d5f4b	0.13805883
121	0x3de5a3e5	0.11212901
122	0x3d2b235d	0.041781772
123	0xbe0aad60	-0.135427
124	0x3d06332d	0.03276365
125	0x3d852181	0.06500531
126	0xbc3e92c4	-0.011631671
127	0xbdb96462	-0.090523496
128	0x3db6ee80	0.08932209
129	0x3cb7e0db	0.022446087
130	0xbe60d861	-0.21957542
131	0xbe97b70f	-0.2963185
132	0x3de9f1f3	0.11423101
133	0x3c5663ec	0.013085347
134	0x3ef56c03	0.4793397
135	0xbc804bac	-0.015661083
136	0x3caf46de	0.021396097
137	0xbe1f5fa3	-0.15563826
138	0x3d16f812	0.036857672
139	0x3ba78c3d	0.0051131533
140	0x3e1cc37f	0.15308951
141	0xbebe5950	-0.37177515
142	0x3e121db2	0.1426914
143	0xbe01999a	-0.1265625
144	0x3d9df822	0.07713343
145	0x3c916001	0.017745974
146	0xbd71338c	-0.05888705
147	0x3da498f4	0.08036986
148	0x3e2a755e	0.16646335
149	0xbd46dd10	-0.048550665
150	0xbe2c3b7c	-0.16819566
151	0x3da1d1ba	0.0790133
152	0x3c237acb	0.009978007
153	0x3d26e2fe	0.04074382
154	0x3dd1d95f	0.10246538
155	0x3d03bdc3	0.032163393
156	0x3e436b74	0.19083959
157	0x3d634b3a	0.055491664
158	0xbd8fcc31	-0.07021368
159	0x3d7e8b58	0.062144607
160	0xbce84446	-0.028352868
161	0x3bf587f2	0.0074930126
162	0xbe320ea6	-0.173884
163	0xbe5dfca1	-0.21678402
164	0xbe3dcc8e	-0.18535063
165	0xbd264ef1	-0.04060263
166	0x3d4203a7	0.047366764
167	0x3d8f3914	0.06993309
168	0xbe382bc2	-0.17985442
169	0xbe008c4e	-0.12553522
170	0x3e1cba8f	0.15305541
171	0xbdf821e3	-0.121158384
172	0xbc51c6d9	-0.012803757
173	0x3cd15b62	0.02555627
174	0xbe2ac6bb	-0.16677372
175	0xbd99b113	-0.07504477
176	0x3d7baefe	0.061446182
177	0xbe4338d0	-0.19064641
178	0x3e7dcf81	0.24786188
179	0x3d9ca7fd	0.07649229
180	0x3daec6fc	0.08534047
181	0xbdc1bcdc	-0.0945985
182	0x3e37dde9	0.17955746
183	0xbe0d0afb	-0.1377372
184	0x3db42769	0.087965794
185	0x3cd403fa	0.025880802
186	0x3e881d4f	0.2658486
187	0x3d36d891	0.044640128
188	0xbdb590bf	-0.08865499
189	0xbb9a044f	-0.0047002207
190	0xbda56828	-0.08076507
191	0xbe15d30a	-0.14631286
192	0x3e3fc543	0.18727593
193	0xbdc381b6	-0.09546225
194	0x3e86f646	0.26359767
195	0xbd81d495	-0.06339375
196	0x3e226ee9	0.15862621
197	0xbea26c6f	-0.31723353
198	0xbcec6a28	-0.028859213
199	0xbd9c7590	-0.07639611
200	0xbcb31717	-0.021861596
201	0x3cd6b3d5	0.026208797
202	0xbe2e8d91	-0.17046191
203	0xbd8223ef	-0.0635451
204	0xbe0c7680	-0.13717079
205	0x3deec452	0.11658539
206	0x3c79dfcf	0.015251114
207	0x3e208cfe	0.15678784
208	0x3e033e4f	0.12816738
209	0x3de003b2	0.10938205
210	0xbe0983f0	-0.13429236
211	0xbcf068ba	-0.029346813
212	0xbe4d7a1b	-0.20066111
213	0xbea237f6	-0.3168332
214	0x3db698e6	0.08915882
215	0xbcaf000c	-0.021362327
216	0x3e895b02	0.26827246
217	0x3940da31	0.0001839183
218	0xbe5a53b2	-0.2132099
219	0xbe22f5bf	-0.15914057
220	0x3e652e0d	0.22380848
221	0xbb793c6f	-0.0038030406
222	0xbe0336fb	-0.12813942
223	0xbddf729c	-0.10910532
224	0xbe220164	-0.15820843
225	0x3c1c565b	0.009542073
226	0xbdb8cbe6	-0.090232655
227	0x3e8700e2	0.2636786
228	0xbe0be054	-0.13659793
229	0x3d093ad5	0.033503372
230	0xbe25b93b	-0.16183941
231	0xb924bf04	-0.00015711418
232	0x3e5dfdac	0.216788
233	0x3dc14101	0.09436227
234	0xbe17e90d	-0.14834996
235	0x3e0ffb71	0.14060761
236	0x3cf6bb3f	0.030118583
237	0xbdcb594d	-0.09929142
238	0x3e4bec46	0.1991435
239	0xbe4b5625	-0.1985708
240	0x3cb93e3c	0.022612683
241	0xbd378a15	-0.04480942
242	0x3d40b338	0.047045916
243	0x3d5ac2cc	0.05340843
244	0x3d89209c	0.06695673
245	0xbd0a3a61	-0.03374708
246	0xbdea479b	-0.11439439
247	0x3e49d28b	0.19709222
248	0xbe8f13d4	-0.27944815
249	0x3e19eac9	0.1503097
250	0x3d8306bb	0.06397768
251	0xbe3c6244	-0.1839686
252	0xbdf1b30f	-0.11801731
253	0xbe5fd1f1	-0.2185743
254	0x3c6f266b	0.014596562
255	0x3ba630ab	0.0050717196

features.10.bias f4 [60]
0	0xbb09edc4	-0.002104626
1	0xbd1a45fa	-0.03766439
2	0xbe586129	-0.21130814
3	0x3dff30db	0.1246049
4	0xbdb4bc44	-0.08824971
5	0x3e48aa21	0.19596149
6	0xbed77e0d	-0.42088357
7	0x3e4658ea	0.19369856
8	0xbdfcb660	-0.12339473
9	0xbea73448	-0.32657075
10	0x3e019c05	0.12657173
11	0x3d4d9f90	0.050201
12	0x3e2df8e5	0.16989477
13	0xbe1c0458	-0.15236032
14	0x3d3854da	0.045002796
15	0x3db0cf45	0.086332835
16	0xbec9c8d1	-0.39411023
17	0xbf2d83bd	-0.6777914
18	0xbeac0798	-0.33599544
19	0xbf163448	-0.58673525
20	0x3c640c34	0.013918925
21	0x3e19ba68	0.15012515
22	0xbd28f718	-0.041251272
23	0xbd26e43e	-0.040745012
24	0x3e3b7dad	0.1830966
25	0x3dff2cea	0.124597386
26	0xbf27b308	-0.65507555
27	0xbd7fa7e1	-0.06241596
28	0xbe0c992c	-0.13730305
29	0x3df92f50	0.12167227
30	0xbb2029db	-0.002443901
31	0xbe763ebd	-0.2404737
32	0x39d81579	0.0004121473
33	0xbe78908b	-0.24273889
34	0xbdb67332	-0.089086905
35	0xbdd89711	-0.10575689
36	0xbdeea11f	-0.11651825
37	0x3daeeac6	0.08540873
38	0x3e333e49	0.17504229
39	0x3e00b7a9	0.12570061
40	0x3dc1bd05	0.09459881
41	0xbe02f4b2	-0.12788656
42	0x3cfbdc90	0.03074482
43	0xbd6dd253	-0.05806191
44	0x3df8e502	0.12153055
45	0x3e4449c2	0.19168761
46	0x3e4931ca	0.196479
47	0xbe15e623	-0.14638571
48	0xbd61e542	-0.055150278
49	0xbd76329e	-0.060106866
50	0x3d1057bb	0.035239916
51	0x3d2a186b	0.041527193
52	0x3df5a4bb	0.119943105
53	0x3e2c082a	0.1679999
54	0x3e3c9b31	0.18418576
55	0x3e4927e5	0.19644125
56	0xbe6ea096	-0.23303446
57	0x3df912ba	0.12161775
58	0x3de5f187	0.11227708
59	0x3e749dd0	0.23888326
