best_parameters.pt (torch, 448984 bytes, 117 tensors)

features.0.weight f4 [70, 31]
000000 b1 b2 5c bc 2f 95 18 bc 2a ea 02 00 08 d8 bc b9
       -0.013470338 -0.009312912 2.67673e-40 -0.0003601911
000010 8d 29 29 36 e9 ac 8c ba 60 38 23 ba d9 5c af b6
       2.5207148e-06 -0.0010732684 -0.0006226357 -5.2262153e-06
000020 b1 0f a2 bb f3 09 60 bb 00 a9 79 ba 69 19 20 ba
       -0.004945718 -0.0034185618 -0.0009523779 -0.0006107302
000030 14 d0 86 ba 35 9e c3 ba 04 a6 e1 ba 66 40 9f ba
       -0.0010285401 -0.0014924469 -0.0017215614 -0.001214993
000040 b8 16 c9 ba f9 f0 63 ba 9c 2a be ba 7e 62 b4 ba
       -0.0015341854 -0.00086952705 -0.0014508548 -0.0013762263
000050 29 af a7 ba ad 93 bb ba df a8 b6 ba 05 43 18 bc
       -0.0012793291 -0.0014310979 -0.0013935826 -0.009293322
000060 ff c2 88 3a b4 2a cf bb 3b a0 fe bb a1 7b 72 bb
       0.001043409 -0.0063222293 -0.007770566 -0.0036999958
000070 ce 5c 05 80 a6 35 a5 ba d6 5e 05 00 57 78 35 3b
       -4.9247e-40 -0.001260449 4.93198e-40 0.0027690136
000080 5d 94 00 bd 8d 60 05 00 a0 10 46 3d 7a 5a 05 00
       -0.03139149 4.93813e-40 0.0483557 4.91634e-40
000090 13 5a 9b 3a bb 45 ea bd 36 4f 1c bd c9 94 11 bf
       0.0011852406 -0.11439081 -0.03816148 -0.56867653
0000a0 2f a3 49 bc 1d 11 56 3f 47 78 5a 3f 78 39 94 3c
       -0.012306972 0.8361986 0.8533978 0.01809381
0000b0 53 6f 43 bc 1d d2 f3 ba 03 a8 89 3d ff f3 24 3d
       -0.011928397 -0.0018602047 0.06721499 0.040271755
0000c0 6d 7d c2 3a c1 70 1f bd 66 58 1d 3d a1 62 3b 3d
       0.0014838405 -0.03892589 0.03841438 0.045748357
0000d0 9a c8 79 3d 0c 34 5a 3d a5 26 11 be c8 3a 9d bc
       0.060982324 0.053272292 -0.14174898 -0.019193068
0000e0 e3 4e fb ba c2 46 89 ba af 10 5a 3d f9 4e 6d 3a
       -0.001917329 -0.0010473358 0.053238567 0.00090526004
0000f0 74 07 31 3d 37 e5 b2 3b a9 17 f0 3b 02 54 dd 3d
       0.04322 0.0054594534 0.0073270393 0.10807039
000100 a3 d2 63 bb fa 64 9e 3e 4f 77 9b ba 26 05 89 bd
       -0.0034763 0.30936414 -0.0011861118 -0.06690435
000110 35 92 44 bd dc 10 85 bc 48 37 14 be 35 03 07 3d
       -0.047990996 -0.01624339 -0.14474213 0.032962043
000120 ec 4b 97 bc c8 01 c4 bc dd a0 da bb 70 f0 0b bd
       -0.01846882 -0.02392663 -0.0066720084 -0.034164846
000130 cb a9 2f bd e3 ac f1 3b 98 44 8b 3c fb 0c 2b bc
       -0.042886537 0.007375346 0.017000481 -0.0104401065
000140 95 d1 e3 bc 6c 35 08 bd 2a 1f e5 3b 80 ed 30 3c
       -0.027809897 -0.033254072 0.0069922404 0.010798812
000150 4b 45 19 bd 9b 66 b9 bc 54 b0 24 bc 82 65 88 bd
       -0.0374196 -0.022631934 -0.0100518055 -0.06659986
000160 b1 07 9d 3b e0 a3 71 bd ac 51 fb bb 29 b3 06 bc
       0.0047921767 -0.058994174 -0.007669648 -0.008221426
000170 2d 12 a7 bb df ea 2e bc 84 04 14 3d 56 91 5b 2c
       -0.0050986023 -0.010676115 0.03613712 3.120245e-12
000180 63 99 cb 3c 0f dc d7 36 a9 e2 db 3b 06 32 45 ba
       0.024853414 6.4331175e-06 0.0067103696 -0.00075224077
000190 2c ee 06 3c 52 73 dd bc 16 68 8f bd 26 7a e8 bd
       0.008235496 -0.027032528 -0.07002275 -0.11351423
0001a0 44 d7 f6 bd 2d 10 d3 bc b4 d4 8c ba a7 58 8b bc
       -0.120527774 -0.02576455 -0.0010744543 -0.017010046
0001b0 19 b2 b6 bb dc 14 e1 bc 0b 4f 83 bc 04 64 84 bc
       -0.00557543 -0.027475767 -0.016028902 -0.016160972
0001c0 90 9a 39 bc 14 86 b3 bc ab c8 b8 bc 86 a3 94 bc
       -0.0113283545 -0.02191452 -0.022556623 -0.01814438
0001d0 ba 6f 4c bc 9b 0b 1b bd 74 23 bb bc f7 7b 67 3d
       -0.01247781 -0.037852865 -0.022844054 0.056514706
0001e0 0a 84 05 bf c2 ca d7 3a 71 47 09 bd 88 54 fa 2c
       -0.521546 0.0016463625 -0.033515397 7.114812e-12
0001f0 63 33 8e ba 5e 46 4b 3a f6 dd 6f 3a ca d5 cb 3d
       -0.0010849055 0.0007754321 0.0009150201 0.099528864
000200 ae 56 27 3a fe 5c f7 3b b2 7c 8f be 2f cd 0e 3d
       0.0006383461 0.0075489273 -0.28024822 0.034863647
000210 14 d1 ec 3f 40 59 89 bd 0d 7d 6b 3e ff 56 47 3e
       1.8501306 -0.06706476 0.22996922 0.1946678
000220 4e 25 b1 bd 49 fe 74 bd 5b 42 54 bd 28 cf 9d bd
       -0.086496934 -0.059812818 -0.051821094 -0.077055275
000230 af 4f 74 bc 9a f2 b4 3b 8b 95 02 bd 5c d1 3e bd
       -0.014911576 0.0055220844 -0.031880897 -0.04658638
000240 78 a0 10 bd 56 cc ee bd 47 bc 64 bd 11 56 bb bb
       -0.035309285 -0.11660068 -0.055843618 -0.005717047
000250 84 c2 99 3b b4 9e bb ba f2 68 ea ba fe d8 dc be
       0.0046923775 -0.0014314265 -0.0017884059 -0.43134302
000260 9b 56 90 bc f1 e4 bf bd 7f 38 00 bb ea 3d b4 b9
       -0.017619422 -0.09369839 -0.0019564924 -0.00034378405
000270 1c e6 c6 bd 49 64 05 80 6a 1d ec bc 7c 5f 05 00
       -0.09711859 -4.95153e-40 -0.02882262 4.93431e-40
000280 48 3b e2 bd 69 21 3f be dc 0a 45 bd 88 da 94 bf
       -0.11046463 -0.18665089 -0.04810606 -1.162919
000290 aa e2 ba 3d 72 1e 03 bf 0c 24 e7 be d7 ce e7 bd
       0.09125264 -0.5121833 -0.4514469 -0.113187484
0002a0 d5 80 22 be 10 81 1a be 82 b9 2e be 50 31 0d be
       -0.15869458 -0.15088296 -0.17062953 -0.13788342
0002b0 c9 6a d7 bd fd 95 a7 bd 08 1b d4 bd 26 11 0f be
       -0.105184145 -0.08182905 -0.10356718 -0.13971385
0002c0 bf 95 fe bd 00 d2 27 be 77 d5 dc bc 32 2e ce bc
       -0.124309056 -0.16388702 -0.026957257 -0.025168512
0002d0 60 cd 03 bb 58 bb f9 37 a4 a8 6f be ff 1e b1 bb
       -0.0020111427 2.9770352e-05 -0.23404175 -0.0054053064
0002e0 67 ab 41 be 85 8e ae 3a 39 ac be bb 79 c6 1d 3d
       -0.18913041 0.0013317621 -0.0058188704 0.038519356
0002f0 3d d6 aa b9 88 ff c7 bc 57 4a d0 bc 3c 19 a0 3d
       -0.00032584547 -0.024413839 -0.025426073 0.07817313
000300 b1 fa 70 3d e2 3b 0f 3d 28 32 d2 bf 8f 98 b9 be
       0.058832828 0.034969218 -1.6421556 -0.36249205
000310 38 0c 3c 3f 14 2f 25 3f 55 24 30 3e 5b d6 15 3e
       0.73456144 0.6452496 0.1720136 0.14632551
000320 89 a5 86 3e 01 1d 1d 3e b1 39 2f 3e a7 3e 92 3e
       0.26298168 0.15343095 0.17111851 0.28563425
000330 fe 92 2b 3e c4 26 fa 3d 39 df 01 3e d7 c2 e2 3d
       0.16755292 0.12214425 0.12682809 0.11072319
000340 4a 9c 0a 3e b1 0e 0b bb c8 3e 6b bc ee 8f 1f bb
       0.13536182 -0.0021218474 -0.01435823 -0.0024347263
000350 5a 4a c1 3b 33 8e 02 3f 4e 26 08 bc fb eb c2 3d
       0.005898756 0.5099823 -0.008309914 0.09517666
000360 a4 0d 19 bb 93 cf a0 3a 6d cd 5e bc 5b bf 94 bb
       -0.0023354078 0.0012268893 -0.013598782 -0.004539413
000370 0e e5 ac 3c 88 ec 50 bb e0 a5 8e bc 81 c3 41 3e
       0.021105316 -0.0031879265 -0.01741308 0.18922235
000380 b8 a5 04 bd ce 8f f4 3f 0a 9c d1 be b4 74 e8 3e
       -0.032384604 1.9106386 -0.4093936 0.45401537
000390 bb be d5 3e 9f f4 d8 3d 82 8a 00 3d b6 85 b0 3d
       0.41747078 0.10593533 0.03138209 0.08619253
0003a0 b8 22 ad 3d 91 62 b9 bc 02 91 90 3d b9 e8 64 3d
       0.08453888 -0.022630008 0.07058908 0.055886004
0003b0 30 70 24 3e 65 29 e7 3d 4b 48 0b 3e 62 85 7a 3d
       0.16058421 0.11287192 0.13601796 0.06116236
0003c0 6a ee 79 bb b6 05 06 3b 08 89 a4 ba a9 d7 ae ba
       -0.003813649 0.0020450181 -0.0012553046 -0.0013339418
0003d0 12 c6 a3 3d 7a 0a c4 3c b3 ff b0 3d b4 d8 43 bc
       0.07996763 0.023930777 0.08642521 -0.0119535215
0003e0 30 d7 46 bc d9 e7 39 b9 24 60 05 80 ae 0e 57 8b
       -0.012136266 -0.00017729345 -4.93666e-40 -4.1418538e-32
0003f0 f9 59 05 80 58 5f 05 00 77 59 05 80 f8 59 05 80
       -4.91454e-40 4.9338e-40 -4.91271e-40 -4.91452e-40

features.0.bias f4 [70]
000000 ab b9 61 ba 13 f9 9a 3d 30 20 86 bb 9b c6 37 bc
       -0.00086107355 0.075670384 -0.0040931925 -0.011216785
000010 f8 66 b5 bb 7a fe b1 bd ae a8 a5 3d be ba a7 3d
       -0.0055359565 -0.08691116 0.08088814 0.08189915
000020 00 5a 05 80 10 bf 9f 3b 74 ef 81 3e 2c da 58 b8
       -4.91463e-40 0.0048750713 0.25378 -5.17016e-05
000030 91 2f ca bb 78 45 c2 3b b2 47 4d 3c fb d4 f4 3d
       -0.006170221 0.0059286915 0.0125293005 0.11954685
000040 72 0e c1 3b 4e a7 6e 3e 23 75 28 bd f5 cf 92 ba
       0.0058916146 0.23306009 -0.041127335 -0.0011200892
000050 02 30 58 00 9e cd 09 3c 24 9a 41 bf 67 79 4f bc
       8.098746e-39 0.008410839 -0.75625825 -0.012663222
000060 f8 a2 8b bd 23 51 87 be 17 96 61 3c 37 63 d8 bb
       -0.06818193 -0.2642909 0.013768694 -0.006603624
000070 f7 7b 9b 3d 5d bf 1d bb f5 0d 54 3c 82 48 75 3c
       0.07592004 -0.002407036 0.012942781 0.0149709005
000080 40 bb 97 3f aa f3 14 3e 19 9c 43 3c 18 4a 9b b7
       1.1854019 0.14546075 0.011939072 -1.8511942e-05
000090 88 83 25 3b 3a 71 c5 bb b5 23 f8 3e 79 2f ae bc
       0.00252554 -0.0060254605 0.48464742 -0.021262871
0000a0 f6 97 1e bd 14 f4 03 3e 46 07 0f 3c da d8 90 bd
       -0.03871914 0.12886077 0.0087297615 -0.07072611
0000b0 8a 4b 2f 3f a1 21 1a bc 3b 20 13 3e 06 6d e3 bb
       0.6847464 -0.009407432 0.14367764 -0.006940487
0000c0 55 0e e4 bb 2f 90 10 bc 50 5a 36 ba 1f 2e 28 bd
       -0.0069597163 -0.008823439 -0.00069562066 -0.04105961
0000d0 d4 61 6a 3c 65 b7 5b bb ee f7 78 bd c7 ca a5 bb
       0.014305551 -0.003352606 -0.06078332 -0.0050595733
0000e0 31 71 f1 3a 35 cb 02 3c b7 8b a6 be 75 bc 85 bf
       0.0018420574 0.007983019 -0.3252847 -1.0448138
0000f0 1b 60 99 ba 1e a8 39 3e 4f 10 38 bb 86 e4 1e bc
       -0.0011701615 0.18130538 -0.0028085893 -0.009698039
000100 ed 1c eb ba 8b 21 2a bf f2 9a ac 3f 2c 4d 71 3b
       -0.0017937698 -0.6645743 1.3484786 0.003681968
000110 e9 20 6d bb c3 e3 01 3c
       -0.0036182946 0.007927838

features.2.weight f4 [70, 70]
000000 5e ea 56 3c a0 3e cc bd f0 96 0a bd 24 83 64 bc
       0.013117401 -0.09972882 -0.03383535 -0.013947282
000010 79 95 bb 3d a5 a5 95 3c 81 ac d3 be 3f 1f 8d 3d
       0.09159369 0.018267462 -0.41342548 0.06890725
000020 37 e9 e9 bb 70 82 ee 3a f0 66 02 be fc 17 70 3b
       -0.007138397 0.0018196832 -0.1273458 0.003663539
000030 18 ce fe bc 29 99 a7 bc 95 ff 9c bd 16 5a 88 3d
       -0.031104133 -0.020458775 -0.07665936 0.066578075
000040 0d 16 88 bd 9a 0e b7 3d 0f 43 93 3c f4 91 3b bd
       -0.06644831 0.08938332 0.017976312 -0.04579349
000050 14 46 92 b8 03 76 b0 bc 35 1e 28 3e f2 ea 58 bb
       -6.9748756e-05 -0.021540647 0.16417773 -0.0033099023
000060 f8 67 c5 3c 01 56 28 3e d2 2f 81 bb 92 5a 84 3d
       0.024097428 0.16439058 -0.003942468 0.064625874
000070 f8 b7 3c 3d 69 e2 3a 3c 2d 40 95 3c 15 dc 1d 3c
       0.046073884 0.011406519 0.018219078 0.009634991
000080 eb 8a 1b 3e ea 7c 35 3e 75 18 8b bc 98 3a 46 bb
       0.15189712 0.17723432 -0.016979435 -0.0030247327
000090 78 f0 b3 bc a6 c0 5b bc f6 9a 0b bf 23 57 23 bb
       -0.02196525 -0.01341263 -0.54533327 -0.0024923764
0000a0 c5 18 c1 3d 10 6c a3 bd e0 1c a6 bd 1c cc 9d 3c
       0.094285525 -0.07979596 -0.08110976 0.019262366
0000b0 3e 29 9d bd ec 6a 5c 3d 3c 6b c0 3a 2e 15 4b 3d
       -0.07673882 0.053812906 0.0014680396 0.049580745
0000c0 73 e4 06 3b 54 4b 48 3d bb 8f b2 bc ff 03 65 bd
       0.0020582944 0.048899963 -0.021797052 -0.055912014
0000d0 7b 0e 44 3d 29 3a a2 3d 23 ff 20 bb 3a a0 81 3d
       0.047865372 0.079212494 -0.0024566136 0.06329389
0000e0 df 6f a3 3c a4 7f 15 3c 65 fa 14 3e 73 e5 46 be
       0.019950805 0.00912467 0.14548643 -0.19423465
0000f0 1d be 39 3d 29 79 1a bd fb 82 d2 bc 22 7f a3 3c
       0.04534732 -0.037713204 -0.025697222 0.019958083
000100 41 52 e6 bb a8 e2 aa 3e 6c a3 aa 3f f1 73 00 3d
       -0.0070288484 0.3337605 1.3331122 0.03136057
000110 72 a0 04 3d 94 bb b7 ba e9 ad 1e bb 60 48 15 be
       0.032379575 -0.0014017695 -0.0024212545 -0.1457839
000120 25 9e e2 3c f8 d1 87 3d 57 bd 4a 3d e1 7c 6a bd
       0.0276633 0.06631845 0.049496975 -0.057248
000130 26 02 60 bb 6e f7 89 3e 5f f1 0d 3b 88 cd 83 3b
       -0.0034180968 0.26946586 0.002165876 0.004022304
000140 7f 94 0c bc a0 7f bb ba 09 c3 ff bc 5b c2 ca 3c
       -0.008580326 -0.0014305003 -0.03122093 0.024750879
000150 9d be e0 bc f1 62 91 3e f8 35 c4 3d a0 08 e1 3d
       -0.027434641 0.283958 0.09580606 0.10987973
000160 6f 8d 99 3d 30 1f 26 bd a5 a6 b4 ae ee 67 6e 3a
       0.074976794 -0.040557086 -8.215054e-11 0.0009094466
000170 b1 36 fe 3c d6 38 f2 3b dd 30 ca 3d d4 4e c9 3c
       0.031031938 0.0073920293 0.09872601 0.024573721
000180 33 70 dd bd 4b c5 c6 3d 3f c9 05 3d a8 79 87 bb
       -0.10812416 0.097055994 0.032662626 -0.0041343756
000190 70 a9 ca bd bb a1 14 3c 63 8b 4c bc 21 61 05 80
       -0.09895599 0.009071763 -0.012484404 -4.94021e-40
0001a0 37 49 c8 3c c0 b4 8f ba c9 80 1a 37 f3 0f 34 3d
       0.024448974 -0.0010963902 9.2091e-06 0.043960523
0001b0 1d cb 8c bf 11 f7 c8 3c f0 ca db bb 52 59 05 80
       -1.0999485 0.024531873 -0.0067075416 -4.9122e-40
0001c0 7c 79 db 3c 1c dd 05 bd ea c2 9e be 63 eb df bc
       0.026791327 -0.03268157 -0.31008083 -0.02733392
0001d0 dd 79 19 bf bb 27 b7 bd 6c 39 35 3b e9 ca 9a 3d
       -0.59951574 -0.08943125 0.0027652634 0.07558233
0001e0 d4 7e 04 bd f6 d8 94 be 97 15 37 3c 4a 7d 42 bd
       -0.032347515 -0.29071778 0.011174581 -0.047482766
0001f0 82 9f c5 ba 4f 3f 51 bd c8 93 4a bb 2f 11 3f bc
       -0.0015077444 -0.051085766 -0.0030910838 -0.011661812
000200 fb 08 8b bd d9 9d 0c bf 00 66 8b bd 78 24 a4 3d
       -0.06788822 -0.54928356 -0.06806564 0.08014768
000210 98 8c 81 3d 05 e5 60 bd 08 e9 8e bc 78 36 24 be
       0.06325644 -0.05490591 -0.017445102 -0.16036403
000220 80 f4 91 be 8a ed b6 be ed 67 8b 3d 95 9f de bd
       -0.2850685 -0.35728103 0.06806932 -0.108702816
000230 af a6 8b bb 9d d2 a1 3e 20 9a 98 3c fa 60 47 bc
       -0.0042618136 0.31605998 0.01862818 -0.012169117
000240 02 30 2c bd 05 77 1b be 52 7d 94 be 8e 6b 40 3d
       -0.04203797 -0.15182121 -0.29001862 0.046977572
000250 cb 80 f1 ba 1e 47 94 bb 82 42 8b 3b 26 6c c3 3b
       -0.0018425224 -0.0045250794 0.0042498717 0.00596382
000260 87 a8 85 bd 56 a4 14 bd 4f a2 9e 3d 63 d8 87 3e
       -0.06526285 -0.036289535 0.07745802 0.26532277
000270 a8 e9 77 3d a8 13 49 3c 37 79 9d bd 80 42 3f 3c
       0.060525566 0.012272753 -0.076891355 0.01167357
000280 9c a3 fc ba d1 13 82 3c fd e7 97 3d ce 46 7b ba
       -0.0019274834 0.01587859 0.07417295 -0.0009585441
000290 dc 59 86 bc 46 2d 7d 3e 88 77 4e be 85 ce 73 3d
       -0.01640027 0.24724302 -0.20162785 0.059523124
0002a0 5c c3 0c 3d 82 29 37 bb d7 30 58 3d b7 9d a1 3b
       0.034365997 -0.0027948325 0.052780952 0.004932131
0002b0 a6 0c 93 3d c6 4b a5 bd f4 c4 e9 3a 93 2c e8 b8
       0.07180147 -0.08071093 0.0017835186 -0.00011070925
0002c0 df 1c 46 3d b3 22 97 bd f1 ed 20 3c fd 53 d2 bc
       0.048367377 -0.07379665 0.009822355 -0.025674814
0002d0 86 b8 52 bd 6d db 1b be 95 23 d0 3d e8 00 06 3c
       -0.051445507 -0.15220423 0.10163037 0.008178927
0002e0 7e b2 c4 3e c3 7a b8 3b 2d d4 ba 3d 27 3b ee bc
       0.3841743 0.0056298687 0.091225006 -0.02908094
0002f0 4d cc 78 3b 87 d8 c7 3d 18 b8 76 3d df 03 c9 bc
       0.003796357 0.09758096 0.06023416 -0.024537979
000300 67 06 d0 ba 76 ed 6d bc e8 31 e7 3a 7e 9e d0 bd
       -0.0015871049 -0.014521947 0.0017638775 -0.1018648
000310 f7 2a 1b 3b 28 e4 24 bd 1e 48 51 3e 71 af ab bb
       0.0023676732 -0.04025665 0.20437667 -0.00523942
000320 11 d4 8c bd 9e ac 49 3d 86 fc d9 3c 8b 8b ac 3c
       -0.06876386 0.049236886 0.02660967 0.021062633
000330 64 60 eb bb 1c e2 ab 3d 8e 2b b3 3f 23 71 03 bd
       -0.0071831215 0.08392736 1.3997667 -0.032090317
000340 63 e8 57 bc 43 38 04 bd d5 d9 fc ba 33 47 0e be
       -0.013177964 -0.032280218 -0.0019290993 -0.13894348
000350 86 b1 13 3e 17 d3 a9 3d 9f e6 46 3b 90 97 e1 bd
       0.14423189 0.08292215 0.0030349863 -0.110152364
000360 5d ec 0a be 83 dc 0f bf e5 c2 2c 3b fc 32 a0 ba
       -0.13566728 -0.5619585 0.0026361283 -0.0012222226
000370 3c 4e 34 be 57 bf 50 3a f1 8b 73 3d 19 4d be bd
       -0.17607969 0.0007963082 0.05945963 -0.09292049
000380 11 48 59 bc 62 d7 90 bd 49 55 e3 3d 47 ea 13 3d
       -0.013261811 -0.07072331 0.11100251 0.036112096
000390 6a 88 a5 bd c5 88 82 3d 72 ed 6b b9 59 b9 80 bd
       -0.080826595 0.06373743 -0.00022499802 -0.06285352
0003a0 c1 d2 81 3e 7e 80 98 bd 9f d1 e8 3a 90 b6 83 3e
       0.25356105 -0.07446383 0.0017762667 0.25725222
0003b0 60 53 f7 3b 5b 33 82 3c 60 64 6f 3d 65 71 1b 3c
       0.007547781 0.015893629 0.058445334 0.009487485
0003c0 2b 81 7e 3d 34 93 03 3d 41 de 55 3f 5f d4 b8 3e
       0.062134903 0.032122806 0.8354226 0.36099526
0003d0 66 c4 26 3e 61 0a cb 3a b7 f3 19 3c b3 ba 57 bd
       0.16285858 0.0015490764 0.009396485 -0.052668285
0003e0 58 7a c1 3e 42 97 01 3b 21 cf 24 3d af 98 94 3e
       0.37788653 0.0019773995 0.040236596 0.29022738
0003f0 f1 f8 ef bc 5b 1c 74 bd ed 3a 3b be d2 5f b7 bd
       -0.02929351 -0.059597354 -0.18284197 -0.08953823

features.2.bias f4 [70]
000000 d3 d3 49 3b 2e 20 e9 3c f8 41 97 bb ac 88 ee bc
       0.0030796423 0.028457727 -0.0046160184 -0.029117905
000010 78 ba f5 bc 18 a8 ca 3c 11 f2 bd 3b 40 b3 d0 bb
       -0.029996142 0.024738356 0.005796679 -0.0063690245
000020 19 51 f8 bc 98 72 54 bc 9f 65 1d bc c4 ab ce ba
       -0.030312108 -0.012966774 -0.009606748 -0.0015767743
000030 ad 44 58 bd 08 62 bc b8 70 c2 d6 bc b8 07 87 bd
       -0.05279987 -8.982798e-05 -0.026215762 -0.06593269
000040 0d 0e f6 3d a0 a7 d5 3d e7 9c 88 be 86 b3 79 bd
       0.12014399 0.104323626 -0.26682207 -0.060962223
000050 c6 86 dc 3b 28 4c 63 ba 60 5a 10 bc 19 06 81 3c
       0.0067299334 -0.0008670711 -0.00881061 0.015749978
000060 28 b1 22 3d 6a 9f d4 bb 65 3b 2b 3c bc 90 6c bc
       0.03971973 -0.00648873 0.0104511725 -0.014438804
000070 36 e8 3b bd 75 cd cb 3a 61 a2 8e 3d 94 eb 91 bc
       -0.04587575 0.0015548902 0.06964565 -0.017812528
000080 7b f6 9f bb f0 88 9f 3d 1c 04 04 ba 84 ce 70 bc
       -0.0048816777 0.07789791 -0.0005036013 -0.014697675
000090 af da a5 bd d3 2a df bd b0 bb 36 bc 13 11 73 3d
       -0.08098351 -0.1089684 -0.011153147 0.059342455
0000a0 04 5f db bc 42 a8 ac 3c 15 a7 e2 bc 9e a3 4d b8
       -0.026778705 0.021076325 -0.027667562 -4.902819e-05
0000b0 6f 58 f4 3c ed 07 c5 be 42 52 e7 3d be 87 d1 bd
       0.029827325 -0.3848261 0.11294986 -0.10230969
0000c0 3c 7f a2 bd a3 e8 12 bc e9 0a 2a bb 00 88 c0 3d
       -0.07934424 -0.008966598 -0.0025946444 0.0940094
0000d0 9c 7b 2e 3d d5 99 c1 3a c1 f4 83 bd 61 6a ae 3a
       0.04259835 0.0014770577 -0.064431675 0.001330685
0000e0 f4 c1 a0 bb 74 17 4f 34 65 be 87 35 64 8d c9 bc
       -0.0049059335 1.928691e-07 1.0113696e-06 -0.024603553
0000f0 18 00 4d 3c 80 c4 58 3b 59 5f 1c 35 50 ba 50 b9
       0.012512229 0.0033076108 5.825328e-07 -0.00019905833
000100 10 1b 89 3d 7a 7c 2b bb 51 fa 0d b5 ee d2 1e bd
       0.06694615 -0.0026166723 -5.289085e-07 -0.038775377
000110 eb 4c ba 38 da 61 39 3d
       8.883498e-05 0.045259334

features.4.weight f4 [70]
000000 3f 69 a9 be d9 75 c0 3e 1c c3 b0 3e 46 21 cd 3e
       -0.3308811 0.3758991 0.34523857 0.40064448
000010 fb e7 b8 3e 42 76 12 3f bf 85 bb 3e 71 87 c6 3e
       0.36114487 0.572117 0.36625478 0.3877521
000020 4d 2c ab be 98 c5 1c bf ee ab a7 3e c3 86 a0 3e
       -0.33432236 -0.61239004 0.3274836 0.31352815
000030 f2 d6 0c 3f 4e 3a ba 3e f3 d3 c7 3e 71 95 be 3e
       0.5501548 0.36372608 0.39028892 0.3722339
000040 92 56 25 3f 94 42 e8 3e b3 75 3e 3f 40 bd cf be
       0.6458522 0.45363295 0.74398345 -0.40574074
000050 71 34 e5 3e 3e 09 a9 3e c4 c1 94 3e c7 9a d9 3e
       0.44766572 0.33014864 0.2905408 0.42500898
000060 19 02 dd 3e bd 9e a7 3e 41 ca a1 3e 38 0b 07 3f
       0.43165663 0.32738295 0.3159962 0.52751493
000070 46 8d 2f 3f 91 e2 9d 3e 4a b9 04 3f 41 c4 16 3f
       0.6857494 0.3083692 0.5184523 0.5889321
000080 ab 03 94 3e 96 45 f4 3e ca 28 90 3e db a3 97 3e
       0.28909048 0.4770934 0.2815612 0.296172
000090 af 3d b3 3e 22 da 35 3f f3 71 af 3e 00 2c d1 3e
       0.35007998 0.7103597 0.34266624 0.40853882
0000a0 0a 16 89 3e 75 ac a3 3e 61 09 8e 3e 5a a9 98 be
       0.26774627 0.31967512 0.2774153 -0.29816705
0000b0 12 8f e8 3e fb 0b 89 3f 9d c2 32 bf 37 7f e6 3e
       0.45421654 1.0706781 -0.69828206 0.45018932
0000c0 7f 31 c8 be 0b b3 b1 3e 1e 79 ae be a4 8a d1 3e
       -0.39100263 0.3470691 -0.3407678 0.40926087
0000d0 92 ac 72 3f 6b df 8b 3e a6 aa 9c 3e b4 96 bd 3e
       0.9479457 0.27318892 0.30598944 0.3702904
0000e0 6a 0e 9c 3e 84 03 8c 3e 65 13 b1 3e 3f 2f a6 3e
       0.30479747 0.27346432 0.3458511 0.3245792
0000f0 6b d5 e3 3e eb 84 92 be 55 80 89 be 29 c4 aa 3e
       0.44498762 -0.28617033 -0.26855722 0.33352783
000100 e2 a3 bc 3e ed ad 9f 3e 2c 63 92 3e 84 e1 d6 3e
       0.36843783 0.31187382 0.28591287 0.4196893
000110 a3 ae c1 3e 13 4b cf be
       0.3782855 -0.40486965

features.4.bias f4 [70]
000000 81 f4 3a be 42 5a 24 3e 1e d1 99 be 1b b5 d6 3c
       -0.18257333 0.16050056 -0.30042356 0.026209405
000010 b4 f7 16 3e ca 73 90 3e 3f 64 bc 3d 33 34 39 3e
       0.14742929 0.2821334 0.09198808 0.18086319
000020 0e c0 d7 3c 3d 04 11 be 88 32 d3 3c 50 ba 86 3d
       0.026336696 -0.14161773 0.025780931 0.06578505
000030 1a dd 7d 3e ec 58 ea 3d a0 00 60 3e e1 bb 00 3e
       0.24791375 0.11442742 0.21875238 0.1257167
000040 da 62 c0 3e 89 e7 21 3e 8c da 02 3f 2d 98 a8 bd
       0.37575418 0.1581098 0.51114726 -0.0823215
000050 5b 9f c1 3d 04 f1 d8 3d 43 8a 7f bc 01 05 52 3e
       0.09454223 0.10592845 -0.015596929 0.20509721
000060 f5 36 53 3e 06 aa 76 3d 59 cb b7 3d 93 51 cd 3d
       0.20626433 0.06022074 0.08974332 0.10025325
000070 00 7e a8 3e 4c 31 2a 3d 9e 5b 98 3e 63 f9 15 3e
       0.3290863 0.04155092 0.29757398 0.14645915
000080 68 ee 98 3d 22 6e 94 3e 38 5a 15 bd 29 2f d5 3d
       0.074673474 0.28990275 -0.036462992 0.10409386
000090 a1 6d ee 3d 17 f5 a1 3e 8a f9 73 3d 7c 9a 0f 3e
       0.11642004 0.316323 0.05956415 0.14023775
0000a0 63 21 89 3d 07 4d fd 3d b3 39 8b 3d e6 07 dc bc
       0.06695821 0.123682074 0.06798115 -0.026859235
0000b0 f2 30 20 3e de b1 e1 3e 20 64 23 be 29 01 3a 3e
       0.15643671 0.44081014 -0.15956163 0.18164505
0000c0 ca fe d5 3c 05 d7 01 3e 1f af 0f be c4 45 32 3e
       0.02612247 0.1267968 -0.14031647 0.17409426
0000d0 c5 36 b3 3e fa 76 01 be c5 e8 e1 3c 7e f7 11 3e
       0.35002723 -0.12643042 0.027576813 0.14254567
0000e0 5c 67 04 be d6 3e 6f bc 45 9b f1 3d 78 c9 e5 3d
       -0.12930053 -0.014602384 0.117971934 0.11220068
0000f0 2e ea 19 3e 13 af 49 3d 77 81 18 bd 3e 7b 35 be
       0.15030739 0.04923923 -0.037232842 -0.17722794
000100 bc 5a 02 3e 64 68 f0 3d 15 04 b0 3c 87 55 1b 3e
       0.12729925 0.11738661 0.021486321 0.15169345
000110 47 87 39 3e 2a 2a 2a be
       0.1811801 -0.16617647

features.4.running_mean f4 [70]
000000 ea ef a9 42 b5 8b 0f 41 56 0e c7 42 89 2f 81 42
       84.96858 8.971608 99.528 64.59284
000010 45 65 11 41 8b 3e 1c 41 05 49 fd 42 1b 23 c1 41
       9.087224 9.765269 126.64262 24.142141
000020 39 44 8d 42 fe f8 8d 40 73 d8 e5 42 b3 0d d1 42
       70.63325 4.4366446 114.92275 104.52676
000030 65 24 51 41 c5 92 be 42 6f ca 61 41 f1 4e 62 41
       13.071385 95.28666 14.111922 14.144273
000040 b6 a2 31 41 50 63 10 41 36 32 ac 41 de d2 1f 40
       11.102224 9.024246 21.524517 2.4972453
000050 41 c6 d0 3f 77 2b a6 41 45 00 f8 42 7a 0a 46 41
       1.6310502 20.771223 124.00053 12.377558
000060 e4 4e 5e 41 ec 9b 9a 3f 05 12 37 40 60 b8 16 40
       13.89426 1.2078834 2.8604748 2.3550034
000070 d0 73 c3 41 7e 23 fb 42 fd 55 8b 41 26 6e 92 40
       24.43155 125.56932 17.416986 4.575946
000080 64 15 f0 42 db 88 96 41 d6 86 f3 42 ef 37 cb 40
       120.04178 18.816824 121.76335 6.350578
000090 fc 14 a6 40 77 6c 68 41 63 b8 cd 3f 64 59 9c 40
       5.1900616 14.526481 1.6071895 4.885912
0000a0 dc 76 2a 41 20 16 1a 41 17 90 bd 40 d4 7a 05 43
       10.654018 9.630402 5.923839 133.4798
0000b0 91 06 1d 41 a0 4a 9b 40 9e e7 88 40 89 cd 1f 41
       9.814103 4.8528595 4.2782736 9.9876795
0000c0 9a 31 20 42 e1 85 cf 40 41 a6 bd 42 b0 d6 13 41
       40.04844 6.4850926 94.824715 9.239914
0000d0 65 2f a8 40 0f 53 e1 42 ab a4 9c 40 ff e5 ec 42
       5.2557855 112.662224 4.895101 118.44921
0000e0 21 5c eb 42 de 6b 0e 43 c1 56 f1 42 cf 91 02 42
       117.67994 142.42136 120.66944 32.64239
0000f0 2d 11 08 41 aa d0 f7 42 af 67 01 43 39 bc e2 42
       8.504193 123.90755 129.40501 113.36762
000100 5f b4 11 41 b2 57 23 41 81 f5 02 43 72 26 5e 41
       9.106536 10.20891 130.959 13.884386
000110 34 b2 cc 41 97 05 8e 41
       25.587013 17.75273

features.4.running_var f4 [70]
000000 b6 25 e1 43 5c a6 14 43 e0 5e dc 43 17 8d 3c 44
       450.29462 148.64984 440.7412 754.2045
000010 38 89 11 43 8f c4 73 43 eb f7 02 44 5a b2 2b 44
       145.53601 243.7678 523.8737 686.78674
000020 f6 95 6a 44 86 77 56 43 dc a6 1c 44 80 c9 13 44
       938.34314 214.46689 626.6072 591.14844
000030 56 00 cc 43 81 3a af 43 91 8b 4f 43 9e 2b 7f 43
       408.00262 350.45706 207.54518 255.17038
000040 4f 6e 62 43 8f 21 6f 43 fc e8 42 44 24 b9 e4 41
       226.4309 239.13109 779.6404 28.5904
000050 c8 e1 17 42 82 14 00 44 6d 7f 93 44 f9 93 95 43
       37.97049 512.32043 1179.982 299.15604
000060 8d 74 ca 43 b1 f5 30 42 29 0f ef 41 29 28 95 42
       404.91055 44.239933 29.882402 74.57844
000070 ea 8a b9 44 0a da 75 44 d0 eb e8 43 65 d0 4b 43
       1484.3411 983.40686 465.8423 203.81404
000080 73 e2 15 44 04 c3 ee 43 2f b6 57 44 6b 07 fb 42
       599.53827 477.52356 862.8466 125.51449
000090 5b f1 83 42 74 02 25 44 7e e9 83 42 6d d6 65 42
       65.9714 660.0383 65.95604 57.4594
0000a0 b6 6f 0e 43 03 91 64 43 1e db 3a 42 28 a1 bf 44
       142.43637 228.56645 46.71398 1533.0361
0000b0 c9 d9 8d 43 fe 98 16 43 d0 b4 09 43 ca 78 7f 43
       283.70145 150.59763 137.7063 255.47183
0000c0 f9 b0 88 43 c8 75 07 43 23 91 e7 43 5b fd 3c 43
       273.3826 135.46008 463.13388 188.98967
0000d0 2b 18 31 43 1d f2 37 44 c1 dc 7a 42 73 b0 0e 44
       177.0944 735.783 62.71558 570.757
0000e0 13 c4 2a 44 6c 35 21 45 0b 56 36 44 ec 08 e8 43
       683.06366 2579.3389 729.3444 464.0697
0000f0 6f 08 3a 43 35 6b 68 44 f2 9f 7d 44 78 24 1c 44
       186.03294 929.6751 1014.49915 624.5698
000100 72 ed 26 43 74 b6 6d 43 fb 9e d1 44 c3 11 eb 43
       166.92752 237.7127 1676.9681 470.13876
000110 bf 4f 45 44 6d e0 d2 43
       789.24603 421.75333

features.6.weight f4 [65, 70]
000000 fe 01 ab bb c8 67 55 3c a9 af 60 3c cf b4 8e bd
       -0.0052187433 0.013025232 0.013713756 -0.0696808
000010 08 05 39 3d 7d 98 2f bc 77 c5 a9 bc 6c 0a 26 3d
       0.045170814 -0.010717508 -0.020724041 0.040537283
000020 1e 73 5f bd c8 57 81 3d 38 58 3e 3d 1c e7 72 3d
       -0.054553144 0.06315571 0.04647085 0.059302434
000030 67 fe 87 bd 08 1d 13 3d cb 50 8c 39 16 85 b5 bb
       -0.0664032 0.03591636 0.00026763076 -0.0055395467
000040 a0 43 09 3b a3 39 2d bb 46 07 03 3b d7 fc 5a 3e
       0.0020944849 -0.002643206 0.001999335 0.21385513
000050 f4 0d ff bd 61 b5 64 3d f5 cd 64 bc 13 fc bf 3d
       -0.12453833 0.05583704 -0.01396512 0.09374251
000060 78 0d 6d bc 0a aa ce bd 21 5c bb 3d c0 97 43 3c
       -0.014468543 -0.10091026 0.091484316 0.0119380355
000070 15 c4 d0 3d 21 c8 06 3d 0d 46 b8 bb db ce bf bd
       0.1019365 0.0329057 -0.005623585 -0.093656264
000080 cc 08 b4 3c 42 98 49 bc 0a d4 c3 ba ae 60 cf 3d
       0.02197685 -0.0123043675 -0.0014940512 0.10125862
000090 b8 0c fe 3b fd 70 be bf ed 10 a4 bd 50 4d 03 3d
       0.007752981 -1.4878231 -0.08011041 0.032056153
0000a0 b6 23 e6 3b a3 42 eb 3d 89 a4 4d 3c d2 cd af 3c
       0.0070233 0.11487319 0.012551435 0.021460447
0000b0 ba 78 05 3d 60 44 a2 be dd f9 e0 bd 9e 9e a2 b9
       0.032585837 -0.3169279 -0.10985158 -0.00031017227
0000c0 1b 62 d0 bc 7c c6 aa 3d 5d 2b d2 bc ed 70 5f bc
       -0.025437405 0.08338639 -0.025655443 -0.013637763
0000d0 19 de 07 bd 59 97 8b 3c 8f 4b 61 bc 41 e8 23 3d
       -0.033170793 0.017039942 -0.013750925 0.040016416
0000e0 40 38 41 3d 7a e8 65 bb 27 48 da bc 25 3e 5b 3c
       0.047172785 -0.0035081194 -0.026645733 0.013381516
0000f0 62 4a a0 bd ae ea b5 3c fd 95 c7 3b cb 7e 09 3d
       -0.078266874 0.02220663 0.006090878 0.033568185
000100 0c 81 7d 3d 86 4b d3 3d b0 fd 34 bc c3 6f d7 3d
       0.061890647 0.10317139 -0.011046812 0.10519364
000110 20 37 76 3d be 6d a2 bd a2 74 0f 3e df 5a 64 bc
       0.060111165 -0.07931088 0.14009336 -0.013937681
000120 6f 6f 8b bb 9e f1 e7 bc 01 e1 00 3e 08 40 87 3c
       -0.0042552273 -0.028313454 0.12585832 0.016510025
000130 1b dc 10 bd 5d 51 ba 3d d7 f8 88 be 31 e4 cd bb
       -0.03536616 0.0909755 -0.2675235 -0.006283306
000140 8d ae db 3e ae ad f7 3e 59 98 4d 3b 4f 6b 5a be
       0.4290661 0.48374695 0.0031371324 -0.21329997
000150 de c1 8a 3c 66 15 7e 3c ea ac a5 3c 53 4b 25 3c
       0.016938146 0.0155080315 0.020224053 0.0100887595
000160 70 5c 99 3b f2 73 ec bd 40 ce 87 bd 7b 69 0a bd
       0.004680209 -0.11545552 -0.06631136 -0.033792
000170 cc 07 2a 3e 6f 15 ab 3d 36 5f c3 b9 be ae 0f be
       0.16604537 0.083536975 -0.00037264236 -0.14031503
000180 19 40 99 3d b1 e7 02 be 91 b8 b4 3c 4f 9f df 3e
       0.07482929 -0.12783696 0.022060664 0.4367623
000190 8d 40 2c 3d 5d 30 47 be 48 b3 e1 3e 7f b5 08 3d
       0.042053748 -0.19452043 0.44082093 0.033376213
0001a0 0a 70 9b bc c9 43 4e 3d 13 d5 f2 bc e5 fc e8 bb
       -0.018974323 0.050357614 -0.029642617 -0.0071102255
0001b0 c2 0d 2d be e8 0b 6f bf 76 54 af 3c e7 12 bb 3d
       -0.1689978 -0.9337754 0.021402579 0.09134465
0001c0 b7 51 19 3c 86 75 e0 bc 64 3b d9 3b 12 1c 90 bb
       0.009357861 -0.02739979 0.0066293944 -0.0043978775
0001d0 16 72 e1 3d 46 a9 84 bb a1 b5 7f 3e f7 ee b6 3d
       0.11008088 -0.0040484993 0.2497163 0.08932298
0001e0 2d b0 c0 bd ef 75 97 3c cc 54 c3 3d 8b 54 45 3b
       -0.09408603 0.018488852 0.09537658 0.0030110206
0001f0 a0 24 27 3b a4 91 96 3d 96 e7 83 bc db 1e ba 3d
       0.0025504008 0.073519975 -0.01610164 0.090879165
000200 bc 7e 81 3d 84 ab 34 be ce ab 2b 3d 0e c4 3d bc
       0.06323001 -0.17643553 0.041911893 -0.011582388
000210 2d a8 0b bc a3 a7 a2 bc ad 3d 94 3d c2 83 77 3d
       -0.008523983 -0.019855326 0.07238326 0.06042839
000220 fa 27 d3 bb 28 c1 ab 3d 5a 28 a3 3d 07 1d d0 bd
       -0.0064439746 0.08386451 0.07966681 -0.101617865
000230 ec e8 4b be bd ed 3c bb d4 3b 31 3d e4 af 0b be
       -0.19913071 -0.0028828226 0.043269947 -0.13641316
000240 fe 0c c3 bd 85 de 90 bc 02 ef 60 be e3 9e fb 3b
       -0.095239624 -0.01768423 -0.21966174 0.007678853
000250 56 19 f3 bc c0 5a 38 3e 7e 50 87 bd d6 ce c0 3d
       -0.029675167 0.18003368 -0.066071495 0.09414451
000260 e6 c3 93 be fd 12 2f be 79 ee 12 bd 97 5b 35 be
       -0.28860396 -0.17097087 -0.035871956 -0.1771072
000270 78 89 2e bc 3b 50 9b 3d e7 89 a1 be 58 de 2a 3c
       -0.010652892 0.07583662 -0.31550524 0.010428987
000280 fd d1 7d bd 68 17 da 3d 46 71 1b be 33 77 f5 bd
       -0.06196784 0.10648996 -0.15179929 -0.11985626
000290 39 cc 1d 3d 79 70 69 bd 09 c0 73 be bd 5c b4 3b
       0.03852484 -0.056992028 -0.23803724 0.0055042193
0002a0 aa e3 04 bf 61 21 8d bc 78 a1 7d 3c 27 7a c1 bc
       -0.5190989 -0.01722783 0.015480392 -0.023617817
0002b0 ad a3 60 bd 57 d5 64 3d b5 c8 a6 bd 72 02 4d 3b
       -0.054843593 0.05586752 -0.081437506 0.0031281975
0002c0 cc 12 d8 bd 31 a1 03 bf c0 bb 96 bd 45 98 fd bc
       -0.1055046 -0.51417834 -0.07360029 -0.030956397
0002d0 85 bb 66 be a0 ee e7 bd ae 47 18 bc 14 ea 14 3e
       -0.2253247 -0.11324811 -0.0092944335 0.14542419
0002e0 99 ea 92 be 46 25 89 3d b2 b6 9e 3d d3 67 1f be
       -0.2869461 0.066965625 0.0774969 -0.1556695
0002f0 0a b2 53 be 39 26 bc 3c bd ae c6 3d 96 41 a2 bb
       -0.20673385 0.022967445 0.097012974 -0.004951666
000300 4c 36 b0 be 30 f8 20 bd 1b 91 7a be 28 c8 9d bd
       -0.34416425 -0.03929919 -0.24469416 -0.077041924
000310 4e 4c 12 bc ac 5b 08 be 89 9a aa be 3c 6a 4d 3e
       -0.008929325 -0.1331622 -0.33321026 0.20060056
000320 38 77 9c 3c 5a 77 cb 3d 3c 2a ef 3d b7 66 f6 bc
       0.019099817 0.09934874 0.116779774 -0.030078275
000330 14 14 b2 bc 78 76 87 bd 55 04 00 be 6f 23 da be
       -0.02173809 -0.06614393 -0.12501653 -0.4260516
000340 f3 fd 08 3d 83 71 5f bd 7c 37 9d bd b6 34 9b 3c
       0.03344531 -0.054551613 -0.076765984 0.018946033
000350 c2 fe 87 3b 7c 34 14 be c1 6d 8f be c7 ee 6e bd
       0.0041502425 -0.14473146 -0.28013423 -0.058333185
000360 ff c4 27 be a3 b1 b9 3d 1c b5 02 3e 51 03 53 bd
       -0.16383742 0.09067085 0.127644 -0.051516835
000370 2f 56 f1 bc 52 b9 f2 bd 37 ee da be 16 ce 47 3e
       -0.02946004 -0.11851753 -0.42759869 0.1951221
000380 e6 8e 25 bc 52 ad c7 bd 0b 2e 43 bd bd 3c 1b 3c
       -0.01010487 -0.09749855 -0.047651332 0.00947493
000390 aa 17 dc bc 74 c4 23 3e 79 82 76 3d a5 cf e7 bd
       -0.026866753 0.1599291 0.060183022 -0.11318902
0003a0 20 38 a7 bd 43 c5 8f be 77 08 de 3c 54 80 a7 3d
       -0.08165002 -0.28080186 0.027103646 0.081787735
0003b0 a9 a2 dd 3d 8c 5d ad bc f1 aa 4b bd ae 78 41 bd
       0.108220406 -0.02116277 -0.04972357 -0.04723423
0003c0 42 31 84 bd bd db 27 bd 3f 70 ac bd 72 55 bf bc
       -0.06454708 -0.040981043 -0.08419847 -0.023356173
0003d0 9f 42 18 bd 7c 8a c1 3d fa 81 52 bd ba 99 0d 3d
       -0.03717291 0.09450242 -0.051393487 0.034570433
0003e0 dd d1 04 3e 5d 1c 4a 3c 38 30 a9 3d 91 64 dd 3d
       0.12970681 0.012335864 0.0826115 0.10810197
0003f0 09 28 71 bd 1d ed a2 3c e6 39 2d 3e b8 00 ce bc
       -0.05887607 0.019888455 0.16916618 -0.025146827

features.6.bias f4 [65]
000000 62 85 c8 bd c8 aa bb bd 3f 65 91 3d ca c8 cb be
       -0.09791066 -0.09163433 0.07099389 -0.39801627
000010 f4 f2 33 be 6c 6e 18 be 82 81 0c bf 56 d7 16 3e
       -0.17573148 -0.14885873 -0.54885113 0.14730582
000020 3d 63 a5 3e 42 0a fb 3d d0 24 3a 3d 1a 1c 51 3e
       0.32302275 0.12257816 0.045445263 0.20420876
000030 f9 76 1d be 78 05 92 be 6b 42 dc 3e 1a 38 7b 3d
       -0.15377416 -0.28519797 0.43019423 0.0613328
000040 60 f5 8e 3a d5 74 18 3e 4a 0f e2 3c 8d ba 39 3e
       0.0010906868 0.14888318 0.027595181 0.1813757
000050 7b eb 58 be e9 d7 59 3e 33 f8 26 bd 3c da 7a bd
       -0.21183579 0.2127377 -0.040764045 -0.06124328
000060 8a 5f 09 be 45 82 58 be e8 dd 6f be 88 1e 25 bf
       -0.13415352 -0.21143444 -0.23424494 -0.6449971
000070 0e 16 e4 be c7 d7 fb bd 71 fa ad 3d 9b 34 89 3a
       -0.44548076 -0.12297016 0.084950335 0.0010467948
000080 ae 19 32 bd 3d b6 4c 3e bd ac e6 bd 9d 8b 86 be
       -0.04348152 0.19991393 -0.11263416 -0.2627839
000090 dc 63 1c bf 70 6f 69 3e b1 ee 83 be ec be 8e 3d
       -0.61089873 0.22796416 -0.25768045 0.06970009
0000a0 49 08 64 3d 70 01 04 3c 77 3d a6 3c c5 08 de be
       0.055671964 0.008056983 0.02029298 -0.43366066
0000b0 35 7d de be 7c e6 a1 3d 59 01 26 3e 00 e6 e2 bc
       -0.434549 0.079052895 0.16211452 -0.027697563
0000c0 6e 6f 46 be b4 9e 4b bd 26 09 2a 3e 33 47 2c be
       -0.19378445 -0.049711898 0.16605052 -0.16824035
0000d0 2b 1a 42 be 0c a5 cf bd f7 70 af be 5a e8 89 be
       -0.18955295 -0.10138902 -0.34265873 -0.26935083
0000e0 22 30 3d be 91 0b 6c 3e 5e 5f 9b 3d 01 d9 18 3e
       -0.18475392 0.23051287 0.07586549 0.1492653
0000f0 59 36 a4 bc 16 92 d2 3d 7e bf 13 3b 84 62 b5 be
       -0.020045446 0.1028177 0.0022544558 -0.35426724
000100 84 20 62 be
       -0.22082716

features.8.weight f4 [60, 65]
000000 87 08 1f 3d c2 5e f9 bc 95 91 b5 3d ad b0 18 3e
       0.03882649 -0.030440692 0.08865658 0.14911146
000010 13 f2 a1 bb 72 7c 60 be 73 cd a7 3d bf 01 80 bd
       -0.0049421876 -0.21922472 0.08193483 -0.06250333
000020 c6 8f a2 3c e6 53 47 be cd f1 dd 3c c7 c2 8c 3d
       0.019843947 -0.19465598 0.027092839 0.06873088
000030 9c 8d be 3e d5 30 8f bd f2 44 6c bd 07 74 5b 3c
       0.37217414 -0.06991736 -0.05768294 0.013394362
000040 99 5b 9c bd c9 be 97 bd 51 8e 36 3c 84 f7 bc bd
       -0.07634658 -0.07409436 0.011142329 -0.09226897
000050 98 36 69 3d fd 66 22 be 75 30 7b bc 3d 2c 9d 3d
       0.05693683 -0.158596 -0.015331377 0.076744534
000060 50 0a 78 3e 14 a5 3c 3c 02 32 e6 3b fa 1d f1 bd
       0.24222684 0.011513967 0.0070250044 -0.11773296
000070 d1 6b 85 3e 05 2c 92 bd e4 d9 3b bd 56 9b 04 be
       0.2605882 -0.07137302 -0.045862094 -0.12949881
000080 ad 6e 1d 3d 59 a9 b0 3d 88 26 3d bd 71 f7 15 3d
       0.038435627 0.086260505 -0.046179324 0.03661293
000090 c3 a0 2d ba 1d 6d 93 bd a9 5b b9 3e 1f bb c9 ba
       -0.00066233816 -0.07198546 0.36202744 -0.001539085
0000a0 ef d8 6e bc 17 00 87 3d 67 9c d5 3d e2 ec 86 bd
       -0.014578088 0.06591814 0.10430222 -0.065881506
0000b0 5e 17 dd 3d 42 53 1c bd 3a 3b f4 bc 22 b0 20 be
       0.107954726 -0.03816534 -0.029813398 -0.1569219
0000c0 3b 17 a2 3d c9 02 89 3d ef 34 44 bd 8a b5 32 bd
       0.07914587 0.06689984 -0.047902044 -0.04363016
0000d0 50 22 31 bd d0 80 b5 3d f7 6f 1f be 3e b4 85 3d
       -0.043245614 0.0886246 -0.15570055 0.06528519
0000e0 5e 62 ab bd 05 81 c8 3d d6 15 57 3d 05 4b 21 be
       -0.083683714 0.097902335 0.05251106 -0.15751274
0000f0 aa dc 93 3d 8b 64 e9 3a 78 f9 96 3d b8 8c a4 bc
       0.07219823 0.0017806453 0.07371801 -0.020086631
000100 de fe ae bb e8 bc f5 3e f6 09 0c 3d 0a 48 ec 3d
       -0.005340441 0.47995687 0.034189187 0.11537178
000110 2b d3 44 be 26 c3 a8 3c aa d6 6b bc de c9 2d 3e
       -0.19221179 0.020600867 -0.014394442 0.16971537
000120 b7 1c 06 be 50 d0 81 3c 4c d6 d1 3d 1d 9d 1d 3d
       -0.13096891 0.015846401 0.10245952 0.038479913
000130 6d de 2f bd d4 93 33 bc 22 68 b0 3d e3 aa 02 3c
       -0.04293673 -0.010960538 0.08613612 0.007975313
000140 0a 8f 22 bd 82 8d 1d 3e 06 c9 b9 bc 1c 9e 02 be
       -0.039687194 0.15386012 -0.022678863 -0.12755626
000150 4b 43 f7 3c dc 17 13 3e 35 4a c4 3d bb dc 96 bd
       0.030183455 0.1436457 0.09584466 -0.0736632
000160 a7 77 52 3e b2 8d a3 bc 8e 92 da 3d e1 b0 92 be
       0.20553456 -0.019965027 0.10672484 -0.28650573
000170 95 50 0e 3d ff 6f a9 be e6 68 1c bd 30 cd 86 bd
       0.034744818 -0.3309326 -0.038185976 -0.06582105
000180 fd a9 5e 3c 61 da eb 3c 45 74 41 be 1f 43 9d be
       0.013590333 0.028790655 -0.1889201 -0.30715272
000190 39 b0 ba 3c a1 7c bc bd 3c 4b 37 bf 8c 24 7c bc
       0.022789108 -0.092034586 -0.71599174 -0.015389573
0001a0 7e f5 f0 3a 50 de 20 3e 86 01 f5 3d b5 05 f3 3d
       0.0018383709 0.15709805 0.11963181 0.11866323
0001b0 83 c0 09 be 11 48 cd bc e2 c3 8e bf 10 32 d5 3d
       -0.13452344 -0.025058778 -1.1153529 0.10409939
0001c0 cd f7 28 be 3a 35 a9 bc cc a1 c0 bc 8a 91 e8 3d
       -0.16500778 -0.020655263 -0.02351465 0.113558844
0001d0 d3 cb ba 3d 61 0d be 3c ed 67 bf be 05 f7 67 3c
       0.09120908 0.023199739 -0.37383977 0.014158015
0001e0 b7 cd c2 bd 90 01 63 be 69 f6 b1 bc 19 91 2f 3e
       -0.09511893 -0.22168565 -0.021723943 0.17145194
0001f0 aa dc 7c be 45 1b 17 3e aa 57 1f be 8e 4a 37 bd
       -0.24693552 0.14756496 -0.15560785 -0.044748835
000200 bc 18 00 3c be 14 9e bd d3 7d 81 bd 5c 9c 53 3d
       0.007818397 -0.077188 -0.06322827 0.051662788
000210 2c ee c3 3b 4c cc 2a be bd cd 0a bf 98 44 78 3d
       0.00597932 -0.16679496 -0.5422018 0.06061229
000220 6d f7 20 bc be cc f3 bc ae 50 81 be b2 1d 2b be
       -0.009824616 -0.029760715 -0.25256866 -0.16710547
000230 da 9e 59 bd e3 9b 3d be eb 8a 4e 3d 91 29 04 3d
       -0.05313001 -0.18516497 0.05042545 0.032266203
000240 31 75 11 be d2 33 3c be 96 a1 8e be 8c e0 84 3d
       -0.14204861 -0.18379143 -0.27857655 0.064881414
000250 39 c1 95 be 4d 1a 09 bf fc c4 5d be 75 c9 73 3d
       -0.2924898 -0.53555757 -0.21657175 0.059518296
000260 3f 0f b1 ba 36 3c 86 bf b3 43 55 3b c4 d2 bd bc
       -0.0013508572 -1.0487125 0.0032541573 -0.02317179
000270 90 65 85 bd 81 5b 2e be 80 3e c6 bb 96 7e 35 bd
       -0.06513512 -0.17027093 -0.006049931 -0.044310175
000280 de 57 cd bd 5b 98 31 be 21 da ac 3d 8e 37 2e be
       -0.10026525 -0.17343275 0.08440042 -0.1701338
000290 92 c6 37 be 1b 96 38 be 33 24 5b be 33 ba 02 3e
       -0.17946842 -0.1802601 -0.21400528 0.12766342
0002a0 73 0e f0 3a 88 c1 e0 bd 1d 9f c6 3e dc c5 c9 3d
       0.0018314853 -0.10974413 0.3879327 0.09852192
0002b0 f0 ca 70 bd 62 f1 da b9 dc bd ec 12 42 77 04 3e
       -0.058787286 -0.00041760044 1.4940498e-27 0.12936118
0002c0 b1 96 56 bd 7b 87 23 3e 81 5f 29 be 89 7a 46 bd
       -0.052389804 0.1596965 -0.16540338 -0.048456702
0002d0 1e fd 23 be d2 18 9e bd a3 75 23 bc 1f 85 f2 3c
       -0.16014525 -0.07719578 -0.009976777 0.029604493
0002e0 52 5a de bc 1b f8 14 bd 60 a4 6e be 46 9e c8 bd
       -0.027142677 -0.036369424 -0.23304892 -0.09795813
0002f0 96 4a 86 be 02 20 a3 3b e4 b0 33 3e 43 36 3c bc
       -0.2622878 0.004978181 0.17547947 -0.011487546
000300 1b 70 8c 3d e1 24 e0 bd 74 00 1b 3e c6 46 9b bd
       0.0685732 -0.10944534 0.15136892 -0.07581858
000310 ed 29 c8 3d 77 bd 20 be d9 fa 09 3d a5 6d 91 bd
       0.09773622 -0.15697275 0.033686493 -0.07100991
000320 be 10 aa 3e bc c7 84 bd ac c2 da bd 1d 01 fa bd
       0.33215898 -0.06483409 -0.10681662 -0.122072436
000330 d1 af 8c bd f7 d7 2a 3e a8 e6 bb 3d 91 a3 f2 bd
       -0.06869472 0.16683947 0.091748536 -0.11847604
000340 fa af 46 bd bd b6 59 bd 32 5c 9a ba 0b d8 41 bd
       -0.048507668 -0.05315279 -0.0011776744 -0.047325175
000350 4a 4c 19 3e 4a 0d 9d 3b 13 d8 cc be 76 b9 32 3e
       0.14970508 0.004792844 -0.40008602 0.1745356
000360 39 e6 93 be e5 bc 1b be 95 74 25 bd 4a f2 a3 be
       -0.28886583 -0.15208776 -0.040394384 -0.3202079
000370 e2 26 6d 3d 1f 1f ae bd 40 35 f7 bd 4c a3 36 be
       0.05789841 -0.0850203 -0.120707035 -0.1783573
000380 b1 b3 ce bd 83 25 b3 3d 8e 20 6e bd 06 03 06 3e
       -0.10092867 0.08747389 -0.058136515 0.13087091
000390 f3 28 cb bc 82 ab 41 be 64 9d 17 be 42 07 10 bd
       -0.0247998 -0.18913081 -0.14806134 -0.03516317
0003a0 99 fe cd bc 49 ac 74 be 88 10 55 3c 5c 45 9a 3c
       -0.025145816 -0.23893847 0.01300443 0.018831901
0003b0 cb 47 55 bd ad f8 1e bc ad b1 7d bd 17 97 42 be
       -0.05207042 -0.009702844 -0.061937023 -0.19002949
0003c0 4e 1e ad bd 79 4d 7e 3c 56 3e a8 bd 11 30 2a 3d
       -0.08453046 0.015521401 -0.08215015 0.041549746
0003d0 f2 8b 12 be a3 0f ab bc a2 21 44 be aa a0 00 bd
       -0.14311197 -0.02088148 -0.19153455 -0.03140322
0003e0 53 74 02 3e fe 8a 18 be 20 63 cc 3c c7 2a f2 3c
       0.12739687 -0.14896771 0.02494961 0.029561413
0003f0 a9 8a 78 3e 73 db 7a bd 39 63 a2 bd 78 db 07 3e
       0.24271645 -0.06124444 -0.079290815 0.13267314

features.8.bias f4 [60]
000000 cc 5f c0 bc c6 e0 1a 3c c4 45 15 3e a5 cd e3 3d
       -0.02348318 0.009453004 0.14577395 0.11123208
000010 38 9c 8f 3c c4 af a7 3c ef 0f de bc c0 9d 10 bd
       0.017530546 0.020469554 -0.027107207 -0.035306692
000020 54 a7 40 bd 32 63 b6 3c ef 3d 4d 3c 2d 7f 21 be
       -0.047034577 0.022264097 0.012526973 -0.1577117
000030 80 35 9f 3d 68 00 08 be 42 d3 bc bd 47 a2 83 3d
       0.07773876 -0.13281405 -0.09219982 0.06427436
000040 94 91 d1 3d 5b f1 64 3e 06 71 e2 bd cc 9a 23 3c
       0.10232845 0.22357695 -0.11056714 0.009985637
000050 f4 a0 87 be 3b f0 e2 3d 87 f3 10 bd aa 16 2f 3d
       -0.26489985 0.110809766 -0.035388496 0.042746224
000060 21 df eb 3d 3b ca 2d 3d 23 03 dc bd 41 e8 0f bd
       0.11517168 0.04242919 -0.10742786 -0.035133604
000070 7b b8 94 3d 89 65 c3 b9 b5 d4 64 3e bd 20 69 bc
       0.07261749 -0.00037268948 0.22346766 -0.014228997
000080 67 0f 00 be a2 9e 1d be 46 75 4a 3d b7 1e 96 be
       -0.12505876 -0.15392545 0.049428247 -0.2932031
000090 e9 9c 0c be 07 15 21 be 08 36 48 be 11 90 9c be
       -0.13731731 -0.15730678 -0.19551861 -0.30578664
0000a0 79 69 b6 bd 6d 43 40 3e 5d d2 2a 3e 3b b9 fb bd
       -0.08906836 0.18775721 0.1668181 -0.12291189
0000b0 7e 9c 25 3d f0 a3 76 be 38 7a 46 3e 65 0a 0f 3d
       0.040432446 -0.24085975 0.1938256 0.034922022
0000c0 c9 5f f0 bd 9b 28 f1 3d b8 e8 5c 3d 40 07 b9 bd
       -0.117370196 0.11775323 0.053932875 -0.09034586
0000d0 4f 06 86 3e 7d 19 14 3d e0 8c 3e 3d ee 04 15 be
       0.26176688 0.03615712 0.046521068 -0.14552662
0000e0 24 22 f9 3c 66 07 bf be 60 14 cb bc 48 89 6b bd
       0.030411787 -0.37310332 -0.024789989 -0.05750397

features.10.weight f4 [60, 60]
000000 6f a5 95 bd 09 0d 3f be 1d 61 05 00 95 e9 9b a3
       -0.073069446 -0.18657316 4.94015e-40 -1.690406e-17
000010 55 6e e5 bd b9 ad 10 be 0c 7f 5f bb 3d 61 05 80
       -0.11202685 -0.1412877 -0.0034102825 -4.9406e-40
000020 25 1e 8a 19 77 5e 05 00 97 17 c8 ba 43 78 70 3d
       1.4281041e-23 4.93065e-40 -0.0015265819 0.05870844
000030 b5 23 92 bd 1d 87 5e 3c 4f 5e 05 80 19 78 2d bc
       -0.07135717 0.013582018 -4.93009e-40 -0.010587716
000040 7f 74 09 3c 16 e1 b8 3a d8 0a 05 3e 3d 6d 79 b9
       0.008389591 0.0014105167 0.12992418 -0.00023787185
000050 79 20 bf 3c 61 ac 94 3d ed 9c 0d 3e 5e 3d 60 bd
       0.023330914 0.07259441 0.13829394 -0.054746024
000060 4b a6 8a ba 97 93 0c 3d 77 5f 05 00 96 74 84 ba
       -0.0010578124 0.03432044 4.93424e-40 -0.0010105546
000070 25 6b 48 3c bb 64 83 3b ef 57 05 80 0f 51 20 bc
       0.0122325765 0.0040098107 -4.90722e-40 -0.009784951
000080 cc 60 05 00 bf 8a 1d bd dc 61 05 00 28 f0 25 3c
       4.93902e-40 -0.038462397 4.94283e-40 0.0101280585
000090 2d eb a8 3b 62 53 63 3d 35 17 79 3c 83 42 43 3e
       0.0051549883 0.055499442 0.015203287 0.19068341
0000a0 66 5d f3 bb 42 55 0b bd 4d 62 05 00 0f cc 9e bc
       -0.0074269054 -0.034016855 4.94441e-40 -0.019384412
0000b0 f5 63 f1 13 a2 72 d8 3d 69 57 05 00 74 fb d2 3d
       6.093552e-27 0.105687395 4.90534e-40 0.10301867
0000c0 28 42 65 3a 58 59 05 00 66 91 b2 ba ea 93 d6 3d
       0.0008745515 4.91228e-40 -0.0013623654 0.10477431
0000d0 3e 0b 38 3b a7 9b d8 bc 96 35 c5 3c e7 ee 43 be
       0.0028082873 -0.026441408 0.024073403 -0.19134103
0000e0 64 60 05 00 46 78 aa 3d 20 8d b9 32 14 39 1b bb
       4.93756e-40 0.083237216 2.160101e-08 -0.0023685144
0000f0 a9 9b 99 be 63 55 b6 be 0a ae 0c bb 07 ac 60 3a
       -0.30001572 -0.3561202 -0.002146604 0.0008570556
000100 75 bd 38 be 4a fa 92 bd d5 8d 79 3b d2 48 28 bd
       -0.18041022 -0.07176645 0.0038078923 -0.04108507
000110 4f e0 91 be 1f 04 8a bd 1a c2 ec 3d 16 34 c8 bd
       -0.28491446 -0.06739067 0.115604594 -0.097755596
000120 3a 58 43 3e 1c 8d ff bd d3 c0 08 3d c6 e2 40 be
       0.19076625 -0.12478086 0.033387017 -0.18836507
000130 08 b4 00 bd 8c f2 81 3d ef f7 b9 bd 0d 6a cc bc
       -0.03142169 0.0634509 -0.09080493 -0.024952913
000140 13 20 af bd ad ef 3a 3d 4e c8 6c 3d f8 db ff 3d
       -0.085510395 0.04563873 0.057808213 0.124931276
000150 63 82 52 bd 6a f4 0f bd 95 43 98 bc 3f e9 ef 3b
       -0.051393878 -0.0351452 -0.018586913 0.0073215063
000160 c0 9e 35 3d 1d 2c a9 bc 56 4b 93 3e e0 ad 88 bb
       0.04434085 -0.020650918 0.28768414 -0.004171118
000170 28 42 67 be 50 b8 76 bd 54 62 91 bd 40 34 2a be
       -0.2258383 -0.060234368 -0.07098833 -0.16621494
000180 6b 36 f3 bd 44 77 e7 bd b9 96 82 be f3 74 5b 3d
       -0.11875614 -0.11302045 -0.25505617 0.05357833
000190 26 c2 30 3e 20 ef d1 bd 4f ef 31 be e2 6d 1b bd
       0.17261562 -0.102506876 -0.17376445 -0.03794659
0001a0 14 6a 9c bd c3 9b 86 3e 97 d5 ff 3c fa ca 05 3e
       -0.0763742 0.26290712 0.031229777 0.1306571
0001b0 6d 3c dd bb 45 23 63 be 94 fd c0 bb 8d ec 62 3c
       -0.006751588 -0.22181423 -0.005889604 0.013850343
0001c0 64 c8 93 3d 1e 04 ca be fe f5 55 bd e5 d6 27 be
       0.07215956 -0.39456266 -0.05223655 -0.1639057
0001d0 a4 e9 59 3c b4 b7 cc bd a9 95 50 bb b8 61 6e be
       0.013300333 -0.09995976 -0.0031827486 -0.23279464
0001e0 01 8f 2a bc 35 0d 68 bd 4e 30 3f be 22 f6 4a be
       -0.010410071 -0.05665322 -0.1867077 -0.19820455
0001f0 73 19 dc 3d c5 a2 08 3e d3 96 38 3b d2 25 67 bd
       0.107470416 0.13343342 0.002816607 -0.056432553
000200 51 f5 9d bc f5 d8 ac 3e 37 4e 03 be 0f 8b f8 bc
       -0.019282015 0.33759275 -0.12822805 -0.030339746
000210 d8 5b 76 3e 06 04 08 3e b0 f5 6d 3e 36 45 60 3e
       0.24058473 0.13282785 0.23238254 0.21901402
000220 8f d4 f7 bd 80 b3 44 be 0a 58 e8 bd e7 7a 01 3d
       -0.12101089 -0.19209099 -0.11344917 0.03161135
000230 52 cf ce bd 3c 75 2c be 54 59 94 be cd af 29 3e
       -0.10098137 -0.16841596 -0.28974402 0.16570969
000240 c7 48 85 3d 17 26 52 3e 10 69 85 3e dd 2e 04 3c
       0.06508022 0.20522343 0.2605672 0.008067814
000250 02 2f b0 bd ef 01 24 bd 99 2f 00 be b4 8b 58 3c
       -0.08602716 -0.040040907 -0.12518157 0.013216902
000260 e9 33 10 3e 6b 8e ef 3c 88 5a 46 3d a3 e0 73 bb
       0.14082302 0.029242715 0.04842618 -0.0037212751
000270 03 4c 3d bb e2 70 50 3d 5e 43 27 bd 70 b4 86 bd
       -0.0028884418 0.050888903 -0.04083573 -0.065773845
000280 40 57 83 3d d0 63 a4 3d ff 32 46 bd 28 0d 04 be
       0.06413126 0.0802685 -0.048388477 -0.12895644
000290 f2 d6 2b be e6 aa 5b bd ad 63 8b bd 79 fe a5 be
       -0.16781214 -0.05362978 -0.06806121 -0.3242071
0002a0 cf 35 73 bd e4 3f 98 3d cb c6 fd 3c e5 53 db bd
       -0.059377488 0.07434061 0.030978581 -0.10709361
0002b0 12 9a 54 3e 12 df 1a 3c 21 1b 21 be 31 05 85 3d
       0.20761898 0.009452598 -0.15733005 0.06495131
0002c0 35 8e 9c 3e 80 03 21 be b6 6d af 3b cb 2b 91 be
       0.30577245 -0.15723991 0.0053536547 -0.28353724
0002d0 a3 40 be 3c 94 66 ac bd c7 4b fe bc d5 dc 94 be
       0.02322418 -0.08418003 -0.031041993 -0.2907473
0002e0 ef 55 ea 3d 1c de d4 bc 5f 9a 6b 3c cf 30 0e bd
       0.11442172 -0.025984816 0.014380067 -0.034714516
0002f0 ae 08 f9 bc dc 5f 8a bc 11 ce 01 bd 78 2f 4d 3d
       -0.030399647 -0.016891412 -0.03169066 0.050094098
000300 1c c3 03 3e 12 41 d9 3d 6b 8b 70 3d a1 04 0c 3e
       0.12867397 0.10608114 0.05872671 0.13673641
000310 ea 55 d9 bd d1 40 9f be 7c 04 3b be 27 ab e6 bd
       -0.1061209 -0.31104138 -0.1826343 -0.112631135
000320 01 cc 80 3d dd 60 9f be ab 34 79 be 54 24 3e 3e
       0.06288911 -0.31128588 -0.24336497 0.18568546
000330 94 ad 0b 3e 30 23 84 3e 29 79 d6 bc 2d f6 ff bd
       0.13640434 0.25808096 -0.02618082 -0.12498126
000340 4c a5 32 3d 68 98 6a bd d0 ec 50 3d 6c ff 4a be
       0.04361467 -0.057274252 0.051007092 -0.19823998
000350 cc ec 4a be ba 47 96 bd 37 cb 99 bd 01 67 e3 3d
       -0.19816893 -0.073378995 -0.07509463 0.11103631
000360 89 bc cb 3d 34 07 82 be 36 d8 5a be 8a 34 d9 3d
       0.099480696 -0.2539612 -0.2137154 0.10605724
000370 b6 c6 8b bd d7 05 a5 3d 7c 4c 04 3c dc da ed 3d
       -0.068250105 0.080577545 0.008074876 0.1161401
000380 ea ce a1 3d 40 6b 28 3d 21 19 98 bc c7 d3 d9 be
       0.07900794 0.041117907 -0.01856667 -0.42544386
000390 e8 56 9e bd 4f cf 73 3d 9f 06 9a 3e 60 1d 77 bd
       -0.0773142 0.059523877 0.30083176 -0.06033075
0003a0 39 45 b7 3d 6d 83 42 bd e0 9f 07 3e 5e 45 8f 3d
       0.0894875 -0.04748862 0.13244581 0.069956526
0003b0 02 c8 c1 bd d2 b6 94 bd a9 33 06 3c ea 43 3f be
       -0.094619766 -0.07261433 0.008191028 -0.18678251
0003c0 5c 1b b0 3b 12 0d 7c 3e 61 dc 2f bc 37 d0 95 bc
       0.0053743552 0.24614361 -0.010733695 -0.018287761
0003d0 d7 8b 84 bd 6d 25 16 bf 0a 43 8b 3a ab b5 31 bd
       -0.06471985 -0.5865086 0.0010624838 -0.043386143
0003e0 3c f5 41 3d 2b 0d a2 bd 86 34 4b bd 5d 05 4b bd
       0.047353014 -0.07912668 -0.049610637 -0.04956566
0003f0 e1 9a b6 3c 03 b3 59 be 3d 77 c9 bb 0e 6c 9d 3d
       0.022290649 -0.21259694 -0.0061482475 0.076866254
