best_parameters.pt (torch, 448984 bytes, 117 tensors)

features.0.weight f4 [70, 31]
-0.0013426724 -0.02867636 0.00093576417 -0.011289638 0.005843007 -0.020871963 -0.026475735 -0.010203297
-0.003451628 0.012981668 -0.012213794 -0.003510966 0.0054835468 0.0286148 -0.04087862 0.010440245
-0.02864844 0.009761013 0.015117652 0.05108836 -0.015553874 0.04950675 0.0005047211 -0.008372702
0.019832596 -0.0061553004 0.029312711 -0.011488246 -0.0015489927 -0.05273421 -0.0020444863 -0.0013097536
-0.018805211 4.91592e-40 0.011838014 4.90641e-40 -0.0004443973 -0.1349949 -0.03012431 -0.5102844
-0.003888561 0.81195575 0.82939714 -0.041285295 0.017002905 -0.008546422 0.053966712 0.018012611
-0.017707188 -0.06989531 0.028131077 0.021846123 0.05035537 0.05022279 -0.170344 -0.0075621237
0.00029265622 -0.0024245612 0.021468228 -0.005602883 -0.043481447 0.0013075686 0.014045732 0.11756241
0.0036979183 0.2844263 -0.0014816588 -0.092969015 -0.05904353 -0.06769058 -0.12763165 0.033422504
-0.03280951 -0.039363302 -0.017293641 -0.0435599 -0.043394666 -0.0007234477 0.027048996 -0.026134314
-0.016367564 -0.04071997 -0.0042327465 0.0054616136 -0.04679045 -0.009929893 0.0065339217 -0.039991967
0.009384641 -0.052692153 -0.0043780757 -0.020208381 -0.0032638118 0.0019824319 0.07642018 0.0015780106
0.020979697 0.0016941017 0.025175072 0.023740275 0.0035611328 0.0068361275 -0.081491895 -0.102203846
-0.11071953 -0.034451682 -0.008274159 -0.0133441575 0.025581488 0.0016804417 -0.022411752 -0.010890882
-0.010264099 -0.017166365 -0.0100269085 -0.012541312 -0.00035666925 -0.031969044 -0.019646037 0.05783112
-0.50896597 -0.0021075788 -0.028765732 0.013587768 0.00052907295 0.0015705446 9.440563e-05 0.06812573
0.0019667926 0.015917838 -0.34434527 0.01666795 1.8281024 -0.075532936 0.20195027 0.17178582
-0.07760409 -0.05406685 -0.05121567 -0.10112208 -0.011133864 0.020993803 -0.0302695 -0.02568316
-0.03288181 -0.111051574 -0.0759491 -0.0001666023 -0.0003221846 -0.0006706147 -0.0021503298 -0.39115617
0.00460167 -0.14065395 -0.003735177 -0.00045422898 -0.107507244 4.91354e-40 -0.043952126 4.91753e-40
-0.13408609 -0.25847587 -0.03949705 -1.106797 0.09189802 -0.5766174 -0.52031285 -0.114718124
-0.1498599 -0.15421095 -0.18217239 -0.14475387 -0.11530159 -0.08529498 -0.11777133 -0.15262724
-0.11449431 -0.17301187 -0.0070067937 -0.00036327654 0.00062182 -0.0030687735 -0.24921693 0.0037903856
-0.24521732 -2.8562406e-05 0.00019492609 0.0259377 0.0030418676 -0.013702325 -0.018182328 0.10786295
0.13437706 0.015599915 -1.6890867 -0.32603046 0.77787876 0.6842769 0.22683495 0.19729492
0.3279673 0.18436137 0.20942706 0.33762425 0.21105178 0.17776321 0.17067054 0.16750823
0.17510046 -0.00060198864 -0.0013186538 -1.0137871e-05 0.0001074757 0.48248932 0.00783314 0.12488956
0.02361201 -0.0002786703 0.024378404 0.006417047 0.016671943 0.021135164 -0.03335138 0.19538555
-0.06625204 1.9594098 -0.42422423 0.4717591 0.43758294 0.104424074 0.047647662 0.101220176
0.0821495 -0.01562602 0.12387325 0.064881206 0.14270549 0.108414695 0.13109998 0.06271569
-4.2454212e-05 -0.00023738269 8.375419e-06 -0.00021391222 0.035928074 0.021165844 0.039341345 0.012991383
-8.4089465e-05 0.019472154 -0.00086603954 0.041130725 -0.0049801706 0.042287055 0.10766241 0.051070455
00000000: 9cfc afba b0ea eabc 124e 753a 2cf8 38bc
00000010: b276 bf3b aefb aabc a4e3 d8bc bb2b 27bc
00000020: b534 62bb 10b1 543c 5d1c 48bc 3c18 66bb
00000030: 53af b33b 9669 ea3c 5770 27bd 900d 2b3c
00000040: 22b0 eabc a8ec 1f3c 07b0 773c 0742 513d
00000050: add5 7ebc 97c7 4a3d 424f 043a a82d 09bc
00000060: f877 a23c 67b2 c9bb 3621 f03c 3239 3cbc
00000070: 9207 cbba d4ff 57bd cafc 05bb 0aac abba
00000080: 630d 9abc 5c5a 0500 3bf4 413c b557 0500
00000090: fffd e8b9 1a3c 0abe 42c7 f6bc 00a2 02bf
000000a0: 3ad7 7ebb 55dc 4f3f 5f53 543f c51a 29bd
000000b0: ad49 8b3c 4b06 0cbc 330c 5d3d 2f8f 933c
000000c0: aa0e 91bc 4625 8fbd 2573 e63c a4f6 b23c
000000d0: 6f41 4e3d 6ab6 4d3d a86e 2ebe b1cb f7bb
000000e0: a76f 9939 63e5 1ebb 23de af3c 6498 b7bb
000000f0: 9a19 32bd b962 ab3a 1220 663c 90c4 f03d
00000100: c658 723b 53a0 913e 3834 c2ba 8a66 bebd
00000110: a1d7 71bd 5ca1 8abd dfb1 02be 09e6 083d
00000120: 4463 06bd 6a3b 21bd 65ab 8dbc de6b 32bd
00000130: 9bbe 31bd c1a5 3dba db95 dd3c a117 d6bc
00000140: 4515 86bc fcc9 26bd dab2 8abb 56f7 b23b
00000150: 58a7 3fbd fdb0 22bc 821a d63b 9ece 23bd
00000160: 0ac2 193c bad3 57bd f675 8fbb 0c8c a5bc
00000170: ade5 55bb b0eb 013b 2f82 9c3d 40d5 ce3a
00000180: 9ddd ab3c 9f0c de3a f43b ce3c f77a c23c
00000190: e561 693b 9801 e03b 39e5 a6bd 4050 d1bd
000001a0: ecc0 e2bd 351d 0dbd 5790 07bc 74a1 5abc
000001b0: 4590 d13c 4442 dc3a da98 b7bc ac6f 32bc
000001c0: c02a 28bc 7aa0 8cbc e747 24bc 137a 4dbc
000001d0: 56ff bab9 f9f1 02bd baf0 a0bc 53e0 6c3d
000001e0: 984b 02bf 4e1f 0abb 1da6 ebbc 3b9f 5e3c
000001f0: 7cb1 0a3a bbda cd3a a3fb c538 8185 8b3d
00000200: 4ee5 003b 2066 823c 064e b0be 3a8b 883c
00000210: 42ff e93f 03b1 9abd 0dcc 4e3e 9fe8 2f3e
00000220: e5ee 9ebd 3475 5dbd 86c7 51bd 1819 cfbd
00000230: cf6a 36bc 32fb ab3c bef7 f7bc 7e65 d2bc
00000240: 14af 06bd 026f e3bd 348b 9bbd f7b1 2eb9
00000250: e3ea a8b9 31cc 2fba 8cec 0cbb 9f45 c8be
00000260: 9bc9 963b 9707 10be dfc9 74bb 9525 eeb9
00000270: c22c dcbd b259 0500 2507 34bd cf5a 0500
00000280: dd4d 09be f356 84be a9c7 21bd 86ab 8dbf
00000290: 0735 bc3d 339d 13bf 3933 05bf 56f1 eabd
000002a0: e074 19be 7ae9 1dbe 668b 3abe 5c3a 14be
000002b0: 3d23 ecbd 22af aebd 1832 f1bd 514a 1cbe
000002c0: fe7b eabd 062a 31be 3f99 e5bb 2776 beb9
000002d0: a201 233a 7a1d 49bb b932 7fbe 1e68 783b
000002e0: 401a 7bbe 4d99 efb7 1365 4c39 4d7b d43c
000002f0: 125a 473b b77f 60bc 1bf3 94bc 40e7 dc3d
00000300: 249a 093e c996 7f3c fe33 d8bf 77ed a6be
00000310: 1023 473f c52c 2f3f 6c47 683e ae07 4a3e
00000320: 54eb a73e 3ac9 3c3e 0c74 563e 16dd ac3e
00000330: f51d 583e 8f07 363e 42c4 2e3e 4787 2b3e
00000340: 894d 333e c6ce 1dba aed6 acba d315 2ab7
00000350: 9464 e138 d708 f73e 9256 003c 19c6 ff3d
00000360: f96d c13c 7f1a 92b9 38b5 c73c 1846 d23b
00000370: 9993 883c a723 ad3c 759b 08bd 2613 483e
00000380: 26af 87bd f1cd fa3f eb33 d9be 698a f13e
00000390: df0a e03e 4adc d53d 322a 433d 864c cf3d
000003a0: ff3d a83d 2402 80bc 42b1 fd3d 70e0 843d
000003b0: 6321 123e 8608 de3d 133f 063e 1571 803d
000003c0: dd10 32b8 eee9 78b9 2784 0c37 a04d 60b9
000003d0: 5129 133d fe63 ad3c 6424 213d cfd9 543c
000003e0: 3059 b0b8 1184 9f3c ee06 63ba b178 283d
000003f0: b330 a3bb 3135 2d3d 1c7e dc3d 412f 513d

features.0.bias f4 [70]
-0.00035767537 0.05787574 -0.010777126 -0.007354709 -0.004736905 -0.10219105 0.1063399 0.08704394
0.001879389 0.008128975 0.2615759 0.0007273403 -0.0053615295 -0.0018658931 0.007897518 0.14397778
-0.0020102113 0.23459317 -0.07411269 -0.0037617146 0.006473745 0.0058685574 -0.7197333 0.0042026066
-0.07472041 -0.23014489 -0.000116307565 -0.002881154 0.057999797 0.0006523324 0.0040205657 -0.004733224
1.1353259 0.12162597 -0.0034656993 -0.0020976628 0.0006304076 -0.0067045083 0.49043104 -0.0046939068
-0.056482375 0.15403597 0.00036828112 -0.0028625852 0.6544084 -0.0030723708 0.17044152 -0.010829683
-0.019714402 -0.010972638 -0.01177059 -0.04575308 0.008987292 -0.006234838 -0.029557247 -0.0025025052
1.8856615e-05 0.0060933526 -0.28748384 -1.0140225 0.0066625657 0.14518316 -0.0016502441 -0.006453172
0.00070857716 -0.7040616 1.3480364 0.011514064 -0.008806076 0.012689036
00000000: 6086 bbb9 1d0f 6d3d 8b92 30bc c5ff f0bb
00000010: 0a38 9bbb 8b49 d1bd bcc8 d93d 1844 b23d
00000020: d555 f63a 642f 053c 47ed 853e fbaa 3e3a
00000030: c5af afbb fc90 f4ba 9764 013c e96e 133e
00000040: c0bd 03bb 3139 703e 65c8 97bd 1987 76bb
00000050: b621 d43b 074d c03b 7140 38bf 05b6 893b
00000060: 0407 99bd 1aab 6bbe 26ea f3b8 bed1 3cbb
00000070: 3291 6d3d 4901 2b3a f3be 833b 2919 9bbb
00000080: 5c52 913f 0917 f93d c920 63bb f178 09bb
00000090: f041 253a 7eb1 dbbb c719 fb3e 58cf 99bb
000000a0: 105a 67bd 9bbb 1d3e db15 c139 369a 3bbb
000000b0: 4f87 273f d459 49bb 3988 2e3e fc6e 31bc
000000c0: 1980 a1bc 94c6 33bc 6fd9 40bc 9567 3bbd
000000d0: 6f3f 133c 9d4d ccbb 0a22 f2bc 1201 24bb
000000e0: 462e 9e37 bfaa c73b 1531 93be 7dcb 81bf
000000f0: a751 da3b e5aa 143e 014d d8ba 2175 d3bb
00000100: cfbf 393a 623d 34bf 758c ac3f 7ca5 3c3c
00000110: 5c47 10bc ade5 4f3c

features.2.weight f4 [70, 70]
0.01961742 -0.043217976 -0.020613983 -0.029525954 0.0910129 0.037239503 -0.44033575 0.067826636
0.0053607933 0.01127194 -0.13035052 -0.037993446 -0.0010457605 -0.022256812 -0.055406436 0.0856446
-0.08670083 0.0876862 0.023582095 -0.07504334 0.015115226 -0.010560793 0.16666733 -0.008508812
0.03818572 0.16778871 0.02030361 0.039349526 0.0055370596 0.0068572974 0.016394278 -0.008042285
0.1334474 0.20458408 -0.009600379 -0.0006589724 -0.03983979 -0.02617864 -0.5760357 0.01809592
0.06067652 -0.09222654 -0.03686194 0.01958831 -0.07394469 0.03937142 0.0059346454 0.01245911
0.02666964 0.033974305 -0.057536088 -0.100651816 0.06128312 0.06539759 0.016885491 0.062296905
0.049085665 -0.0012105346 0.13798082 -0.2123175 0.010211175 -0.02737409 -0.003717027 0.008034928
-0.0029276314 0.31220365 1.2820314 0.021226933 0.0013077325 -0.030270258 0.0016062084 -0.14503768
0.044891443 0.035520706 0.03235471 -0.0067155096 -0.0235399 0.35076636 -0.015836773 -0.003179972
-4.91287e-40 0.0030332296 -0.018330961 0.052721802 -0.0035483877 0.27763015 0.04761736 0.111791335
0.08567387 -0.015897494 0.006584484 0.0034123298 -0.005700398 0.0008431105 0.16122018 0.028742481
-0.10771249 0.12136721 0.034994274 0.05361292 -0.08769429 0.02518635 -0.020510623 -4.94021e-40
0.04011759 -0.0111783175 -4.0650037e-05 0.017567832 -1.1339742 0.06989464 -0.018587286 4.91008e-40
-0.0067330953 -0.040381715 -0.3282612 -0.014905893 -0.5469346 -0.05883718 0.031107461 0.04140591
-0.011382441 -0.25400224 -0.02908002 -0.057212453 -0.035687827 -0.010301601 -0.023948578 -0.013553596
-0.070293926 -0.53199804 -0.058226213 0.081877925 0.016137922 -0.03823195 -0.00032556354 -0.15074857
-0.27161622 -0.36283755 0.020653956 -0.1019483 -0.037213687 0.28026158 0.028211338 -0.016043443
-0.050858453 -0.23115315 -0.35980773 0.027421309 -0.017488051 -0.002471166 0.043515336 0.018029869
-0.07413307 -0.04017657 0.054467816 0.27150387 0.04582998 0.007876879 -0.09552214 0.04940089
0.0031096572 0.04585272 0.08031931 -0.0013476184 -0.013688847 0.24517047 -0.16652717 0.029316438
0.035110913 0.010343318 0.025358407 -0.016664863 0.046502687 -0.12130839 0.010113138 0.011985965
0.029481258 -0.0649634 -0.091828935 -0.040440593 -0.020805469 -0.15317816 0.11192725 0.009582564
0.37555557 0.03454106 0.08399041 -0.03436655 0.00703142 0.03791775 0.052018613 0.007999309
0.010693784 -0.012887027 -0.029188856 -0.092918254 -0.0016167111 -0.03185738 0.20113017 -0.0042600143
-0.09166384 0.049184408 -0.00015884436 0.0686863 0.02785204 0.079023264 1.3842398 -0.031391352
-0.0349912 -0.012019932 -0.007377509 -0.14834818 0.15375972 0.082340226 -0.046433024 -0.23183346
-0.21231885 -0.5872867 -0.02148306 -0.009614749 -0.14241856 -0.019246371 0.08174999 -0.09209928
-0.032550193 -0.08867648 0.11838457 0.03459014 -0.05655957 0.101023965 0.022243898 -0.014947955
0.21738696 -0.04187268 -0.021120885 0.22986397 0.028157204 0.0112814335 0.06986973 0.0331533
0.092486545 0.005936516 0.8224816 0.37168384 0.1642451 -0.021044565 0.031403363 -0.054833896
0.39315405 -0.020721363 0.058237884 0.33070952 -0.040690523 -0.054605965 -0.22114073 -0.052573152
00000000: b6b4 a03c 5505 31bd a8de a8bc 6ae0 f1bc
00000010: f964 ba3d 7388 183d b073 e1be b1e8 8a3d
00000020: 98a9 af3b f1ad 383c 9b7a 05be 049f 1bbd
00000030: e611 89ba eb53 b6bc dcf1 62bd 7066 af3d
00000040: 3490 b1bd d394 b33d 3d2f c13c 53b0 99bd
00000050: daa5 773c 2d07 2dbc d7aa 2a3e 8b68 0bbc
00000060: a168 1c3d ced0 2b3e c253 a63c f82c 213d
00000070: 3970 b53b 2eb3 e03b 4b4d 863c cac3 03bc
00000080: 6fa6 083e 7d7e 513e e84a 1dbc e4be 2cba
00000090: 0c2f 23bd 9674 d6bc 1377 13bf e53d 943c
000000a0: f187 783d 45e1 bcbd 8cfc 16bd aa77 a03c
000000b0: 5070 97bd ed43 213d 6a77 c23b 4b21 4c3c
000000c0: 4a7a da3c a428 0b3d f6aa 6bbd 8a22 cebd
000000d0: 0204 7b3d 2cef 853d 7153 8a3c 0a2b 7f3d
000000e0: 0d0e 493d cdaa 9eba d84a 0d3e c269 59be
000000f0: c64c 273c a13f e0bc 5d99 73bb eea4 033c
00000100: 81dd 3fbb 28d9 9f3e 9b19 a43f 1be4 ad3c
00000110: 3968 ab3a 55f9 f7bc 6987 d23a c284 14be
00000120: 17e0 373d 297e 113d 5f86 043d c70d dcbb
00000130: c0d6 c0bc a697 b33e 1fbc 81bc 1467 50bb
00000140: 8259 0580 26c9 463b d02a 96bc d1f2 573d
00000150: 118c 68bb 8a25 8e3e 6c0a 433d dbf2 e43d
00000160: c875 af3d 763b 82bc a8c2 d73b 65a1 5f3b
00000170: 67ca babb 3004 5d3a e716 253e 5a75 eb3c
00000180: 5e98 dcbd 5f8f f83d 2856 0f3d 3999 5b3d
00000190: 1099 b3bd 9b53 ce3c e505 a8bc 2161 0580
000001a0: 5852 243d 4325 37bc a57f 2ab8 6aea 8f3c
000001b0: 1126 91bf ec24 8f3d 5d44 98bc bb58 0500
000001c0: 4ca1 dcbb 4c67 25bd da11 a8be d937 74bc
000001d0: e803 0cbf 41ff 70bd 13d5 fe3c 3e99 293d
000001e0: 6b7d 3abc 950c 82be 3939 eebc 9b57 6abd
000001f0: 662d 12bd 0cc8 28bc cf2f c4bc e70f 5ebc
00000200: 43f6 8fbd 0631 08bf 9c7e 6ebd 9daf a73d
00000210: ad33 843c 1b99 1cbd 66b0 aab9 d55d 1abe
00000220: 4811 8bbe d8c5 b9be 7c32 a93c 45ca d0bd
00000230: 616d 18bd 727e 8f3e 771b e73c 8a6d 83bc
00000240: f450 50bd 69b3 6cbe b838 b8be a7a2 e03c
00000250: 1a43 8fbc 49f3 21bb 233d 323d 60b3 933c
00000260: 14d3 97bd 3090 24bd a519 5f3d 8e02 8b3e
00000270: 38b8 3b3d 060e 013c 1da1 c3bd 9658 4a3d
00000280: 64cb 4b3b 10d0 3b3d 737e a43d 92a2 b0ba
00000290: 3047 60bc f80d 7b3e 1986 2abe 0729 f03c
000002a0: 76d0 0f3d 0577 293c 6fbc cf3c c084 88bc
000002b0: 9a79 3e3d 8870 f8bd 93b1 253c c860 443c
000002c0: ae82 f13c 880b 85bd cf10 bcbd 09a5 25bd
000002d0: 3b70 aabc bcda 1cbe 1d3a e53d 3000 1d3c
000002e0: d248 c03e ed7a 0d3d 2a03 ac3d f1c3 0cbd
000002f0: d367 e63b a54f 1b3d 7811 553d 890f 033c
00000300: fb34 2f3c 1c24 53bc 781d efbc ed4b bebd
00000310: d3e7 d3ba e27c 02bd 11f5 4d3e 9797 8bbb
00000320: 40ba bbbd 9775 493d 758f 26b9 67ab 8c3d
00000330: f629 e43c f3d6 a13d c52e b13f 3894 00bd
00000340: ef52 0fbd 40ef 44bc 08bf f1bb 96e8 17be
00000350: 3073 1d3e fea1 a83d 8e30 3ebd c065 6dbe
00000360: 1d6a 59be 6c58 16bf 3efd afbc 2e87 1dbc
00000370: 2cd6 11be 91aa 9dbc 8a6c a73d 8c9e bcbd
00000380: 5a53 05bd 049c b5bd 9c73 f23d 64ae 0d3d
00000390: 02ab 67bd a7e5 ce3d d638 b63c 44e8 74bc
000003a0: b09a 5e3e b082 2bbd b505 adbc 7661 6b3e
000003b0: f0a9 e63c c3d5 383c dc17 8f3d c1cb 073d
000003c0: 9669 bd3d 1b87 c23b 278e 523f 584d be3e
000003d0: de2f 283e a765 acbc d0a0 003d 8299 60bd
000003e0: 7d4b c93e d9bf a9bc d98a 6e3d c252 a93e
000003f0: 1bab 26bd 81aa 5fbd b772 62be f256 57bd

features.2.bias f4 [70]
-0.0014746166 0.011056886 -0.0047757737 -0.0420363 -0.009459371 0.02767139 2.3088411e-07 0.0052902354
-0.03215102 -0.013689986 -0.0005134854 -0.0015594076 -0.05547933 -0.0017608262 -0.04822211 -0.02925817
0.11060012 0.07139626 -0.24038339 -0.054761924 -0.00065136945 -0.00062056957 -0.003142458 -0.0024000462
0.029107142 -0.00601802 -0.00090008974 -0.01596773 -0.008102624 0.0002714729 0.06132837 -0.013841449
-0.002141091 0.07906 -0.00021301136 -0.026047623 -0.06618388 -0.095847264 -0.011263831 0.07843387
-0.04377534 0.0026247518 -0.042977348 8.5747615e-08 -0.003302839 -0.36462864 0.096470684 -0.08138445
-0.1176561 -0.01626395 7.689915e-05 0.08734444 0.016313625 0.0003502644 -0.073902585 0.0002514676
-0.0009137002 -5.236405e-05 -1.2872987e-07 -0.063316785 -0.0019316203 -0.0004357371 1.8846636e-07 -0.0014709403
0.052027732 -0.018446762 -0.00018474057 -0.022269098 0.009638971 0.03929743
00000000: ec47 c1ba f127 353c 187e 9cbb 412e 2cbd
00000010: 7afb 1abc 1caf e23c f1e8 7734 b659 ad3b
00000020: cab0 03bd f74b 60bc 6c9b 06ba 0965 ccba
00000030: 4b3e 63bd 86cb e6ba 8c84 45bd d4ae efbc
00000040: 5182 e23d 3438 923d 1027 76be 0a4e 60bd
00000050: aac0 2aba b8ad 22ba b2f1 4dbb 184a 1dbb
00000060: 1a72 ee3c d032 c5bb 00f4 6bba c2ce 82bc
00000070: dec0 04bc 7a54 8e39 7533 7b3d 3fc7 62bc
00000080: 8c51 0cbb 36ea a13d cd5b 5fb9 d361 d5bc
00000090: 6a8b 87bd 924b c4bd ee8b 38bc f0a1 a03d
000000a0: c54d 33bd 0704 2c3b 0409 30bd 4024 b833
000000b0: 7174 58bb 9bb0 babe 6c92 c53d e4ac a6bd
000000c0: aef5 f0bd fa3b 85bc eb44 a138 a4e1 b23d
000000d0: 27a4 853c b1a3 b739 3d5a 97bd 69d7 8339
000000e0: 6285 6fba 78a1 5bb8 ff38 0ab4 3bac 81bd
000000f0: 6c2e fdba a573 e4b9 3d5d 4a34 91cc c0ba
00000100: 081b 553d aa1d 97bc ebb6 41b9 af6d b6bc
00000110: c6ec 1d3c 58f6 203d

features.4.weight f4 [70]
-0.3171875 0.41631952 0.33699068 0.39347464 0.35727394 0.5746953 0.3375291 0.35350275
-0.28947434 -0.6342356 0.27946296 0.28660786 0.5498466 0.31560117 0.3886472 0.37000513
0.67145747 0.4531144 0.739314 -0.43984047 0.43669543 0.30279133 0.24048829 0.43444353
0.4235911 0.36078924 0.37972775 0.5276873 0.6620363 0.27048606 0.5463827 0.58406305
0.26653537 0.48638156 0.25734034 0.30217013 0.3733927 0.70658946 0.3728977 0.4564382
0.2967268 0.3242596 0.31131956 -0.25558683 0.4272292 1.0677269 -0.6706407 0.41294125
-0.37258005 0.3452412 -0.312538 0.42045122 0.9814484 0.24506931 0.3373653 0.3376642
0.30292204 0.24938487 0.3293161 0.29422987 0.44619974 -0.25542745 -0.24794249 0.3267588
0.36151633 0.2998892 0.25379342 0.4174642 0.35053235 -0.40626362
00000000: 6666 a2be d527 d53e 0b8a ac3e 8275 c93e
00000010: 9cec b63e 3b1f 133f 9dd0 ac3e 50fe b43e
00000020: fb35 94be 445d 22bf c515 8f3e 44be 923e
00000030: bfc2 0c3f 7a96 a13e c4fc c63e 5071 bd3e
00000040: a3e4 2b3f 9cfe e73e af43 3d3f c532 e1be
00000050: 8b96 df3e 7707 9b3e 9042 763e 626f de3e
00000060: efe0 d83e 5eb9 b83e ad6b c23e 8416 073f
00000070: 367b 293f 267d 8a3e bddf 0b3f 2885 153f
00000080: 5377 883e 0107 f93e 1dc2 833e 0bb6 9a3e
00000090: 542d bf3e 0ce3 343f 73ec be3e 45b2 e93e
000000a0: 93ec 973e 5b05 a63e 4765 9f3e 47dc 82be
000000b0: c9bd da3e 46ab 883f 1caf 2bbf 096d d33e
000000c0: d0c2 bebe 74c3 b03e fb04 a0be 6245 d73e
000000d0: 3440 7b3f 73f3 7a3e 25bb ac3e 52e2 ac3e
000000e0: 9918 9b3e bf5e 7f3e 1f9c a83e 4ca5 963e
000000f0: 4b74 e43e 63c7 82be a3e4 7dbe ee4c a73e
00000100: ab18 b93e 148b 993e 36f1 813e debd d53e
00000110: fa78 b33e c901 d0be

features.4.bias f4 [70]
-0.14241421 0.21050224 -0.2681653 -0.0034982485 0.16887644 0.30038592 0.08130577 0.19687663
0.01915479 -0.14624888 0.010277417 0.05356527 0.26641628 0.074386075 0.23858272 0.090875156
0.4067462 0.17637065 0.5054967 -0.10631109 0.08962164 0.09948776 0.00032157093 0.22241122
0.21070893 0.05624848 0.13229534 0.10623114 0.32345766 0.025548046 0.343177 0.14897092
0.049858175 0.33498108 0.0131093515 0.10587441 0.103293985 0.31739837 0.059213717 0.18036316
0.10837524 0.14194183 0.09521025 -0.027595902 0.16744559 0.44618943 -0.17722158 0.18305983
0.015676271 0.1361709 -0.13744396 0.19040951 0.3450837 -0.09507571 0.06482815 0.14127333
-0.15823391 -0.0054733763 0.09302541 0.09363389 0.17002259 -0.004358645 -0.03574615 -0.17987853
0.14397824 0.12274908 0.026962038 0.1596954 0.1974223 -0.17220825
00000000: 08d5 11be e68d 573e f64c 89be df42 65bb
00000010: f2ed 2c3e 2fcc 993e a483 a63d 079a 493e
00000020: 82ea 9c3c 44c2 15be 9c62 283c 4267 5b3d
00000030: b767 883e ba57 983d 074f 743e c11c ba3d
00000040: 0a41 d03e 829a 343e 3b68 013f a1b9 d9bd
00000050: 8d8b b73d 3dc0 cb3d 8598 a839 c4bf 633e
00000060: 15c4 573e ce64 663d 6e78 073e b68f d93d
00000070: 3e9c a53e 234a d13c e5b4 af3e d58b 183e
00000080: 1638 4c3d a482 ab3e 9bc8 563c afd4 d83d
00000090: cc8b d33d 0a82 a23e 158a 723d 1fb1 383e
000000a0: d6f3 dd3d 3359 113e 97fd c23d cd10 e2bc
000000b0: db76 2b3e f172 e43e 9379 35be 0974 3b3e
000000c0: 866b 803c 6270 0b3e 1cbe 0cbe b6fa 423e
000000d0: d0ae b03e 0eb7 c2bd 9fc4 843d f5a9 103e
000000e0: 1208 22be 025a b3bb 1b84 be3d 20c3 bf3d
000000f0: 671a 2e3e f7d2 8ebb 8e6a 12bd 1432 38be
00000100: 086f 133e df63 fb3d 7edf dc3c 3187 233e
00000110: 1229 4a3e 5c57 30be

features.4.running_mean f4 [70]
79.14904 9.063279 95.91202 54.970207 9.070396 9.98948 118.96302 21.624418
61.99639 3.878882 101.327576 98.75821 12.815202 87.17969 9.890109 12.404591
11.035837 8.114808 17.613274 2.1430407 1.210823 16.257832 116.60102 10.648957
12.12343 0.868171 1.8312368 2.1486776 16.355375 115.684906 15.331198 3.9116242
109.51383 17.468197 114.40424 5.512001 3.3811526 10.412772 0.9409085 4.651346
9.651963 7.9109364 4.345395 120.7139 9.266013 5.581376 3.8354685 10.509454
31.136787 5.950337 95.01909 7.800605 2.7152138 106.79813 4.0109277 115.08392
105.958244 136.7404 102.19946 24.911278 7.733815 117.36522 115.28725 108.02548
8.76149 6.4046054 120.54521 9.284274 22.660583 13.175332
00000000: 4f4c 9e42 3103 1141 f4d2 bf42 7ee1 5b42
00000010: 5820 1141 e9d4 1f41 11ed ed42 cffe ac41
00000020: 4efc 7742 9a3f 7840 b8a7 ca42 3484 c542
00000030: 110b 4d41 005c ae42 e33d 1e41 3479 4641
00000040: ca92 3041 41d6 0141 fce7 8c41 9427 0940
00000050: 40fc 9a3f 0a10 8241 b933 e942 2162 2a41
00000060: 92f9 4141 7440 5e3f f865 ea3f ef83 0940
00000070: cfd7 8241 ac5e e742 964c 7541 0d58 7a40
00000080: 1507 db42 debe 8b41 f9ce e442 5062 b040
00000090: ce64 5840 b79a 2641 61df 703f d4d7 9440
000000a0: 716e 1a41 6426 fd40 7a0d 8b40 846d f142
000000b0: 9741 1441 a29a b240 5178 7540 b926 2841
000000c0: 2418 f941 2969 be40 c609 be42 8e9e f940
000000d0: 10c6 2d40 a498 d542 8559 8040 f82a e642
000000e0: 9fea d342 8bbd 0843 2066 cc42 4c4a c741
000000f0: 6a7b f740 feba ea42 1293 e642 0c0d d842
00000100: 102f 0c41 87f2 cc40 2617 f142 638c 1441
00000110: e048 b541 29ce 5241

features.4.running_var f4 [70]
286.85544 145.23874 351.7018 433.52533 120.980934 218.50034 236.56795 551.5903
659.0702 170.00125 287.71158 448.01035 352.38138 243.17543 107.137245 179.60313
201.07007 206.29137 520.93536 20.664623 23.228724 313.73453 899.8226 215.32535
316.57748 20.0123 14.498032 60.967457 786.15076 709.8917 376.55542 156.8634
397.62216 409.01144 686.67725 89.1261 34.5426 347.80615 23.289917 54.359295
96.44041 164.12364 24.463974 1016.81604 246.8411 168.94183 115.63261 257.9765
154.12682 110.48383 353.21692 146.80249 63.606834 473.07687 48.5585 315.30246
481.67093 2028.3804 263.14795 236.75815 144.54356 612.9398 779.289 466.4296
134.83295 104.752716 1225.1561 230.09032 610.7897 265.9471
00000000: 7f6d 8f43 1e3d 1143 d5d9 af43 3ec3 d843
00000010: 3df6 f142 1680 5a43 6591 6c43 c7e5 0944
00000020: 7ec4 2444 5200 2a43 15db 8f43 5301 e043
00000030: d130 b043 e92c 7343 4546 d642 679a 3343
00000040: f011 4943 974a 4e43 dd3b 0244 2651 a541
00000050: 6dd4 b941 05de 9c43 a5f4 6044 4a53 5743
00000060: eb49 9e43 3119 a041 f0f7 6741 adde 7342
00000070: a689 4444 1279 3144 1847 bc43 08dd 1c43
00000080: a3cf c643 7781 cc43 58ab 2b44 9040 b242
00000090: 9f2b 0a42 30e7 ad43 c051 ba41 eb6f 5942
000000a0: 7de1 c042 a71f 2443 38b6 c341 3a34 7e44
000000b0: 52d7 7643 1cf1 2843 e543 e742 fefc 8043
000000c0: 7720 1a43 b9f7 dc42 c49b b043 70cd 1243
000000d0: 666d 7e42 d789 ec43 e73b 4242 b7a6 9d43
000000e0: e1d5 f043 2c8c fd44 f092 8343 16c2 6c43
000000f0: 278b 1043 263c 1944 7fd2 4244 fd36 e943
00000100: 3cd5 0643 6481 d142 ff24 9944 1f17 6643
00000110: 8ab2 1844 3bf9 8443

features.6.weight f4 [65, 70]
-0.0023928096 0.011772431 0.013711229 -0.0861741 0.036462832 -0.012336141 -0.012450516 0.05104783
-0.052369867 0.03502809 0.05869109 0.04248429 -0.09559757 0.02950274 -0.0021816767 -0.0067633404
-0.005720114 -0.0046640695 -0.0042955945 0.2633716 -0.13579097 0.030825589 -0.0116628595 0.07051486
-0.016329948 -0.14335234 0.0793172 -0.02369138 0.09301345 0.041704405 -0.011280723 -0.1117019
0.047759343 -0.008468556 -0.00914151 0.10160685 0.01900746 -1.4097826 -0.013932545 0.033595335
-0.0005993662 0.11495717 0.020102197 0.015125198 0.029432986 -0.39038756 -0.06397811 -0.008450659
-0.047747325 0.08092068 -0.042083252 -0.006364621 -0.029962955 0.024373673 0.015401742 0.058609284
0.04768237 -0.012963413 -0.010577449 0.03137063 -0.049103215 0.01742206 0.0062739165 0.03659707
0.060209636 0.10793094 -0.019920068 0.041363046 0.05124779 -0.065904826 0.11214291 0.0010402501
-0.007164578 -0.035238538 0.09037538 0.019258868 -0.017677994 0.08883594 -0.26148266 0.025490293
0.41558793 0.4503229 0.009010451 -0.18125439 0.004716855 0.0076395446 0.0050244783 0.009920164
0.0070998496 -0.11145859 -0.09063952 -0.049474247 0.12348372 0.06091776 0.007865628 -0.16009852
0.0911985 -0.10672689 0.020875923 0.42627734 0.020909732 -0.16782273 0.4361451 0.024904013
-0.021511083 0.06899965 -0.021782456 0.013663752 -0.15740702 -1.0731066 0.024935521 0.09873934
-0.014640415 0.009332442 0.013928329 0.012271546 0.14031252 0.036107197 0.24410613 0.08611666
-0.054607794 0.007425347 0.078590974 -0.010689462 0.0045789294 0.053303238 -0.020742688 0.037301477
0.056996107 -0.15293412 0.011791091 0.010095689 0.013571182 -0.011215093 0.03286814 0.072960325
-0.018025259 0.073691875 0.08683905 -0.05054093 -0.21332307 -0.0075640716 0.022014095 -0.12683487
-0.04516519 -0.0059471545 -0.1762788 0.017085062 -0.07550093 0.14544176 -0.077175856 0.087838165
-0.26539567 -0.15871646 -0.01826489 -0.17530334 -0.011018488 0.08584526 -0.24212168 0.0149472095
-0.09107855 0.09839976 -0.12302572 -0.161226 0.047382385 -0.03765032 -0.21460521 -0.024424274
-0.4928281 -0.00054924743 0.004386351 -0.031879365 -0.050887648 0.051970616 -0.07499686 0.0052742627
-0.067928866 -0.55413055 -0.051511347 -0.005568533 -0.25797552 -0.084840335 0.00351092 0.12040958
-0.26672605 0.04844902 0.08830956 -0.106106415 -0.24755491 0.010439874 0.068615966 -0.023111558
-0.29230314 -0.024808431 -0.22452332 -0.09222807 -0.01997463 -0.09921718 -0.27032012 0.20137656
-0.006999962 0.09290664 0.107242174 -0.026370907 0.009898216 -0.038689937 -0.10801925 -0.4342645
0.023128938 -0.06222194 -0.07704161 0.01872039 0.012981607 -0.12596466 -0.27746704 -0.067581005
-0.1868072 0.09574899 0.106292956 -0.02387583 -0.014517744 -0.117797956 -0.45767787 0.24866988
0.005190272 -0.10370675 -0.040419668 0.024276705 -0.05328187 0.15799275 0.039288048 -0.15684398
-0.07871348 -0.30248386 0.029636541 0.08394521 0.07120143 -0.01749063 -0.023507044 -0.06886794
-0.044460475 -0.018915327 -0.115559235 -0.018770574 -0.03463332 0.1008128 -0.040450934 0.046857588
0.08885549 0.017800814 0.0874799 0.1089864 -0.026689755 0.033690706 0.13099572 -0.039239943
00000000: afd0 1cbb 28e1 403c 10a5 603c 0c7c b0bd
00000010: 0d5a 153d 871d 4abc 40fd 4bbc 8817 513d
00000020: c981 56bd 9d79 0f3d 1266 703d 0204 2e3d
00000030: a9c8 c3bd bbaf f13c 76fa 0ebb 039f ddbb
00000040: cb6f bbbb 0dd5 98bb 0fc2 8cbb a4d8 863e
00000050: ca0c 0bbe f285 fc3c 9415 3fbc 186a 903d
00000060: 62c6 85bc f5ca 12be 0e71 a23d 6d14 c2bc
00000070: d67d be3d 3dd2 2a3d c8d2 38bc f7c3 e4bd
00000080: 4d9f 433d b3bf 0abc 46c6 15bc 4117 d03d
00000090: 88b5 9b3c c273 b4bf 5445 64bc 439b 093d
000000a0: c91e 1dba aa6e eb3d 5dad a43c aecf 773c
000000b0: 721d f13c e1e0 c7be f506 83bd a274 0abc
000000c0: b392 43bd beb9 a53d 7d5f 2cbd 508e d0bb
000000d0: df74 f5bc 4cab c73c 9757 7c3c 4a10 703d
000000e0: 974e 433d 7f64 54bc 094d 2dbc 7d7e 003d
000000f0: 7420 49bd b5b8 8e3c 6d95 cd3b cfe6 153d
00000100: 619e 763d e60a dd3d 692f a3bc 4c6c 293d
00000110: 34e9 513d 1cf9 86bd 2fab e53d 0059 883a
00000120: d6c4 eabb 4956 10bd ba16 b93d c6c4 9d3c
00000130: 71d1 90bc 9eef b53d 0ee1 85be 05d1 d03c
00000140: f1c7 d43e b990 e63e 92a0 133c c09a 39be
00000150: d98f 9a3b 2555 fa3b 61a4 a43b 2f88 223c
00000160: dba5 e83b 6744 e4bd 36a1 b9bd 82a5 4abd
00000170: 08e5 fc3d e784 793d d6de 003c def0 23be
00000180: 47c6 ba3d a193 dabd fc03 ab3c 0641 da3e
00000190: e34a ab3c b9d9 2bbe 694e df3e 8003 cc3c
000001a0: 0338 b0bc b04f 8d3d 1f71 b2bc eedd 5f3c
000001b0: 4e2f 21be 8f5b 89bf 9445 cc3c da37 ca3d
000001c0: 5ade 6fbc 19e7 183c a533 643c 980e 493c
000001d0: 16ae 0f3e 24e5 133d f5f6 793e ee5d b03d
000001e0: 6cac 5fbd 5350 f33b 4ef4 a03d da22 2fbc
000001f0: d80a 963b 7f54 5a3d 92ec a9bc 6fc9 183d
00000200: c074 693d c39a 1cbe 6c2f 413c 6468 253c
00000210: aa59 5e3c 82bf 37bc bea0 063d 396c 953d
00000220: b5a9 93bc c4eb 963d acd8 b13d 0204 4fbd
00000230: 5d71 5abe 08dc f7bb e756 b43c 00e1 01be
00000240: 22ff 38bd 59e0 c2bb 6e82 34be f9f5 8b3c
00000250: 3ba0 9abd afee 143e 600e 9ebd 7fe4 b33d
00000260: f1e1 87be 9186 22be 40a0 95bc b882 33be
00000270: e386 34bc a4cf af3d bfee 77be 24e5 743c
00000280: 6487 babd d085 c93d e9f4 fbbd 6e18 25be
00000290: 0814 423d 3937 1abd 78c1 5bbe 6a15 c8bc
000002a0: f753 fcbe 5ffb 0fba 61bb 8f3b f093 02bd
000002b0: 916f 50bd 24df 543d f497 99bd b9d3 ac3b
000002c0: 4a1e 8bbd 80db 0dbf 90fd 52bd 3e78 b6bb
000002d0: 5e15 84be c5c0 adbd 7717 663b 4c99 f63d
000002e0: 5190 88be 7b72 463d a5db b43d 524e d9bd
000002f0: 097f 7dbe 010c 2b3c 8786 8c3d 7354 bdbc
00000300: c2a8 95be 0d3b cbbc 71e9 65be 12e2 bcbd
00000310: d6a1 a3bc 6032 cbbd 6667 8abe a835 4e3e
00000320: f05f e5bb d645 be3d c9a1 db3d cd07 d8bc
00000330: 212c 223c 5779 1ebd 3239 ddbd eb57 debe
00000340: e678 bd3c 6fdc 7ebd fec7 9dbd 815b 993c
00000350: ceb0 543c e1fc 00be 2910 8ebe e967 8abd
00000360: 634a 3fbe 0c18 c43d 1fb0 d93d 3f97 c3bc
00000370: d5db 6dbc 0e40 f1bd c154 eabe 51a3 7e3e
00000380: 2813 aa3b 3464 d4bd 188f 25bd f1df c63c
00000390: 173e 5abd dac8 213e 81ec 203d b59b 20be
000003a0: 8834 a1bd 2adf 9abe 55c8 f23c 77eb ab3d
000003b0: 0ed2 913d 8248 8fbc d891 c0bc a20a 8dbd
000003c0: 301c 36bd 51f4 9abc 52aa ecbd bfc4 99bc
000003d0: abdb 0dbd f176 ce3d e1af 25bd beed 3f3d
000003e0: def9 b53d 03d3 913c a928 b33d 4334 df3d
000003f0: 79a4 dabc 44ff 093d be23 063e 10ba 20bd

features.6.bias f4 [65]
-0.08799769 -0.07717793 0.08700779 -0.38477457 -0.1805486 -0.13182259 -0.49162516 0.13809125
0.30827984 0.13404293 0.044642333 0.15171607 -0.14674966 -0.26706198 0.44099933 0.086321734
0.028856361 0.16840063 0.06003698 0.19043253 -0.2027056 0.20404814 -0.018696878 -0.04825517
-0.120256394 -0.20910135 -0.21100399 -0.63077 -0.43797874 -0.11230717 0.11443533 0.026185824
-0.003906384 0.2105111 -0.103384525 -0.22950405 -0.5852547 0.24058233 -0.2508522 0.0875799
0.061028417 0.01677469 0.014814483 -0.34678784 -0.42623994 0.09231107 0.1692725 -0.012386866
-0.18938167 -0.036954686 0.16280156 -0.15954173 -0.19767974 -0.1247671 -0.394261 -0.27385354
-0.16698368 0.23567472 0.086480305 0.13203083 0.008998704 0.12337879 -0.029206242 -0.29237974
-0.22343096
00000000: 2238 b4bd 760f 9ebd 2431 b23d 2c01 c5be
00000010: bbe1 38be 80fc 06be 4bb6 fbbe cb67 0d3e
00000020: dbd6 9d3e 8d42 093e e1da 363d 755b 1b3e
00000030: 8b45 16be 59bc 88be aaca e13e 73c9 b03d
00000040: 2d64 ec3c 3771 2c3e 56e9 753d bf00 433e
00000050: 0f92 4fbe fff1 503e 322a 99bc 37a7 45bd
00000060: fc48 f6bd aa1e 56be 6e11 58be 257a 21bf
00000070: c03e e0be 4d01 e6bd 125d ea3d a783 d63c
00000080: 2001 80bb 3990 573e 44bb d3bd 1c03 6bbe
00000090: 41d3 15bf 375b 763e b36f 80be 175d b33d
000000a0: eff8 793d 136b 893c 72b8 723c 2d8e b1be
000000b0: 1f3c dabe 960d bd3d c555 2d3e 48f2 4abc
000000c0: 45ed 41be cc5d 17bd 74b5 263e e85e 23be
000000d0: 8f6c 4abe e585 ffbd 94dc c9be 8836 8cbe
000000e0: c5fd 2abe b754 713e 961c b13d 1733 073e
000000f0: 4d6f 133c 05ae fc3d ee41 efbc ccb2 95be
00000100: 16cb 64be

features.8.weight f4 [60, 65]
0.02215358 -0.022949344 0.1138 0.14293323 0.0060970276 -0.23868068 0.09640077 -0.032957993
-0.007843809 -0.16463903 0.044892624 0.09081452 0.3145853 -0.100092195 -0.07014558 0.020295734
-0.08652887 -0.018091723 0.020102875 -0.09318911 0.013487514 -0.22047353 -0.009004972 0.045379605
0.16434662 0.005534836 0.007554637 -0.15582709 0.27357933 -0.06868775 -0.0002954025 -0.11066896
0.017990384 0.084864594 -0.038892798 0.03294513 -0.007785057 -0.18245892 0.3455811 -0.017690146
-0.114599004 0.055617407 0.096523516 -0.09667415 0.11765792 -0.01999509 -0.03723686 -0.14458786
0.065606356 0.063599706 -0.02694504 -0.014693087 -0.048795033 0.07201886 -0.12073768 0.07049363
-0.07310859 0.09911181 0.050021004 -0.16741858 0.14145675 0.071458876 0.04964048 -0.017399114
0.019881438 0.5450653 0.05618036 0.0804251 -0.1671211 0.006301895 -0.015866876 0.18236564
-0.113986745 0.022790128 0.12132441 0.031262603 -0.046477564 0.03706825 0.02830211 0.016166879
-0.036407933 0.1357283 -0.027212443 -0.09047387 0.016728567 0.11633344 0.09144787 -0.08389322
0.17719887 -0.03408 0.07457492 -0.25143737 0.041052178 -0.31400526 -0.049207777 -0.046379108
0.008483155 -0.0011565936 -0.18293346 -0.23927437 0.022760032 -0.0817597 -0.72249985 -0.053363353
0.03636182 0.14926614 0.11251503 0.11221898 -0.12622194 -0.03347257 -1.1275207 0.075753495
-0.1491221 -0.041920986 0.009104848 0.10114458 0.102783605 0.018580612 -0.39648312 -0.016195334
-0.08227344 -0.21110052 0.008925691 0.16394717 -0.20415747 0.10589662 -0.12437652 -0.028039007
0.0016237745 -0.06252338 -0.06459751 0.03751297 0.020561092 -0.13407855 -0.5312751 0.026110116
-0.009411291 -0.04156791 -0.31171817 -0.13251422 -0.037857056 -0.18709421 0.08097012 0.03192345
-0.10319751 -0.09991222 -0.22687867 0.05573613 -0.27450338 -0.5181325 -0.23082353 0.051753428
0.019126771 -1.1021057 -0.0029488602 -0.007986609 -0.043946438 -0.11052666 -1.6677631e-10 -0.045540664
-0.09851505 -0.2345266 0.07888571 -0.20942909 -0.17668177 -0.17841758 -0.16821612 0.08681156
-0.029117653 -0.13087761 0.3728068 0.106251836 -0.08951286 5.488492e-05 4.90886e-40 0.11444907
-0.03951445 0.17475833 -0.16600038 -0.00972618 -0.15408221 -0.052395944 -0.009390164 -0.049751703
-0.06365867 -0.03760029 -0.2714056 -0.11212321 -0.23595655 -0.0041447603 0.17118418 -0.017537475
0.080826215 -0.122194305 0.13964742 -0.06528324 0.105914675 -0.12753835 0.063035615 -0.05938343
0.314891 -0.024366785 -0.11332862 -0.11830395 -0.058242545 0.1749249 0.10834471 -0.09564806
-0.048428703 -0.06330767 -0.006199506 -0.020227795 0.124627955 0.0098006725 -0.439648 0.1599077
-0.2556969 -0.13601367 -0.053067844 -0.3391712 0.056838065 -0.07021473 -0.119581625 -0.22057803
-0.103180155 0.092183284 -0.04210038 0.11153194 -0.032785904 -0.16330037 -0.13771613 -0.029529134
0.02386981 -0.1840404 0.084968895 -0.001510026 -0.074514404 -0.026934132 -0.00498159 -0.13550772
-0.06366079 -0.0046772296 -0.0051640267 0.043376427 -0.13597828 -0.029917434 -0.20658928 -0.025696017
0.13870965 -0.117139004 0.026837464 0.06061938 0.25541383 -0.07713163 -0.048497878 0.123670205
00000000: 6d7b b53c 4300 bcbc f90f e93d 175d 123e
00000010: 93c9 c73b b568 74be c46d c53d f6fe 06bd
00000020: 5283 00bc 2297 28be 54e1 373d f7fc b93d
00000030: 5311 a13e 23fd ccbd 7ca8 8fbd 3d43 a63c
00000040: 0c36 b1bd 1835 94bc c9ae a43c efd9 bebd
00000050: bcfa 5c3c d0c3 61be 9789 13bc f7df 393d
00000060: 7b4a 283e 925d b53b e38c f73b 2391 1fbe
00000070: 9712 8c3e 2aac 8cbd 41e0 9ab9 68a6 e2bd
00000080: 9260 933c 7dcd ad3d 0e4e 1fbd 79f1 063d
00000090: cb19 ffbb 83d6 3abe 02f0 b03e edea 90bc
000000a0: e2b2 eabd 14cf 633d 1fae c53d 19fd c5bd
000000b0: a3f6 f03d becc a3bc ad85 18bd d70e 14be
000000c0: a05c 863d 9040 823d d8bb dcbc 46bb 70bc
000000d0: 4ddd 47bd a07e 933d 5145 f7bd f75e 903d
000000e0: f5b9 95bd 22fb ca3d d3e2 4c3d c76f 2bbe
000000f0: 0ada 103e 0859 923d d153 4b3d 9688 8ebc
00000100: 66de a23c 6689 0b3f 611d 663d eab5 a43d
00000110: cb21 2bbe 2080 ce3b 40fb 81bc 0fbe 3a3e
00000120: e271 e9bd 5db2 ba3c ef78 f83d 370d 003d
00000130: 425f 3ebd e1d4 173d d4d9 e73c 6770 843c
00000140: 7c20 15bd 5cfc 0a3e a1ec debc 5d4a b9bd
00000150: 590a 893c 3a40 ee3d 0549 bb3d 35d0 abbd
00000160: 9f73 353e 7897 0bbd bcba 983d 66bc 80be
00000170: 5426 283d 4cc5 a0be 188e 49bd 05f8 3dbd
00000180: eefc 0a3c d798 97ba e952 3bbe 5704 75be
00000190: 3f73 ba3c a171 a7bd c0f5 38bf 8893 5abd
000001a0: 22f0 143d 39d9 183e 486e e63d 11d3 e53d
000001b0: 5340 01be 891a 09bd 9952 90bf a624 9b3d
000001c0: 77b3 18be 57b5 2bbd 802c 153c e424 cf3d
000001d0: 3680 d23d 5e36 983c d6ff cabe 14ac 84bc
000001e0: fa7e a8bd bc2a 58be 103d 123c c4e1 273e
000001f0: a80e 51be 54e0 d83d 1eb9 febd 0fb2 e5bc
00000200: d5d4 d43a 420c 80bd b34b 84bd 33a7 193d
00000210: bc6f a83c e34b 09be a501 08bf e2e4 d53c
00000220: d131 1abc 1d43 2abd 8699 9fbe cfb1 07be
00000230: 0010 1bbd a095 3fbe aad3 a53d 2ac2 023d
00000240: 3759 d3bd c79e ccbd e252 68be 914b 643d
00000250: b58b 8cbe 55a4 04bf 015d 6cbe 67fb 533d
00000260: bfaf 9c3c cd11 8dbf aa41 41bb 44da 02bc
00000270: 2e01 34bd cd5b e2bd 5c5f 37af d988 3abd
00000280: 42c2 c9bd be27 70be d58e a13d 9474 56be
00000290: 11ec 34be 19b3 36be d940 2cbe 42ca b13d
000002a0: 2588 eebc c804 06be 88e0 be3e 909a d93d
000002b0: 8552 b7bd 3c34 6638 6458 0500 4664 ea3d
000002c0: e7d9 21bd d9f3 323e 01fc 29be 8e5a 1fbc
000002d0: bac7 1dbe 219d 56bd 34d9 19bc 71c8 4bbd
000002e0: 7a5f 82bd c302 1abd adf5 8abe dba0 e5bd
000002f0: 989e 71be c5d0 87bb e84a 2f3e c0aa 8fbc
00000300: 3788 a53d 0241 fabd bcff 0e3e 38b3 85bd
00000310: cbe9 d83d 6a99 02be d118 813d 0a3c 73bd
00000320: 6539 a13e da9c c7bc d618 e8bd 5749 f2bd
00000330: bc8f 6ebd 831f 333e d5e3 dd3d 21e3 c3bd
00000340: 2d5d 46bd 74a7 81bd 3a25 cbbb c3b4 a5bc
00000350: f13c ff3d 0093 203c 8b19 e1be d8be 233e
00000360: b4ea 82be 2b47 0bbe ab5d 59bd d9a7 adbe
00000370: 08cf 683d becc 8fbd 36e7 f4bd 35df 61be
00000380: 1e50 d3bd 97ca bc3d 7371 2cbd dc6a e43d
00000390: 834a 06bd 3638 27be 7505 0dbe 15e7 f1bc
000003a0: 9f8a c33c 1675 3cbe 2c04 ae3d 11ec c5ba
000003b0: 029b 98bd f8a4 dcbc 9b3c a3bb 89c2 0abe
000003c0: 9760 82bd 7243 99bb ff36 a9bb 7bab 313d
000003d0: e43d 0bbe 6815 f5bc 248c 53be 7480 d2bc
000003e0: e709 0e3e 93e6 efbd 3eda db3c 074c 783d
000003f0: 9ac5 823e 30f7 9dbd b6a5 46bd ce46 fd3d

features.8.bias f4 [60]
-0.014146695 -0.004184635 0.14314951 0.11037167 0.01402139 0.01800219 -0.039463952 -0.02469726
-0.04112397 0.008305491 0.015158199 -0.1498658 0.056345038 -0.12424172 -0.10367366 0.047794793
0.10390978 0.20320785 -0.107364886 0.015796544 -0.26329222 0.118615046 0.0024084789 0.01762037
0.102337554 0.044377778 -0.121022746 -0.0042227935 0.09713645 0.0074957656 0.20450425 -0.019496204
-0.13079318 -0.12656824 0.059469942 -0.26481023 -0.15180817 -0.13382012 -0.14359877 -0.29039004
-0.071334876 0.17976692 0.17501651 -0.0944875 0.01647861 -0.22340235 0.185766 0.046546828
-0.12663203 0.101495 0.036838707 -0.095835514 0.22782153 0.048376817 0.046000917 -0.11828817
0.020241074 -0.31807205 -0.053860802 -0.040718384
00000000: 8ac7 67bc 431f 89bb c995 123e 8b0a e23d
00000010: f9b9 653c 5479 933c f4a4 21bd e951 cabc
00000020: 9c71 28bd c113 083c 185a 783c 6c76 19be
00000030: 0eca 663d 7172 febd db52 d4bd 79c4 433d
00000040: a7ce d43d b815 503e 1fe2 dbbd c167 813c
00000050: 3dce 86be 72ec f23d 92d7 1d3b 9858 903c
00000060: 5a96 d13d 79c5 353d c6da f7bd 5c5f 8abb
00000070: 7aef c63d 0a9f f53b 9069 513e 81b6 9fbc
00000080: a6ee 05be 1b9b 01be c196 733d 3595 87be
00000090: 9a73 1bbe 2408 09be 8e0b 13be 01ae 94be
000000a0: 0518 92bd d214 383e 8737 333e aa82 c1bd
000000b0: 26fe 863c 96c3 64be 7139 3e3e e3a7 3e3d
000000c0: d4ab 01be 9cdc cf3d 2fe4 163d 6945 c4bd
000000d0: 0c4a 693e c526 463d 756b 3c3d 1141 f2bd
000000e0: 9cd0 a53c 57da a2be 259d 5cbd 52c8 26bd

features.10.weight f4 [60, 60]
-0.041595414 -0.1790102 -4.91151e-40 5.8108137e-05 -0.12888497 -0.13339038 0.05634729 -4.9406e-40
6.985664e-07 -4.91166e-40 0.027924443 0.05263927 -0.07305564 0.04327971 4.91585e-40 -0.0035520215
-0.00043200818 0.00011811392 0.11613107 -0.0007415357 0.06313878 0.06007084 0.15223859 -0.027274607
0.00013149147 -0.0025005431 -4.90634e-40 0.0003142388 -0.0010850066 1.2017602e-33 -4.90722e-40 -0.000785946
4.93902e-40 -0.019615686 4.91135e-40 0.0009370271 0.011864787 0.088388465 0.0041210805 0.18205188
0.00042653328 0.021035234 -4.90785e-40 -0.02688785 -0.001036781 0.10651738 4.90534e-40 0.091092035
-0.028613036 -4.91047e-40 0.004635378 0.121279486 -0.0051040915 -0.05923075 0.023895988 -0.20227337
-4.91601e-40 0.102752745 0.04002105 0.005000961 -0.23831455 -0.33637172 -0.0002942982 0.0043793414
-0.16632813 -0.105514735 0.0027465906 -0.06966581 -0.2121541 -0.12210602 0.13272727 -0.11205318
0.18774989 -0.12249008 0.03303998 -0.16428602 -0.011802636 0.07963411 -0.11977675 -0.00089265464
-0.0801452 0.024773037 0.053102326 0.12018972 -0.05633966 -0.09348297 -0.0024393464 -0.010430083
0.00017868805 -0.020059202 0.25764412 0.0007019866 -0.28877887 -0.059949737 -0.035186153 -0.20094043
-0.10568157 -0.12070321 -0.24985118 0.051548947 0.1723005 -0.06731674 -0.15494722 -0.024122378
-0.093114674 0.23469326 0.022657126 0.17285793 0.0048299767 -0.2283479 -0.0043686433 0.039228722
0.029280627 -0.32189304 -0.007486843 -0.16335882 0.02801184 -0.09894479 -0.0006269254 -0.21957096
-0.030959215 -0.08319098 -0.17478108 -0.15639663 0.104347445 0.11848202 0.013119879 -0.067015424
-0.020478735 0.23451696 -0.10160193 -0.029904509 0.24648188 0.14562382 0.19448245 0.16969907
-0.16155288 -0.20168464 -0.10625137 0.024536392 -0.10799571 -0.18498425 -0.25606787 0.14517245
0.043674335 0.1894181 0.30036646 0.015672065 -0.015734915 -0.04281996 -0.109061256 -0.013858848
0.1118952 0.04042787 -0.022199119 0.008246435 -0.055957105 0.09135398 -0.018267903 -0.11268692
0.07629665 0.045950126 -0.056474492 -0.10124229 -0.16921209 -0.043666124 -0.08987061 -0.3573713
-0.024419751 0.06314413 0.06311122 -0.11722002 0.23522602 0.042329643 -0.1425294 0.048321027
0.2451304 -0.15978098 0.04758701 -0.24312653 0.0681165 -0.06754879 0.01221877 -0.22179236
0.08827814 -0.03892589 -0.002695185 -0.06031598 -0.027149662 -0.022974411 -0.00041858995 0.036619067
0.10447847 0.110936396 0.09086712 0.077226974 -0.12262637 -0.33572975 -0.18315536 -0.105686404
0.046830017 -0.3069493 -0.2226634 0.17641959 0.114482455 0.23920101 0.011153215 -0.07604424
0.060131617 -0.015511799 0.039905965 -0.18327917 -0.21002494 -0.038422633 -0.11148482 0.10420127
0.0987694 -0.21059607 -0.18838419 0.095811166 -0.061681848 0.06946122 0.0021582881 0.100662224
0.06779864 0.05966885 -0.004982799 -0.50707763 -0.07686266 0.059976544 0.27530983 -0.09570884
0.079232685 -0.030102178 0.1505748 0.087976485 -0.10698118 -0.06330594 -0.010696214 -0.1948537
-0.008544801 0.2560112 -0.014645102 -0.016019791 -0.09015367 -0.56251174 0.020946408 -0.04195292
0.037549585 -0.06403672 -0.043550245 -0.020700298 0.012632997 -0.20552686 0.013529448 0.10236497
00000000: f45f 2abd 734e 37be 2159 0580 23b9 7338
00000010: 6cfa 03be 7d97 08be 6acc 663d 3d61 0580
00000020: 1e85 3b35 2c59 0580 cdc1 e43c 469c 573d
00000030: 329e 95bd 1146 313d 575a 0500 08c9 68bb
00000040: 287f e2b9 eeb3 f738 20d6 ed3d 9e63 42ba
00000050: e84e 813d d70c 763d 6fe4 1b3e ff6e dfbc
00000060: f9e0 0939 27e0 23bb b057 0580 6bc0 a439
00000070: c836 8eba 3aad c708 ef57 0580 f107 4eba
00000080: cc60 0500 13b1 a0bc 1659 0500 d3a2 753a
00000090: 8664 423c 0305 b53d 210a 873b cf6b 3a3e
000000a0: 54a0 df39 1552 ac3c 1c58 0580 e943 dcbc
000000b0: 99e4 87ba c925 da3d 6957 0500 768e ba3d
000000c0: e365 eabc d758 0580 5ee4 973b 6161 f83d
000000d0: 3940 a7bb f19b 72bd 85c1 c33c c020 4fbe
000000e0: 625a 0580 0870 d23d 1ded 233d 1adf a33b
000000f0: bb08 74be ea38 acbe 094c 9ab9 9480 8f3b
00000100: ec51 2abe 1c18 d8bd 2500 343b f3ac 8ebd
00000110: ed3e 59be b912 fabd a8e9 073e 237c e5bd
00000120: 8241 403e 14dc fabd ee54 073d 983a 28be
00000130: d85f 41bc 3517 a33d 834d f5bd 0a01 6aba
00000140: 2b23 a4bd d3f0 ca3c d381 593d 0726 f63d
00000150: 6ac4 66bd 0074 bfbd 71dd 1fbb f0e2 2abc
00000160: 355e 3b39 3253 a4bc eee9 833e 8605 383a
00000170: d3da 93be db8d 75bd 5b1f 10bd 54c3 4dbe
00000180: 946f d8bd 3f33 f7bd fdd8 7fbe fd24 533d
00000190: 8b6f 303e 5cdd 89bd 7caa 1ebe 4b9c c5bc
000001a0: e8b2 bebd 6e53 703e 709b b93c ab01 313e
000001b0: c844 9e3b 08d4 69be d626 8fbb 4cae 203d
000001c0: eddd ef3c 2acf a4be 3154 f5bb 8947 27be
000001d0: 1679 e53c 91a3 cabd 4058 24ba 36d7 60be
000001e0: 2e9e fdbc 0860 aabd d0f9 32be 7026 20be
000001f0: 1db4 d53d b4a6 f23d c3f4 563c 623f 89bd
00000200: 05c3 a7bc 3725 703e ac14 d0bd 4dfa f4bc
00000210: bf65 7c3e 691e 153e 6826 473e 98c5 2d3e
00000220: 1e6e 25be 6b86 4ebe 519a d9bd 8b00 c93c
00000230: db2c ddbd 836c 3dbe 541b 83be 16a8 143e
00000240: dce3 323d d2f6 413e a2c9 993e b462 803c
00000250: 82e6 80bc fb63 2fbd 825b dfbd 3910 63bc
00000260: 5029 e53d b297 253d edda b5bc 0e1c 073c
00000270: 4733 65bd cc17 bb3d 92a6 95bc 66c8 e6bd
00000280: 6b41 9c3d 3336 3c3d cc51 67bd 1e58 cfbd
00000290: ef45 2dbe 40db 32bd 150e b8bd 5ff9 b6be
000002a0: ee0b c8bc b651 813d 7540 813d 0d11 f0bd
000002b0: 17df 703e d961 2d3d 3af3 11be 45ec 453d
000002c0: 7703 7b3e a09d 23be 99ea 423d 29f6 78be
000002d0: aa80 8b3d 0557 8abd 3c31 483c 891d 63be
000002e0: 2bcb b43d c170 1fbd b3a1 30bb e40d 77bd
000002f0: f868 debc d534 bcbc 3176 dbb9 e0fd 153d
00000300: cff8 d53d 9f32 e33d 8a18 ba3d 2d29 9e3d
00000310: 8923 fbbd c5e4 abbe 148d 3bbe 1d72 d8bd
00000320: d5d0 3f3d 7528 9dbe e001 64be 56a7 343e
00000330: c775 ea3d 1cf1 743e f9bb 363c 15bd 9bbd
00000340: 924c 763d 3325 7ebc 7074 233d 89ad 3bbe
00000350: c710 57be 0d61 1dbd 2752 e4bd 7a67 d53d
00000360: 9c47 ca3d 7fa6 57be c9e7 40be a538 c43d
00000370: 1ba6 7cbd af41 8e3d 1172 0d3b ff27 ce3d
00000380: 03da 8a3d 5367 743d bf46 a3bb d7cf 01bf
00000390: 2c6a 9dbd f7a9 753d 69f5 8c3e ff02 c4bd
000003a0: bf44 a23d d898 f6bc 4830 1a3e 042d b43d
000003b0: f318 dbbd 8ba6 81bd 2c3f 2fbc ba87 47be
000003c0: 7eff 0bbc e613 833e 03f2 6fbc f03b 83bc
000003d0: 7da2 b8bd c500 10bf cd97 ab3c d3d6 2bbd
000003e0: 98cd 193d af25 83bd be61 32bd ac93 a9bc
000003f0: a1fa 4e3c a275 52be 9eaa 5d3c baa4 d13d

features.10.bias f4 [60]
-0.5171782 -0.009873104 0.021610197 0.01113156 0.011852143 0.30515444 0.08041266 0.06924506
0.0797104 0.26464638 0.02360234 -0.10875914 0.15592954 -0.10267207 -0.018473813 -0.0013880933
-0.046255607 -0.021327032 0.00036012652 0.09196453 0.0065594823 -0.0206187 0.08854863 -0.16152388
-0.09923798 0.056650426 -0.029206416 0.030934876 -0.011953526 0.05508806 -0.042956784 0.070578
0.00042500164 0.083700046 0.0007821635 0.09325637 0.22896498 0.26010504 -0.025774077 -0.13948941
0.029488092 -0.03078886 0.07122649 -0.033771086 -0.07920076 -0.0113073 0.011701859 -0.0128040705
-0.005436772 0.04029728 0.014397903 0.28937078 0.021019788 0.046218246 0.14089794 0.20199396
-0.024942316 0.08211415 -0.05495054 -0.023452936
00000000: ca65 04bf cdc2 21bc de07 b13c 2661 363c
00000010: 7e2f 423c 343d 9c3e 65af a43d 5bd0 8d3d
00000020: 353f a33d bb7f 873e b259 c13c 1dbd debd
00000030: feab 1f3e bc45 d2bd 6556 97bc aff0 b5ba
00000040: 8576 3dbd 07b6 aebc 5dcf bc39 e657 bc3d
00000050: edf0 d63b 8ce8 a8bc fc58 b53d 8466 25be
00000060: 483d cbbd 470a 683d 4b42 efbc 236b fd3c
00000070: b9d8 43bc 05a4 613d 74f3 2fbd 338b 903d
00000080: c1d2 de39 ee6a ab3d 1b0a 4d3a 32fd be3d
00000090: cc75 6a3e 7d2c 853e 2824 d3bc 50d6 0ebe
000000a0: 0391 f13c eb38 fcbc 32df 913d 8d53 0abd
000000b0: 0234 a2bd 4142 39bc 27b9 3f3c 2ac8 51bc
000000c0: f326 b2bb c30e 253d 2fe5 6b3c 6828 943e
000000d0: b131 ac3c 584f 3d3d 8d47 103e 81d7 4e3e
000000e0: d453 ccbc 772b a83d d113 61bd 5f20 c0bc

features.12.weight f4 [60]
0.91879493 0.2933711 0.30934367 0.3775614 0.35731623 0.42802292 0.27427918 0.3721112
0.38295943 -0.41715991 0.30196935 0.9485541 0.35875788 -0.32568797 0.40996933 0.32103357
-0.3599766 0.35997814 0.38087308 0.39487195 0.34799644 0.22486486 -0.3524243 0.31763873
0.26307797 0.3614809 0.36493984 0.4501068 0.36228707 -0.3367437 0.37320688 0.311299
0.34204817 -0.40271762 0.2985381 0.36178145 0.42843094 0.46801457 0.34706452 0.5946026
0.27898845 0.40560654 0.37803867 0.3458522 0.30893052 0.38962168 0.31607223 0.34133473
0.2538849 0.36645657 0.37073964 0.41590416 0.26467112 0.44065517 0.37047017 0.42202616
0.47251037 0.31754193 0.28931075 0.26851845
00000000: 2536 6b3f bd34 963e 4b62 9e3e ba4f c13e
00000010: 27f2 b63e d225 db3e 526e 8c3e 5c85 be3e
00000020: 4213 c43e fc95 d5be ba9b 9a3e 71d4 723f
00000030: 1daf b73e 93c0 a6be 80e7 d13e 835e a43e
00000040: da4e b8be 0e4f b83e cc01 c33e a82c ca3e
00000050: 972c b23e f942 663e f570 b4be 8ba1 a23e
00000060: 28b2 863e 0614 b93e 65d9 ba3e 6674 e63e
00000070: b17d b93e ac69 acbe f914 bf3e 9562 9f3e
00000080: f020 af3e 0131 cebe fcd9 983e 6b3b b93e
00000090: 4d5b db3e 9b9f ef3e 71b2 b13e e037 183f
000000a0: 93d7 8e3e a9ab cf3e 498e c13e 8a13 b13e
000000b0: 242c 9e3e 7e7c c73e 38d4 a13e 6dc3 ae3e
000000c0: 34fd 813e 32a0 bb3e 96d1 bd3e 64f1 d43e
000000d0: f982 873e 8e9d e13e 44ae bd3e d013 d83e
000000e0: e1ec f13e db94 a23e 8a20 943e 407b 893e

features.12.bias f4 [60]
0.091357484 0.010663733 0.0130723715 0.08312782 0.104866415 -0.04476644 -0.08676868 0.08609254
0.15194087 0.011081004 0.03958854 0.22405685 0.07781695 -0.02619838 0.07171218 0.07472262
-0.07413508 -0.014444812 0.13003144 0.15517709 0.042874318 -0.020523105 -0.13259222 0.03980915
0.022310864 0.018398082 0.12137291 0.1473599 0.090271786 -0.0050664255 0.06494984 -0.002728588
0.096257515 -0.1675826 0.025135798 0.0599054 0.10832296 0.045542475 0.10298682 0.14824195
-0.020527156 0.13091531 0.119566 0.074230336 0.027607543 0.097774476 0.024902377 0.03032041
-0.03090806 0.011255683 0.06012105 -0.113464706 -0.02369782 0.17242317 0.00023727251 -0.05615925
0.11753488 -0.054863486 0.016450848 -0.001998511
00000000: a219 bb3d f0b6 2e3c 802d 563c eb3e aa3d
00000010: 34c4 d63d 045d 37bd c7b3 b1bd 4951 b03d
00000020: 6396 1b3e 198d 353c 9827 223d 296f 653e
00000030: 7e5e 9f3d fc9d d6bc d6dd 923d 2c08 993d
00000040: 22d4 97bd efa9 6cbc f626 053e bee6 1e3e
00000050: fb9c 2f3d 1220 a8bc 41c6 07be eb0e 233d
00000060: 46c5 b63c 93b7 963c 5c92 f83d 83e5 163e
00000070: 6ae0 b83d 4204 a6bb 6c04 853d 1cd2 32bb
00000080: a922 c53d c69a 2bbe 97e9 cd3c 5d5f 753d
00000090: 6ed8 dd3d bf8a 3a3d c1ea d23d bdcc 173e
000000a0: 9128 a8bc aa0e 063e 05df f43d 1306 983d
000000b0: 3729 e23c fc3d c83d 1200 cc3c 8262 f83c
000000c0: e632 fdbc c269 383c 7d41 763d 2f60 e8bd
000000d0: ee21 c2bc b38f 303e 5bcc 7839 3e07 66bd
000000e0: 21b6 f03d 89b8 60bd eec3 863c 73f9 02bb
