Exploratory data analysis/relumodel5.pt (torch, 92322 bytes, 27 tensors)

feature.0.weight f4 [128, 65]
000000 34 c1 ee bc 20 39 f0 3d c7 a3 54 bf 13 d4 05 3f
       -0.02914486 0.11729646 -0.83062404 0.52276725
000010 c8 b0 ad c0 d7 65 9b 41 e6 e1 6b c0 5c a7 2e c0
       -5.4278297 19.424726 -3.6856627 -2.7289648
000020 d1 9d 0f 3d 11 37 06 3c 82 35 94 bd 27 32 21 3e
       0.035062615 0.00819184 -0.07236768 0.15741788
000030 6d b9 ac be 40 01 e3 40 b3 5b e8 3f 2f 56 f5 bf
       -0.3373522 7.0939026 1.8152984 -1.9166926
000040 77 80 0a c0 c5 22 57 c1 c8 3b 71 3f ab b0 20 c1
       -2.1640909 -13.445989 0.94231844 -10.043132
000050 f3 fc 88 be 68 38 82 40 70 8f 3f c0 6f 3a 4a c0
       -0.26755485 4.0693855 -2.9931297 -3.1598165
000060 83 3e 5f c0 6d 0a 49 42 0e 19 67 c2 5c 6f bd 3c
       -3.4881904 50.26018 -57.774467 0.02312439
000070 6f 3d db 3c 24 b9 95 3d d4 83 68 bf 8e 0d 1e bd
       0.026762692 0.073107034 -0.90826154 -0.038587146
000080 fc c7 7e 3b 87 c4 05 bd e6 1a 05 be 0b f4 8c 3d
       0.0038876524 -0.032658126 -0.12998542 0.06882485
000090 78 64 95 bd 48 96 17 be 94 fa 26 3e 88 3b 92 be
       -0.072945535 -0.14803421 0.16306525 -0.28561044
0000a0 8f 8d 86 41 90 1c 31 bf 24 f0 0d c1 fd 2c 05 40
       16.81912 -0.6918421 -8.871128 2.0808709
0000b0 13 1e a4 c0 5a 9d 8a be db 44 77 c0 09 8c 5d c0
       -5.128671 -0.27073175 -3.8635776 -3.461672
0000c0 83 80 3d bf 56 6e 43 c0 21 ec 02 c0 28 5e 86 c0
       -0.7402422 -3.0536094 -2.0456622 -4.1989937
0000d0 96 a8 f6 be 44 2a 48 c0 53 8b 20 bf aa 0b 0e c0
       -0.48175496 -3.1275797 -0.6271259 -2.219462
0000e0 7a 30 d8 bf 6e 19 2a bf 6c 3c 78 c0 97 e2 a3 c0
       -1.6889794 -0.6644505 -3.8786879 -5.12141
0000f0 06 af 17 3f ea 03 97 bf 01 52 2e c0 23 ca bd c0
       0.5925144 -1.179807 -2.7237551 -5.930925
000100 7a ff 57 bf 82 89 e5 bd 3e 47 62 3e 8d c2 05 40
       -0.843742 -0.11207868 0.22097489 2.0899994
000110 86 65 1c 40 cb b8 6b bc a1 5d 8e c0 4b a8 9e c1
       2.4436965 -0.01438732 -4.4489293 -19.832174
000120 c0 62 c6 c1 ea 7e 4a 3d b2 05 53 3e ee 57 7d 3d
       -24.798218 0.04943744 0.20607641 0.061851434
000130 c6 f0 26 bd 4d b1 26 c1 64 0d b3 c0 0b 8f f7 c0
       -0.040756963 -10.418286 -5.5953846 -7.7362113
000140 bb a0 45 41 27 a2 85 40 96 d7 9b c0 67 e6 6f c0
       12.351741 4.176044 -4.8700666 -3.7484376
000150 06 98 a5 40 30 e5 83 c0 2a f5 2d c0 2a 65 01 40
       5.1748075 -4.121727 -2.7180886 2.0217996
000160 6c ad 14 c2 1e a2 e2 c0 07 ed 19 c2 4a d8 5d c1
       -37.169357 -7.0822897 -38.481472 -13.865305
000170 a2 65 90 3d 56 1d ae 3c 44 99 0b bf f2 be c8 bf
       0.07050635 0.021254223 -0.5453074 -1.5683272
000180 ef 54 b3 bd 2d 83 36 be c7 44 08 3d 10 16 d9 bc
       -0.08756434 -0.17823477 0.033268716 -0.026499778
000190 33 74 13 be c9 02 b3 bd 96 80 1c be e1 dc 9b 3f
       -0.14399795 -0.087407656 -0.15283427 1.2176782
0001a0 e2 09 43 bf c8 ac b8 40 65 8d b1 3f 03 2f 0e c0
       -0.76186955 5.7710915 1.3871275 -2.2216194
0001b0 9f d8 bf 40 40 dc f4 c0 09 55 48 c0 ae 53 77 3f
       5.995193 -7.651886 -3.1301901 0.9661206
0001c0 75 e0 17 41 ba 4b 36 c1 90 5a 49 40 f1 b1 ad c0
       9.492299 -11.393488 3.1461525 -5.4279714
0001d0 0f 5a c2 40 42 85 02 c1 d2 d7 5c be 70 3c da bf
       6.0734935 -8.157534 -0.21566704 -1.7049694
0001e0 a4 97 ca bf 06 3d 16 3e 8a 10 52 bf 3d 12 92 bf
       -1.5827527 0.14671716 -0.82056487 -1.1411816
0001f0 db dd b8 3f 02 ba 58 c0 af 55 43 be 50 ae eb bf
       1.4442705 -3.386353 -0.19075654 -1.8412571
000200 d8 0d 5e 40 2f 8a ad c0 25 8a 92 bc 30 70 76 c0
       3.469595 -5.423118 -0.017888138 -3.8505974
000210 44 11 18 c2 f3 c7 47 40 ff 00 00 c2 94 70 36 c2
       -38.01686 3.121579 -32.000973 -45.60994
000220 b6 07 71 c0 cf c7 85 c0 63 ec 50 bd 5c 94 80 3c
       -3.7660956 -4.1806407 -0.051006686 0.015695743
000230 53 85 ea bd ee 29 3e 3d cb de 32 c0 7b c1 95 c0
       -0.11451211 0.046426706 -2.7948482 -4.679868
000240 28 23 46 c1 88 71 f6 c1 4e f2 82 3f ee a0 cd 3e
       -12.383583 -30.805435 1.0230196 0.40161842
000250 51 2b d6 3f 05 d8 9e c0 90 e7 e7 bf 74 f8 2a c0
       1.6731969 -4.9638696 -1.8117542 -2.6714144
000260 6e 2a 9f c0 e7 20 53 c0 bf d1 80 c0 1d 27 0a 42
       -4.9739294 -3.2988832 -4.025604 34.538197
000270 54 97 97 41 e6 de b9 3c 08 30 98 bf 9b ba d5 be
       18.94889 0.022689294 -1.1889658 -0.4174393
000280 f2 d7 bb c1 df c2 bd 3c 88 d2 df b9 4c 52 27 3e
       -23.480442 0.02316421 -0.00042690733 0.16339988
000290 89 70 69 bf fd 28 eb 3d 36 0c 7e 3d 96 73 ff 3c
       -0.9118734 0.11482427 0.062023364 0.031183045
0002a0 56 aa 38 3d 2c 6a ad 3f 17 89 90 41 c9 85 3c c0
       0.04508432 1.3548026 18.066938 -2.9456656
0002b0 01 ca 18 c2 79 f2 84 c0 68 ba 14 bf 88 ba 84 40
       -38.19727 -4.1545987 -0.58096933 4.14777
0002c0 0b 49 0f c1 bb 7a a9 bf 35 28 28 c0 7c 0b 24 3f
       -8.955333 -1.3240579 -2.627454 0.64080024
0002d0 06 35 75 c0 15 17 65 c0 e2 a7 81 bf 6a 04 07 c1
       -3.8313613 -3.5795338 -1.0129359 -8.438578
0002e0 14 19 68 40 68 6d 5d bf 2c f2 7c c0 ce d7 9a c0
       3.6265306 -0.86495066 -3.952281 -4.8388433
0002f0 08 e0 0b 40 84 e4 a9 3f 55 bf 89 c0 55 7e e7 bf
       2.1855488 1.3272862 -4.304606 -1.8085428
000300 b8 bf 1a c0 50 3a 27 41 65 a7 e4 c0 4d f5 86 bc
       -2.4179516 10.451736 -7.145434 -0.01647439
000310 a8 38 9c bf de 49 50 3f 2f f6 87 c0 18 79 19 3e
       -1.220479 0.8136271 -4.2488017 0.149876
000320 68 bb 3f 42 93 4a 02 41 76 02 16 41 c0 09 13 bb
       47.933014 8.143207 9.375601 -0.0022436231
000330 63 26 80 3d b6 18 47 3e 09 79 88 3e fd be f1 3f
       0.06257322 0.1944302 0.26654842 1.888641
000340 f5 a6 a7 41 a3 e1 15 41 c0 0d 85 41 34 a7 1a c0
       20.956522 9.367587 16.631714 -2.4164553
000350 9d 14 b5 40 47 89 28 3f 98 45 80 3f 3a bd 15 3f
       5.6587663 0.6583447 1.0021238 0.5849186
000360 5a 96 0b c0 31 a0 d8 40 f7 ef e2 40 c3 56 0c 41
       -2.1810517 6.7695546 7.0917926 8.771182
000370 2e a3 f0 c0 5c 1c bf 3f 94 ba 20 3c d9 1d 94 be
       -7.5199194 1.493053 0.009810109 -0.28929022
000380 fa 7d 43 be f8 f6 24 40 01 01 36 bc ef 61 2a 3e
       -0.19091025 2.5775738 -0.011108638 0.16638921
000390 41 11 ce bd 89 ac a7 bf 01 96 46 be 0c 2c 4a 3f
       -0.10061885 -1.3099529 -0.1939316 0.7897346
0003a0 6a 9c 89 be 5c 67 01 c1 92 e5 73 c0 ad 6c 58 c2
       -0.26877147 -8.087734 -3.8108869 -54.10613
0003b0 07 ef 69 3f 54 a3 21 40 aa 05 8e be 1f 6b 0d 41
       0.9138035 2.5255938 -0.27738696 8.838653
0003c0 2b aa fe 40 ef 66 b4 3f a3 d7 43 be e0 65 12 41
       7.9582725 1.4093913 -0.19125228 9.149872
0003d0 86 80 16 41 cb 0f 42 40 88 e4 a5 c0 88 57 46 41
       9.406378 3.032214 -5.184147 12.39637
0003e0 e1 29 80 41 34 a9 aa c0 33 24 2f 41 62 38 48 c0
       16.020449 -5.3331547 10.946338 -3.1284413
0003f0 98 de f7 3f db ea 0b 41 12 45 e0 40 aa e0 45 40
       1.9364805 8.744838 7.0084314 3.0918374

feature.0.bias f4 [128]
000000 0d 49 7d c0 af 52 e6 c0 96 a6 82 c0 5f b2 fd 40
       -3.9575837 -7.197593 -4.082835 7.928024
000010 ff fa 71 41 f8 d5 75 40 7a 61 9f 40 fb e5 f7 c0
       15.123778 3.8411846 4.980649 -7.746824
000020 f9 19 cb c0 a8 d1 93 40 c0 c0 e7 c0 64 39 98 c0
       -6.3469205 4.619343 -7.242279 -4.7570057
000030 f3 4f 74 41 5a e7 27 41 51 5c 1e 41 46 53 30 c1
       15.269519 10.493982 9.897538 -11.02033
000040 76 14 81 41 d5 18 57 41 7f 75 7a 40 83 9f 13 c1
       16.13499 13.4435625 3.9134214 -9.226443
000050 f5 45 f8 3d 14 35 85 3f 85 83 d4 c0 47 2e b2 3f
       0.12122718 1.0406823 -6.6410546 1.3920373
000060 35 9f 27 c0 90 f8 b8 c0 96 8e 41 c0 a9 a0 4e 40
       -2.6190922 -5.780342 -3.0243278 3.228556
000070 65 34 de 3e 00 31 7f bf 18 a7 f4 40 ff b6 c2 c0
       0.4339935 -0.99684143 7.645397 -6.0848384
000080 9f ac 41 41 8d 51 9e 3f 8d 39 0d c1 6f 74 7d c1
       12.104644 1.2368637 -8.8265505 -15.840926
000090 cd e7 4c c1 d3 ed 36 3f f1 fc c8 c0 44 ef 32 40
       -12.806592 0.7145664 -6.2808766 2.7958536
0000a0 ce da e9 bf af 55 89 41 e5 89 2f 41 41 1d 20 41
       -1.8269899 17.166838 10.971166 10.007142
0000b0 c6 d0 7e 40 c8 e6 de c1 f1 5b 11 41 f2 7b 14 3f
       3.9814925 -27.862686 9.084947 0.58001626
0000c0 f9 34 29 41 51 8c 00 3e 63 1f 67 40 e6 18 0d bf
       10.575433 0.12553526 3.6112907 -0.55116117
0000d0 19 0b 90 40 a8 38 49 c1 34 9f 1c 41 4f d6 d6 40
       4.5013547 -12.576332 9.788868 6.7136607
0000e0 a1 0a b8 3f 91 a7 03 c0 e1 50 0e c0 66 95 ba 3d
       1.4378244 -2.0571024 -2.2236865 0.09110527
0000f0 87 7e 53 3f 92 ee 2c bf 16 57 4a c0 81 cc 4e c1
       0.8261494 -0.6755153 -3.1615653 -12.924928
000100 d2 27 b4 40 f3 48 bd c1 0b 56 6d c1 d2 b9 3b 41
       5.629861 -23.66062 -14.833507 11.732866
000110 05 ec 47 c1 3f 00 8a 40 10 36 43 41 a7 a2 e8 3f
       -12.495122 4.31253 12.200699 1.8174638
000120 11 a5 b6 c0 04 49 49 41 6b ba 63 c0 e2 5a 8e 3f
       -5.7076497 12.580326 -3.558253 1.1121485
000130 63 d0 3d c1 ef 91 8e c1 c5 cd 40 41 3b 6c eb 3f
       -11.863376 -17.821257 12.050237 1.8392404
000140 24 08 e9 c1 d0 63 97 c0 90 0f c5 bf 7c 7f 7e c1
       -29.128975 -4.730934 -1.5395374 -15.906124
000150 c2 79 30 3f 48 10 7d bf 76 e5 8d bf a6 d7 cd bf
       0.6893579 -0.9885297 -1.1085651 -1.6081436
000160 a1 42 d2 c1 f2 43 da c0 8b 09 1a 40 6d d1 d9 c0
       -26.282534 -6.820794 2.4068325 -6.8068147
000170 32 0e be c0 8b 69 08 c1 2a 0d b6 c1 b1 63 e3 40
       -5.939233 -8.525767 -22.756428 7.1059194
000180 df 4e 41 40 cd 37 4e c0 0c e5 88 c0 e2 28 b8 40
       3.020439 -3.2221558 -4.27796 5.7549906
000190 47 5b 6c c0 17 db 24 c1 13 f3 1e 41 b6 76 a4 c1
       -3.6930711 -10.303489 9.934344 -20.557964
0001a0 c1 d4 de 3f f3 1f c4 40 e3 38 0e c0 1e 0e 48 c1
       1.7408677 6.1289 -2.222222 -12.503447
0001b0 5d 05 09 41 cd 44 a5 c0 f0 1d 8b c0 3b 7b de bf
       8.563809 -5.1646485 -4.3474045 -1.7381357
0001c0 30 61 d3 40 f6 d8 d9 40 ae 89 2d c0 c3 f0 12 c0
       6.6056137 6.8077345 -2.7115283 -2.295945
0001d0 db d8 4f bf 56 fc b3 3f fd 48 7d 40 aa 05 cc 40
       -0.8119027 1.4061382 3.9575799 6.3756914
0001e0 6e b3 1e c0 c8 76 f9 40 96 da 33 40 04 36 d9 3f
       -2.4797015 7.7957497 2.8102164 1.6969609
0001f0 47 8d 07 c0 a0 3c db 40 98 a9 87 c0 f4 f1 45 40
       -2.117998 6.8511505 -4.2394524 3.0928926

feature.2.weight f4 [128]
000000 bd b8 7b 3f 50 3a 4b 3f 74 e0 d0 3f ba 0b 2f 3f
       0.98328763 0.7938585 1.6318498 0.6837727
000010 9b 93 2c 3f 57 94 9c 3f 82 48 d4 3e 9d ae 28 bf
       0.6741273 1.223277 0.4146157 -0.6589144
000020 cf 76 d0 3f 09 f3 ee 3f 94 5d 4e 3f d1 79 db 3f
       1.6286258 1.8667918 0.8061154 1.714655
000030 d3 04 ba 3f b8 5a 19 3f 37 a7 8b 3f f4 bd 6d 3f
       1.4532722 0.5990405 1.0910405 0.9286797
000040 7f ab 81 3f a8 6b 3c 3f 57 f3 3d 3f b3 99 7b 3f
       1.0130461 0.7360177 0.7419943 0.982814
000050 4b 1b b6 3f 38 55 4c 3f b5 33 e6 3f 39 9e 00 3f
       1.4227079 0.79817533 1.798453 0.5024143
000060 a3 97 5a 3f 01 e8 4d 3f e1 ac e4 3f e9 0d 82 3f
       0.8538763 0.80432135 1.7865258 1.0160495
000070 b3 d8 b2 3f ca a2 ba 3f bc 53 17 40 c2 c3 05 40
       1.3972381 1.4580929 2.3644857 2.090073
000080 b5 35 d2 3f 6a ee 37 3f 7f 2f 4b 3f 1a 74 3d 3f
       1.642264 0.71848166 0.7936935 0.7400528
000090 aa 99 44 3f 03 8a 8f 3f 74 34 76 3f 46 ec e0 3f
       0.7679697 1.1213993 0.9617379 1.7572105
0000a0 59 e9 96 3f 0b d2 74 3f 06 f3 b0 3f b7 2b b8 3f
       1.1789962 0.95633 1.3824165 1.4388341
0000b0 60 ca a2 3f 7f 8a 35 3f 0e 68 28 3f db bb c9 3f
       1.271801 0.70914453 0.65783775 1.5760454
0000c0 a5 4d 53 3f 4d 17 09 40 f5 c6 2c 3f 00 d5 1a 40
       0.8254035 2.1420472 0.67491084 2.4192505
0000d0 5a 4c 0e 3f aa bc 4d 3f 8b 1a 8b 3f 8d 85 30 3f
       0.55585253 0.80366004 1.0867475 0.6895378
0000e0 f3 28 e8 3f 89 72 b0 3f 4b 5d cb 3f a8 0c 91 3f
       1.8137497 1.3784953 1.5887846 1.1331987
0000f0 e4 8c 19 40 12 27 0d 3f 60 70 04 40 ed 22 5e 3f
       2.3992243 0.5513774 2.0693588 0.8677204
000100 e9 6b 98 3f 19 1e 21 3f f2 10 7c 3f b0 b7 38 3f
       1.1907932 0.6293655 0.98463356 0.72155285
000110 32 ce 26 3f 3f 89 30 3f fe e4 ca 3f 89 35 c9 3f
       0.6515838 0.6895942 1.5851133 1.5719463
000120 62 70 7d 3f a8 f5 03 40 c6 f9 ac 3f ac a0 f4 3f
       0.9899961 2.0618687 1.3513725 1.9111533
000130 2c 8b 2d 3f 50 8a 97 3f 57 a3 3e 3f 13 d0 03 40
       0.67790484 1.1839085 0.74467987 2.0595748
000140 46 4e 8c 3f b2 2e 89 3f 9e ea cd 3f b2 b9 8d 3f
       1.0961387 1.0717375 1.6087224 1.1072295
000150 b8 c1 70 3f b5 e8 36 3f 1b a7 7f 3f 99 9c 07 40
       0.9404559 0.7144883 0.9986436 2.118933
000160 d4 ea 8b 3f cb b4 b5 3f f5 f5 b1 3f 6d 0a ec 3f
       1.0931039 1.4195799 1.3903185 1.8440682
000170 e3 e9 b2 3f 19 e6 fc 3f df 92 4a 3f fb b7 3a 3f
       1.3977627 1.975772 0.7913036 0.7293698
000180 a0 53 21 40 08 5b ac 3f 5b fd 89 3f 5e 4f d5 3e
       2.520729 1.346528 1.0780443 0.41662115
000190 12 c6 7f 3f 55 88 0e 40 5d a0 96 3f a4 13 5b 3f
       0.99911606 2.227071 1.1767689 0.85576844
0001a0 81 ae e4 3f 3e 1b e7 3f 76 54 66 3f ad f1 3d 3f
       1.7865754 1.8055189 0.8997263 0.7419689
0001b0 d6 42 9c 3f 67 76 bd 3f 8a fd 41 3f 0c a3 4d 3f
       1.2207897 1.4801759 0.75777495 0.80326915
0001c0 5d af e9 3f e9 49 82 3f 6f 3b 4f 3f eb a2 64 3f
       1.8256642 1.0178806 0.80950063 0.89311093
0001d0 ee 25 fc 3f 5d a2 19 3f f0 db d8 3f 7a cc 73 3f
       1.9699075 0.6001337 1.694212 0.9523388
0001e0 c9 c5 34 3f f4 3e c6 3f dd 5f f8 3f 3a 96 63 3f
       0.70614296 1.5487962 1.9404255 0.889011
0001f0 89 72 68 3f 4d 82 88 3f 5c 48 18 40 88 ac 98 3f
       0.90799767 1.0664765 2.3794165 1.1927652

feature.2.bias f4 [128]
000000 9e 1f 87 3e 0e 52 f2 3c 21 4a e6 3e 2f 76 4f 3e
       0.2639131 0.029580142 0.4497843 0.20259927
000010 08 96 c0 3e df 94 0e 3f 76 11 fb bb 43 cd e2 3d
       0.37614465 0.5569591 -0.0076619936 0.11074307
000020 da 83 d6 3e 6e a6 cc 3e 68 86 80 3e f9 47 cf 3e
       0.4189747 0.39970726 0.25102544 0.40484598
000030 ec 5d c6 3e a5 b0 2a 3e 8c 1a e1 3e 75 a6 87 bc
       0.38743532 0.16668947 0.43965566 -0.016558865
000040 e3 c4 d2 3e ee f4 09 3f fd fb 8a 3e 27 33 a8 3e
       0.41165838 0.5388936 0.27145377 0.32851526
000050 f4 ba 6a 3e eb bc 81 3e 85 19 c3 3e ce 32 0b 3e
       0.2292288 0.25339445 0.38105407 0.13593599
000060 3e 0f 6e 3e 96 ec c8 3e a6 b0 cc 3e 30 71 60 3e
       0.23248002 0.39243 0.39978522 0.21918178
000070 63 3f 03 3f 1b 58 26 3f 28 01 01 3f 4e 5a 15 3f
       0.51268595 0.6497819 0.5039239 0.5834092
000080 21 3c 65 3e 04 e6 65 3e dd d8 25 be d7 3c a7 bd
       0.22386219 0.22451025 -0.16196008 -0.08165901
000090 be aa bb bd 66 a9 c8 3e 30 3c 00 3f 66 11 25 3f
       -0.09163426 0.3919174 0.5009184 0.6447967
0000a0 17 ac 23 3f 90 b4 f4 3e 14 35 6f 3e 9d a5 a0 3e
       0.63934463 0.47794008 0.23360091 0.31376353
0000b0 81 0d 08 3f 5b 26 26 be 3c ee 52 3e 9e ad c8 3e
       0.53145605 -0.16225569 0.20598692 0.3919496
0000c0 c5 3c 3a 3e 57 75 1b 3f db 31 4a 3e d8 d8 c2 3e
       0.18187244 0.6072592 0.19745581 0.38056064
0000d0 2a f7 df 3d 51 fa 47 be 17 8e f6 3e e2 33 eb 3d
       0.10935815 -0.19529082 0.4815528 0.11484505
0000e0 56 21 f4 3e 7c 38 f1 3e aa 16 87 3e f1 8a bb 3e
       0.47681683 0.47113407 0.2638448 0.3662944
0000f0 3e 06 54 3f 6b ae 31 3e fd e3 e3 3e 69 f3 a7 bd
       0.82822025 0.17351691 0.4450988 -0.08200724
000100 de fd ea 3e 6f b6 f5 bd be 1e a3 3e 6d cf 0c 3f
       0.4589681 -0.11997687 0.31859392 0.55004007
000110 63 b0 86 bd ae 3d 84 3d 7d cc 0d 3d 4b 7c 17 3f
       -0.06576612 0.06457077 0.034618843 0.5917403
000120 5c ad 6e 3e 3c 6c 35 3f ae b3 96 be 6e 2a f2 3e
       0.23308319 0.7086828 -0.2943396 0.47297996
000130 8a c6 6b be ba 8c 21 3f f4 4f f3 3e 02 0c 04 3f
       -0.23024955 0.63105357 0.47521937 0.5158082
000140 71 23 03 3f fa f7 f2 3e 73 b2 ad 3e d0 a6 fa 3e
       0.51225954 0.47454816 0.33925208 0.48955393
000150 ea fa 84 3e 0e e8 6d 3e 15 61 ad 3e 69 21 26 3f
       0.25972682 0.23233053 0.3386313 0.6489473
000160 a8 b4 b3 3e 57 a1 cb 3e 16 fc 19 3f b0 91 00 3f
       0.35098767 0.3977153 0.6015028 0.502223
000170 42 6d e6 3e 81 b7 a9 3e d7 72 fd 3e 4a 3a aa 3e
       0.45005232 0.33147815 0.49501678 0.33247596
000180 ff 9d 55 3f ac 8b f8 bd ae 15 fe 3e e7 09 ac 3d
       0.8344421 -0.12136015 0.49625915 0.08400326
000190 a4 a4 37 3f 4f 4d 02 3f b4 e3 3a 3e 5d cc 89 be
       0.71735597 0.50899214 0.18250924 -0.2691373
0001a0 22 e3 60 3f 49 88 ac 3e c9 40 ad bd f7 9a 4b be
       0.8784658 0.33697727 -0.084596224 -0.19883333
0001b0 03 f4 80 3e f9 27 b7 3e e1 e8 41 3e 0c c2 65 3e
       0.25186166 0.35772684 0.18936493 0.22437304
0001c0 3b 4d 10 3d 66 19 0f 3f 36 f0 a7 3e 0c c0 bb 3e
       0.035229903 0.5589813 0.32800454 0.36669958
0001d0 5c 85 08 3f 5b 01 cc 3d 96 eb bd 3e 70 fb cb 3e
       0.5332849 0.09961196 0.370938 0.3984027
0001e0 a4 53 43 3e 21 1e 9c 3e 47 a5 14 3f 5f e3 3e 3e
       0.19074875 0.30491737 0.58064693 0.18641423
0001f0 58 8f 4a 3e 8e 0f 0b 3f a4 0d 48 3f 39 db ef 3e
       0.19781244 0.5432061 0.78145814 0.4684694

feature.2.running_mean f4 [128]
000000 8a b4 82 43 53 ab 85 c3 50 be 33 44 a5 4c ec 43
       261.41046 -267.33847 718.97363 472.5988
000010 26 92 36 45 dd 99 07 44 58 d0 e8 c1 91 a7 d5 c3
       2921.1343 542.4041 -29.10173 -427.3091
000020 af 40 d9 43 a5 66 86 42 8e 7a 95 44 c1 0d c4 42
       434.50534 67.20048 1195.8298 98.02686
000030 5c 06 9b 43 26 9f e9 43 20 f5 cc 43 56 80 9f c3
       310.04968 467.24335 409.91504 -319.00262
000040 81 50 c2 43 c0 e0 33 45 f6 72 87 43 a1 09 d1 43
       388.62894 2878.0469 270.89813 418.07523
000050 d7 7d 33 43 a3 9e 90 43 3a 3b 8e 43 d2 aa 84 43
       179.49156 289.23935 284.4627 265.33453
000060 53 f9 61 44 f2 a1 20 44 3f ec 88 43 01 05 82 43
       903.8957 642.5304 273.84567 260.0391
000070 ab 43 ff 43 34 76 cc 44 2f 2b 3a 43 a8 78 10 43
       510.52866 1635.6938 186.16869 144.47131
000080 23 74 57 42 37 ba 8b 43 21 ca b5 c3 7b ec 24 c3
       53.863415 279.4548 -363.57913 -164.92375
000090 66 08 a7 c3 3b 88 8f 44 77 9e 07 45 b3 76 f9 44
       -334.0656 1148.2572 2169.904 1995.7094
0000a0 f7 6d 85 44 f5 2c a8 44 9d b3 46 42 48 19 70 43
       1067.4364 1345.4049 49.675404 240.09875
0000b0 71 9c db 43 5a 9c 13 c3 64 c2 17 44 ee d9 74 43
       439.2222 -147.61075 607.03735 244.85129
0000c0 65 29 1d 44 85 20 3f 44 9d dc 80 43 2d 08 f5 42
       628.6468 764.5081 257.72354 122.51597
0000d0 e4 0f 73 43 61 ed a7 c3 f4 5f 01 44 0e 1f 28 43
       243.06207 -335.85452 517.49927 168.1213
0000e0 02 9f fb 43 d0 a3 77 44 bf 1e c7 42 9f f3 20 44
       503.24225 990.5596 99.56005 643.8066
0000f0 02 3e 1e 45 a6 79 56 44 fe 7c 86 43 c9 62 a8 c3
       2531.8755 857.90076 268.9765 -336.77176
000100 99 bb 81 44 c8 0f 2e c3 84 c5 1a 45 3e d1 3f 45
       1037.8624 -174.06165 2476.3447 3069.0776
000110 77 86 aa c3 0e ec ae 42 d8 d1 da 42 ec 3d 39 44
       -341.0505 87.461044 109.40985 740.9675
000120 7c f8 8e 44 9b 98 3d 44 7d 56 aa 42 a7 85 85 43
       1143.7651 758.38446 85.16892 267.04416
000130 1c 5d c5 c3 a6 ec ec 44 d3 5c 3c 45 9d f2 16 43
       -394.72742 1895.3953 3013.8015 150.94771
000140 04 eb 8a 44 5e 1c 74 44 53 33 07 44 96 a4 81 44
       1111.3442 976.44324 540.80194 1037.1433
000150 51 29 68 43 4e 03 57 44 42 6f 50 44 d5 e3 6e 44
       232.16139 860.05164 833.7384 955.5599
000160 47 dd 13 44 56 4d 5d 43 ba 9c c3 44 f6 9d 2a 43
       591.45746 221.3021 1564.8977 170.61703
000170 39 ce 78 43 4a cb 00 42 78 0e 3c 45 a3 62 b7 44
       248.80556 32.198524 3008.9043 1467.0824
000180 a9 00 dc 44 6b 27 ba 41 bb 5a 65 44 02 e6 06 44
       1760.0206 23.269247 917.41766 539.5939
000190 7c 26 8a 44 9f 3e 16 43 03 e4 e1 42 5c 28 20 c3
       1105.2026 150.24461 112.945335 -160.15765
0001a0 b4 8d 20 45 bc 9b 94 42 cc a4 a6 c3 86 57 c1 c3
       2568.8564 74.30417 -333.28748 -386.68378
0001b0 69 16 1f 43 ec 3c 75 43 24 17 3e 44 cb b3 5c 44
       159.08754 245.23798 760.3616 882.80927
0001c0 ef 6e 64 42 f9 4c 51 44 e7 3d 4e 44 4b 93 e9 44
       57.108334 837.2027 824.9672 1868.6029
0001d0 3f 57 12 44 78 88 35 44 f1 9e 87 42 d0 70 16 44
       585.3632 726.1323 67.81043 601.7627
0001e0 b2 bc 0d 44 ba ed a5 43 a5 c4 a6 43 f2 e4 c4 43
       566.94836 331.85724 333.5363 393.78864
0001f0 ff 10 ab 43 97 cd 56 44 20 83 e7 44 6e d3 65 44
       342.13278 859.21234 1852.0977 919.3036

feature.2.running_var f4 [128]
000000 c8 7e 19 49 84 2f 84 45 8b 56 a7 4a 22 d3 8d 49
       628716.5 4229.9395 5.4833335e+06 1.1618282e+06
000010 fb 5e 89 4a 2a 1e 01 49 bd 25 29 47 3f bf 18 46
       4.5013735e+06 528866.6 43301.74 9775.812
000020 b0 f2 a3 4a d9 7c 1e 48 a1 94 bc 4a 7e f2 72 48
       5.372248e+06 162291.39 6.1794085e+06 248777.97
000030 e2 04 7b 49 66 69 dd 49 55 39 1c 49 a6 0c aa 45
       1.0281741e+06 1.8138048e+06 639893.3 5441.581
000040 60 ff dc 48 9c d7 8e 4a 89 01 15 49 47 f8 a7 49
       452603.0 4.680654e+06 610328.56 1.3760089e+06
000050 12 91 1a 49 20 ef 4a 49 a7 b3 cf 49 4d 56 b4 49
       633105.1 831218.0 1.7014929e+06 1.4773216e+06
000060 2d 6b 88 4b 9a c9 64 49 4b 6c fe 49 4f dd 52 4a
       1.7880666e+07 937113.6 2.0842334e+06 3.4548038e+06
000070 6a 06 45 49 59 3d 01 4b b5 4c 27 49 9b 64 46 48
       807014.6 8.469849e+06 685259.3 203154.42
000080 87 76 c8 47 21 5e f4 48 07 fa a3 45 da a7 9f 45
       102637.055 500465.03 5247.2534 5108.9814
000090 94 1a 0e 46 f4 3c 9d 4a 18 37 2b 4a 80 b3 ba 4b
       9094.645 5.152378e+06 2.80519e+06 2.4471296e+07
0000a0 2c b8 82 49 06 8a 9d 49 82 27 b5 47 48 0e 07 49
       1.0708535e+06 1.2905608e+06 92751.016 553188.5
0000b0 9b d0 1b 49 d7 d0 85 44 74 94 17 4a 82 65 ea 48
       638217.7 1070.5262 2.483485e+06 480044.06
0000c0 0c 0e 53 4a 5e 7a f0 4a ab 4b 1e 49 45 e7 88 49
       3.457923e+06 7.879983e+06 648378.7 1.1215126e+06
0000d0 8e 5a de 49 cb bc 8d 45 c4 55 3c 49 fb d9 04 49
       1.8215218e+06 4535.599 771420.25 544159.7
0000e0 9c 61 50 4a 1a 62 63 4b 69 db 81 49 13 02 10 4a
       3.414119e+06 1.4901786e+07 1.0637891e+06 2.3594288e+06
0000f0 2a 8a 58 4c fd bc 3c 4b 7b 87 10 4a 6f 67 be 45
       5.6764584e+07 1.2369149e+07 2.3679668e+06 6092.929
000100 77 15 62 4a b2 38 b7 44 14 94 a1 4a 2e 9b b0 4a
       3.7041578e+06 1465.7717 5.294602e+06 5.787031e+06
000110 cf 61 75 45 57 e1 70 48 13 0e 10 48 1d 09 85 49
       3926.113 246661.36 147512.3 1.0898276e+06
000120 dd 12 76 4b 8b 1f 73 49 3f cd 36 47 8d 7f 25 4a
       1.6126685e+07 995832.7 46797.246 2.7115232e+06
000130 79 fd ea 45 77 ce 64 4a 8f 91 b6 4a d6 21 84 48
       7519.684 3.7487658e+06 5.9824075e+06 270606.7
000140 b4 81 1b 4a a0 6d 79 49 a0 9a f4 4a 86 52 ed 49
       2.547821e+06 1.021658e+06 8.015184e+06 1.9441448e+06
000150 3e 63 08 49 11 aa 54 4a f9 21 2d 4a ad ca 3c 4b
       558643.9 3.4842922e+06 2.8366062e+06 1.2372653e+07
000160 60 86 99 49 b8 0f f9 48 e7 3c 22 4b 82 d0 91 48
       1.257676e+06 510077.75 1.0632423e+07 298628.06
000170 42 ee d7 48 23 ae d4 48 50 1b b9 4a 6f 20 91 49
       442226.06 435569.1 6.065576e+06 1.1888779e+06
000180 e4 8c e3 4b 87 12 19 47 3c ff 79 49 39 01 91 4a
       2.982548e+07 39186.527 1.02398775e+06 4.7515165e+06
000190 49 f9 ac 49 0f d0 df 48 e3 16 bf 48 a5 29 ba 44
       1.4170011e+06 458368.47 391351.1 1489.3014
0001a0 62 90 aa 4b ce 0b 88 48 f5 67 0d 46 f6 72 b0 45
       2.2356164e+07 278622.44 9049.989 5646.37
0001b0 76 f7 f0 48 61 c9 42 4a a6 bd 85 4a 9e 16 24 4b
       493499.7 3.1913842e+06 4.382419e+06 1.0753694e+07
0001c0 9b b7 b0 48 64 3f 59 49 98 4f 82 49 d7 9b e5 49
       361916.84 889846.25 1.067507e+06 1.8809549e+06
0001d0 76 8e 67 4a cf eb 35 4b bd 16 75 48 a8 6e 4e 49
       3.7938215e+06 1.1922383e+07 250970.95 845546.5
0001e0 17 cc 4a 49 4d 71 cd 49 4f 0f d9 49 64 3c 9a 49
       830657.44 1.6829856e+06 1.7781539e+06 1.2635005e+06
0001f0 f5 f1 15 4a 5d a4 7f 49 c6 a7 f1 4b 09 17 41 4a
       2.4567012e+06 1.0471098e+06 3.1674252e+07 3.1635862e+06

feature.4.weight f4 [64, 128]
000000 7a e5 b7 3e 21 01 fa 3d 9e d5 a8 3e 29 17 38 3f
       0.35917264 0.122072466 0.32975477 0.7191034
000010 6d 93 ab bf 31 e6 bf be e9 8c 02 40 32 df 92 be
       -1.3404366 -0.3748031 2.0398505 -0.2868591
000020 4e 95 09 bf 4f c3 d9 bf 30 b7 41 3f 7c 56 bd bc
       -0.53743446 -1.7012728 0.75670147 -0.023112528
000030 17 9d 09 bf 99 cb 06 40 83 4e 83 3f b8 27 84 3e
       -0.53755325 2.1061766 1.0258335 0.25811553
000040 2f 29 80 3f 0d 22 a1 be c0 c5 85 3f cd 69 f6 be
       1.0012568 -0.3147129 1.0450974 -0.48127595
000050 d7 e4 a8 bd 03 59 33 3f c1 2d 01 40 ff e9 ab 3f
       -0.08246773 0.70057696 2.0184176 1.3430785
000060 f4 76 af bf a8 a4 8a be a4 ce a7 be 22 ab c1 3f
       -1.3708177 -0.27078748 -0.32774842 1.513035
000070 7e 5a bb c0 ec a1 9a bf 7b 23 17 bf 99 98 79 bf
       -5.8547964 -1.2080665 -0.59038514 -0.9749847
000080 0d 7e 61 3f 74 86 8b 3f 1d e8 7a 3e db c6 bf be
       0.88082963 1.0900407 0.24502607 -0.37456402
000090 e7 e0 35 3e 80 1f 94 3e 94 8d c0 3f 4c 3e 97 3e
       0.17761575 0.28930283 1.5043206 0.29539716
0000a0 90 f8 60 be 6b 82 8c 3f 7c e7 6c be a9 8e 29 bf
       -0.21969819 1.09773 -0.2313518 -0.6623331
0000b0 2a bf 44 3f dc e2 c3 3f a5 e0 8b 3f db a8 62 3f
       0.76854193 1.5303607 1.0927931 0.88538903
0000c0 1a 16 06 be ea 19 1f c0 39 9d 56 3f 89 d6 6e 3f
       -0.13094369 -2.4859567 0.8383365 0.93296105
0000d0 7d e5 46 3f ed fe a4 bc ea 36 84 3f 16 28 02 40
       0.7769392 -0.02014109 1.0329258 2.0336967
0000e0 06 de 44 c0 f0 1f 40 be a5 72 ed 3d 16 7b f8 be
       -3.0760512 -0.18762183 0.11594132 -0.48531407
0000f0 0e b6 66 be be e5 e2 be dc 16 e9 bd 64 9f 8d 3c
       -0.22530386 -0.44315904 -0.11381313 0.017287917
000100 e3 d0 9b 3f 6e d2 ce 3f 9b 3e dd 3d c2 8b 0a bf
       1.2173122 1.6157968 0.10802957 -0.54119503
000110 70 d6 0e 3f c3 20 0d 40 05 7f 82 3f 86 16 da c0
       0.55795956 2.2051246 1.0195013 -6.8152494
000120 f7 a9 ad bf b5 38 2c 3f b4 b3 dd 3c c0 33 1a c0
       -1.3567494 0.6727403 0.027063228 -2.4094086
000130 ce 97 09 3f ea 13 b4 3e 6a df c8 be ed c9 e2 bd
       0.5374726 0.35171443 -0.3923295 -0.110736705
000140 6a 8b b1 3e 0e 7e c5 bc dd 79 8f 3f 58 c4 f2 3e
       0.34676677 -0.02410796 1.1209065 0.47415423
000150 ec 37 80 be 09 76 3f 3f 0a c9 67 3e 0c c2 4a bf
       -0.25042665 0.7478948 0.22635284 -0.7920234
000160 74 8e 12 3e ac 68 21 be 10 6c e4 3d 28 7c a7 3e
       0.14312154 -0.15762585 0.11153424 0.3271191
000170 ec 42 38 bf 37 53 78 bf be 57 0e 3f 29 cd f9 3e
       -0.71977115 -0.97001976 0.55602634 0.48789337
000180 7d e5 19 c0 94 d7 37 be af 7f 3c bf 8d ed a6 3f
       -2.4046319 -0.1795333 -0.7363233 1.3041245
000190 f2 8e 76 3d 35 39 26 3c 04 e9 1c 40 ce 5c 06 40
       0.060194917 0.010145475 2.4517221 2.0994143
0001a0 86 6d 8d 3e e3 45 01 bf ee 5f c3 be 93 27 4c 3e
       0.27622622 -0.50497264 -0.38159126 0.19936971
0001b0 25 00 02 3f a6 da f2 bf 8e 75 60 3e 55 21 de be
       0.5078147 -1.8972976 0.21919844 -0.43384805
0001c0 5e 48 d0 3e 6e 27 55 3f 9f ad 88 bc 84 e3 a3 3f
       0.40680212 0.8326329 -0.016684351 1.2803807
0001d0 89 99 b9 3f 36 10 cd 3d 2b d8 ed 3d 81 79 62 3f
       1.449998 0.100128576 0.116134964 0.8846665
0001e0 27 ee fc 3e 9b d3 fb bd 1a 41 11 c0 f4 3e 03 40
       0.49400446 -0.1229622 -2.2695985 2.0507174
0001f0 17 60 a5 3e 83 65 16 3f 12 8c 96 3e 0e fa 44 3e
       0.32299873 0.58748645 0.2940374 0.19236013
000200 76 60 5a 3d 1c cb 97 3e ee 5f a6 3f 45 77 d7 bd
       0.05331465 0.29647148 1.2998025 -0.10520796
000210 26 e4 3d bf ab bf f2 3e 90 9e 5b 3f 68 a1 5b bf
       -0.7417625 0.47411856 0.8578882 -0.8579316
000220 98 68 3b bf 44 11 52 bf c6 55 18 3c 40 fc 11 c0
       -0.7320647 -0.82057595 0.009297794 -2.281021
000230 c0 e4 3c 3f 7d 59 29 be 60 c4 fa c0 c8 9b 97 3e
       0.73786545 -0.16538043 -7.8364716 0.2961104
000240 54 7a 37 c0 a2 09 58 bf 20 18 f4 be 85 e0 20 bf
       -2.8668413 -0.843897 -0.47674656 -0.6284259
000250 a0 2b 7d 3e 1c 51 99 3e 73 58 14 3e 85 31 57 3f
       0.24723673 0.29944694 0.14486866 0.84059936
000260 b5 79 c3 be 50 7e 99 bb 1e 39 27 bc 9c 74 f6 3e
       -0.38178793 -0.004684247 -0.010206489 0.4813584
000270 a6 73 f1 3e 6f 03 8b 3f 92 fc b5 3e 4e b5 34 be
       0.47158545 1.0860423 0.35544258 -0.17647287
000280 08 69 e6 be 24 6e 87 bd e4 e9 5c 3e 4b ed 6f 3e
       -0.45002007 -0.066128045 0.21573597 0.23430364
000290 25 4c 3c 3e ca 7a 98 3f f7 bb d7 be c0 90 34 bf
       0.18388422 1.1912472 -0.42135593 -0.7053337
0002a0 f1 c1 e2 3d 5c 81 bc bf c1 f6 b4 3e fd d2 ee be
       0.11072148 -1.4726977 0.35344508 -0.46645346
0002b0 94 f4 0b bf 41 34 33 be 98 37 a3 3e dc da 66 3f
       -0.5467007 -0.17500402 0.31878352 0.901777
0002c0 55 64 67 3d 74 d3 29 c0 9f 89 a2 be fd 2a 46 bd
       0.05649217 -2.653531 -0.31745622 -0.04838084
0002d0 80 1d b9 be 0a 0e bf 3e bd 29 f9 c0 10 bb d8 3e
       -0.3615532 0.37315398 -7.786345 0.42330217
0002e0 bd f9 4e c0 e4 66 fa bd 7c 7a db 3d 56 ff 56 bd
       -3.2339928 -0.12226656 0.107167214 -0.0524896
0002f0 85 82 7f bf 6e ec 54 bf 66 15 ad 3e ac 98 aa 3e
       -0.9980853 -0.83173263 0.33805388 0.33319604
000300 46 db 0b 3f 50 0d 0a 3e 3a 13 18 c0 9f 4a 1d bf
       0.5463146 0.13481641 -2.3761735 -0.6144199
000310 45 db d1 3e 06 bc 6b 3d a1 72 f4 be 1b d4 b1 3e
       0.40987602 0.05755236 -0.47743705 0.34732136
000320 9f 21 96 bf fa 3b 4e 3f 9c d5 59 bf ce b2 29 c0
       -1.172901 0.80560267 -0.8509157 -2.6515384
000330 4e e6 82 3f bd 5a 8b bf 71 2e 41 bf 1d 5e 22 3f
       1.0226533 -1.0887066 -0.7546149 0.63424855
000340 3f 24 03 3f e2 fe 8e 3e 0b aa 97 3f 44 41 aa 3e
       0.5122718 0.27928835 1.1848768 0.3325292
000350 ce 71 89 3d ec 68 75 3e c1 da 24 3f 0e 47 c2 bf
       0.0671116 0.23965806 0.6439629 -1.5177934
000360 e7 db f5 3e 3f 72 fd bd 1d ff 3c 3e 57 a1 4c be
       0.48019335 -0.12375306 0.18456693 -0.19983421
000370 62 d9 5a 3e ef cc 20 c0 4a 5c b7 be d7 33 bd be
       0.21371987 -2.5125082 -0.35812598 -0.36953613
000380 60 83 21 c0 d8 de c0 3f 97 3c 25 3f a0 cd 11 bd
       -2.5236435 1.5068007 0.6454558 -0.03559649
000390 a5 3e d1 3e 99 a5 d4 bf db d0 0e 3f 99 b2 80 3e
       0.40868106 -1.6613036 0.5578744 0.2513626
0003a0 01 1f 81 be 60 b2 90 bf f6 80 2b 3f f2 3b 79 3e
       -0.25218967 -1.1304436 0.66993654 0.24339274
0003b0 79 eb ff bd ba 1b 58 bf 95 e2 cd 3e a6 43 2a be
       -0.12496085 -0.8441731 0.4021193 -0.16627368
0003c0 73 a0 ee 3f b5 29 e0 3e 58 6c b1 3e 5c 82 b3 be
       1.8642715 0.4378182 0.34652972 -0.35060394
0003d0 8a ec 60 3e 28 94 55 3d 4a 2f bf be 14 e9 b0 bf
       0.21965232 0.052143246 -0.37340766 -1.382113
0003e0 a9 b7 ef 3e 42 da dc be 26 93 cb bf 44 22 ed bd
       0.4681981 -0.43135267 -1.5904281 -0.11578801
0003f0 6d 94 99 be c9 7d 0f 3f 33 ab 09 bf 4d 4a 8e 3f
       -0.29996052 0.5605131 -0.53776854 1.1116425

feature.4.bias f4 [64]
000000 f7 48 1a c0 e7 75 32 c0 8d f3 90 c0 87 60 57 bf
       -2.4107034 -2.7884462 -4.5297303 -0.84131664
000010 90 a7 87 c0 42 58 c5 c0 51 de 9a c0 eb 39 7d c1
       -4.2392044 -6.1670237 -4.839638 -15.82664
000020 d3 ec 8e c0 f3 0f 34 41 54 dd 02 c1 8f ba 8a c0
       -4.466409 11.253894 -8.179035 -4.3352733
000030 cd 2d 2b c1 d8 3e 9e c0 47 1c 18 c0 e5 8e ff bf
       -10.698682 -4.9451714 -2.376726 -1.9965483
000040 57 d6 48 3f 8f 73 fc c0 d0 8a 24 c1 74 62 a1 c0
       0.78452057 -7.8891063 -10.28389 -5.043268
000050 eb 55 84 c0 70 42 d7 c0 2a 16 73 3f 86 aa 3a bf
       -4.135488 -6.72686 0.94955695 -0.7291645
000060 61 72 a1 3f 86 af af bf c2 61 d1 c0 52 e6 83 3e
       1.2613031 -1.372544 -6.5431833 0.25761658
000070 5a 23 34 3e c0 49 0b c0 a3 7a 9a c0 ff 66 49 c0
       0.1759161 -2.1763763 -4.8274703 -3.1469114
000080 fb d4 3c c0 4d f0 a0 c0 35 0e 1e c0 25 d8 c7 c0
       -2.9504993 -5.0293336 -2.4696171 -6.245135
000090 27 1e 3e c1 2a 91 e0 c0 7e 8e b3 c0 7a 56 b6 bf
       -11.882361 -7.01772 -5.611144 -1.424514
0000a0 3c 0e 84 3f f2 e5 43 c1 6b ca f8 c0 75 70 e2 c0
       1.0316844 -12.243639 -7.774709 -7.0762277
0000b0 23 6f 3f c1 af 37 5d be 0f 11 8c 3e b5 49 dd bf
       -11.964633 -0.21603273 0.27356765 -1.7288119
0000c0 52 1a a1 bf 1a 7b 81 c0 ea a1 58 40 57 b2 d7 c0
       -1.2586157 -4.046277 3.3848825 -6.74052
0000d0 fe 0c 2d c0 4b 68 95 c0 9f d7 a6 c0 9c b9 1d c1
       -2.703918 -4.668981 -5.213821 -9.857815
0000e0 eb 18 ee bf 99 5b 97 c0 1b 8b 36 3f f4 2f 89 c0
       -1.8601354 -4.7299314 0.7130601 -4.2871037
0000f0 43 af bb c0 68 83 d7 bf 46 72 ad c0 04 dd 5b 40
       -5.8651443 -1.6836977 -5.4201994 3.4353647

feature.6.weight f4 [64]
000000 73 04 88 3f 50 a0 6b 3f c2 9d 00 3f ca af 87 3f
       1.0626358 0.9204149 0.5024072 1.0600522
000010 88 a3 9f 3f ea d8 42 3f 99 77 0f 3f f7 90 87 3f
       1.2471781 0.76112235 0.56041867 1.0591115
000020 44 d9 0d 3f 4f fb 2f 3f e6 93 a5 3f 6a a9 af 3f
       0.55409646 0.6874284 1.293576 1.3723576
000030 82 be 9d 3f 21 c8 ad 3f a5 cf ae 3f 05 d9 be 3f
       1.2323763 1.35767 1.3657118 1.4909979
000040 cd 2a 80 3f 23 68 4b 3f 14 70 42 3f bb 8e 94 3f
       1.0013062 0.79455775 0.7595227 1.1606058
000050 0f 6e 9f 3f d0 29 8e 3f 77 05 16 3f 92 c4 a9 3f
       1.2455462 1.110651 0.5860209 1.3263113
000060 3b cd 52 3f 3b 79 ad 3f 92 2d b2 3f 43 a0 36 3f
       0.82344407 1.3552622 1.3920157 0.7133829
000070 f3 a0 93 3f df ca 20 3f df 11 c2 3f 6e ef a4 3f
       1.1533493 0.62809557 1.5161704 1.2885568
000080 1b 37 7b 3f ac 7c ec 3e 94 ab 11 3f 99 af 66 3f
       0.9813096 0.46188867 0.5690243 0.9011169
000090 45 16 b6 3f 4e dd 1d 3f 63 0a 75 3f 7a 9d a9 3f
       1.4225546 0.6166581 0.95718974 1.3251183
0000a0 94 a7 1b 3f 53 97 72 3f cd 30 ba 3f 3a 83 9f 3f
       0.6080258 0.9476215 1.4546143 1.2461922
0000b0 6e de c2 3f e8 80 0b 3f 26 ee 14 3f 3b 31 cb 3f
       1.522413 0.5449357 0.58175886 1.5874399
0000c0 00 59 70 3f 93 1d bd 3f 2d 69 07 3f 9f 4f 7f 3f
       0.93885803 1.477465 0.5289486 0.9973087
0000d0 a6 85 f5 3e 70 c5 c2 3f 78 16 b5 3f 0f c8 cd 3f
       0.47953528 1.5216503 1.4147482 1.6076678
0000e0 2d db ab 3f a6 ff 4d 3f 2d 3f 2f 3f 0d f5 13 3f
       1.3426262 0.80468214 0.68455774 0.5779579
0000f0 0e 01 31 3f b9 f6 3a 3f 88 14 0b 3f b2 1c 4f 3f
       0.69142234 0.7303272 0.54328203 0.8090316

feature.6.bias f4 [64]
000000 9a 32 ef 3e 03 8a 50 3e fc 9f 20 bd 3e 42 df 3e
       0.46718293 0.20365147 -0.039215073 0.43605226
000010 b1 5b c4 3e f0 a8 ea 3d 32 27 94 bc 7f 9e 63 3e
       0.38351205 0.114580035 -0.018085096 0.2222843
000020 c0 27 30 bc 4a 7a 00 be 8a 37 a0 3e 6f f6 9a 3e
       -0.010751665 -0.1254665 0.31292373 0.3026614
000030 73 89 a0 3e 53 87 b4 3e e8 bd 06 3f 25 99 00 3f
       0.31354865 0.35259494 0.52633524 0.5023368
000040 e0 20 ab 3e 73 81 ee 3d 49 69 69 3c 5f 96 4b 3e
       0.3342352 0.11645784 0.014246293 0.19881581
000050 b4 d0 7e 3e c4 9e 7a 3e 8e 0c 88 be a4 03 a0 3e
       0.24884301 0.24474627 -0.26572078 0.31252778
000060 31 f0 ee 3d ac 5e f3 3e 75 a4 c3 3e 7d fe ba 3d
       0.116669066 0.47533166 0.38211408 0.09130571
000070 1a 3c 07 3f 26 e6 0e bd 02 cd ce 3e 4c 91 06 3f
       0.5282608 -0.034887455 0.40390784 0.52565455
000080 df 07 51 3e 51 ec d1 bc 9f 3b ce bd 89 01 ec 3d
       0.20413159 -0.02562538 -0.100699656 0.1152373
000090 bb 5f c5 3e a2 51 18 be 5b a1 61 3e 03 bd 95 3e
       0.385496 -0.1487489 0.22034208 0.29245767
0000a0 68 c1 00 bc 5b c2 60 3e fc a7 06 3f 10 99 a8 3e
       -0.007858612 0.2194914 0.52600074 0.32929277
0000b0 c3 d0 e2 3e 9c fc 46 3c c4 fd b4 39 3f a7 e7 3e
       0.44299898 0.012145188 0.00034521346 0.45244786
0000c0 f8 74 bd 3d a0 f3 b0 3e 59 38 dd 3c ed 67 41 3e
       0.09250826 0.3456087 0.027004408 0.18887301
0000d0 95 cd 9e bd 76 9e 10 3f 81 02 c5 3e 3a 77 dc 3e
       -0.077540554 0.5649179 0.38478473 0.43059713
0000e0 68 67 c7 3e 2c ad bb bc 86 9b 3e be cf f4 6d bd
       0.3894608 -0.022909723 -0.18614015 -0.058094796
0000f0 6a e1 b1 3d ce 22 0b be 4a 61 83 3d f5 f9 72 3e
       0.086855724 -0.13587496 0.06415041 0.23728164

feature.6.running_mean f4 [64]
000000 a3 a7 e3 40 ea ae 0f 40 33 bc 3f 3c c3 5a f1 40
       7.1142135 2.245051 0.011702585 7.5423293
000010 7d 32 18 40 7a fb 94 3f 6e 1a 66 3c 59 34 c5 3f
       2.3780816 1.1639245 0.014044387 1.54066
000020 b9 c9 95 3d 70 53 38 41 c7 58 0a 40 f2 23 c9 3f
       0.07313866 11.5203705 2.1616685 1.5714095
000030 ee d4 44 40 89 da 5e 40 31 50 2f 41 b4 80 99 40
       3.0754962 3.4820883 10.957078 4.796961
000040 1f 10 a0 40 d9 a4 67 3f 91 c6 b2 3f c6 f6 bf 3f
       5.001968 0.9048591 1.3966848 1.4997184
000050 21 ac e8 3f 59 e1 13 40 aa 1c d6 3f fd a4 86 40
       1.817753 2.3106291 1.6727498 4.20764
000060 de 48 16 40 ad 14 a7 40 ce 3a 92 40 ef 19 f7 3f
       2.3481975 5.221274 4.5696783 1.9304789
000070 19 77 92 41 97 ca 5b 3f 57 13 06 41 a7 4e d6 40
       18.308153 0.85856 8.379722 6.697101
000080 75 7d e3 3f 57 53 6b 3e f4 ca 31 3f d8 e1 be 3f
       1.7772661 0.2298101 0.69450307 1.4912672
000090 5a a3 a0 40 c3 2a cc bd a9 8e 3b 40 5d 72 5c 40
       5.0199404 -0.09969094 2.9305823 3.4444802
0000a0 6e 11 06 40 6e dc fe 3f cf 84 40 41 35 bd 10 40
       2.0948138 1.991102 12.032424 2.2615483
0000b0 b9 30 92 40 c9 e9 ae 3f 9c 73 20 40 5a a6 4c 41
       4.5684476 1.3665096 2.5070562 12.790613
0000c0 f7 86 6a 3f 3d 06 13 40 ef f2 82 40 df 2a 83 3f
       0.9161219 2.2972558 4.092155 1.0247458
0000d0 3f 28 ba 3d c2 93 14 41 5b fc 8c 40 6f 5a 83 40
       0.090897076 9.286074 4.405805 4.1047893
0000e0 12 ce 5c 40 9f ed dd 3e e0 e2 08 40 44 e2 4f 3f
       3.4500775 0.43345353 2.1388474 0.8120463
0000f0 32 e1 dc 3f 4c 40 18 3f b3 27 00 3f 53 47 3a 41
       1.7256224 0.5947311 0.50060576 11.642413

feature.6.running_var f4 [64]
000000 56 92 1a 43 10 59 77 42 88 e6 c3 3f ce c4 48 43
       154.57162 61.836975 1.5304728 200.76877
000010 d9 24 83 42 8a de 2f 42 22 2a 4e 40 9b 97 4c 42
       65.57197 43.967323 3.2213216 51.148052
000020 ce a6 f3 3f c6 ba a9 42 e6 45 8b 42 96 81 2e 42
       1.903528 84.86479 69.63652 43.62655
000030 59 8c cd 42 1c 32 13 43 c0 3a 15 44 9c 76 20 43
       102.77412 147.19574 596.91797 160.46332
000040 ac 4b af 42 3b a4 c5 41 69 fe 1e 42 55 c6 21 42
       87.6478 24.70519 39.748447 40.443684
000050 55 94 4d 42 06 05 81 42 08 ee 4c 41 db 87 fb 42
       51.394855 64.50981 12.808113 125.76534
000060 b2 a3 0c 42 a6 a0 19 43 47 58 88 43 fc 58 a0 41
       35.15986 153.62753 272.68967 20.04345
000070 ff 08 48 44 ef 26 20 41 13 5f 2b 44 1c 30 58 43
       800.14056 10.009505 685.48553 216.18793
000080 5b 8f 0f 42 40 91 5e 40 17 81 17 41 5e de ff 41
       35.889996 3.4776154 9.469016 31.983578
000090 2f f4 6d 43 78 f5 76 3f 87 e2 d8 42 96 8c db 42
       237.95384 0.96468306 108.44244 109.77458
0000a0 21 21 87 41 ee 0a 63 42 e0 aa 28 44 91 1b 86 42
       16.891176 56.760674 674.6699 67.05384
0000b0 05 31 46 43 47 fa 4a 41 c7 16 f4 41 35 e2 84 44
       198.19148 12.686103 30.511122 1063.069
0000c0 9d 0d 4b 41 c1 b4 c1 42 30 3e 1e 42 1b 94 ab 41
       12.690824 96.853035 39.56073 21.447317
0000d0 da f0 24 40 9f 68 ea 43 8c fe 5a 43 bf a0 31 43
       2.5772004 468.81735 218.99432 177.62791
0000e0 ce 7c e9 42 07 e5 e9 40 21 22 8c 41 c4 5e 17 41
       116.74376 7.3092074 17.516665 9.460636
0000f0 b7 87 1a 42 c0 c4 0b 41 3c 2d 56 41 c7 0e b5 43
       38.632534 8.735535 13.386044 362.11545

feature.8.weight f4 [32, 64]
000000 12 c9 f8 3d 30 4b 25 40 ab 3b 90 bf 89 a6 e7 bb
       0.12147726 2.582714 -1.1268209 -0.007069413
000010 fe fe 66 be 7d 43 11 40 f1 d7 4c bf 74 9f 93 3f
       -0.2255821 2.2697442 -0.80017 1.1533036
000020 4f 9d 71 bf 58 21 fa be ce 0d 2c 40 3a 69 d9 3f
       -0.9438066 -0.48853564 2.6883426 1.6985238
000030 96 27 e1 3f d7 c3 19 be a0 c3 32 be 75 17 28 bd
       1.7590206 -0.15016113 -0.17457438 -0.041037995
000040 e0 e5 a8 be d5 d6 a4 3e 25 93 53 3e b9 91 4a 40
       -0.3298788 0.32195154 0.206616 3.1651442
000050 37 f7 a7 3f c3 1f 3c 40 6c 12 0e 3f 4a 28 9e 3f
       1.3122319 2.9394386 0.5549686 1.2356045
000060 13 83 00 3e 4a 85 4f 3e 64 db 0b 3e 3f 35 d1 be
       0.12550001 0.2026569 0.1365791 -0.40860936
000070 40 93 99 3d 8a 41 fc 3f 6c ef 4d 3d 0c 58 bd 3d
       0.07498789 1.9707501 0.05027716 0.09245309
000080 8f 5a 4b 3d 2f c4 c8 bf ed 96 e5 be 8e b6 12 40
       0.04964691 -1.568487 -0.4484171 2.2923923
000090 95 f2 2f 3e 7d ca 99 bf 1b b9 2f 40 18 7f d0 3f
       0.17182381 -1.201492 2.745673 1.6288786
0000a0 8b 96 05 bf a1 4d 6b 40 c0 88 d5 3d 9c f6 ee 3d
       -0.52182835 3.676613 0.104264736 0.11668131
0000b0 c6 32 d1 bd 90 fe 79 bf 6b cf 04 bf dc d9 d9 bc
       -0.102147624 -0.97654057 -0.51878995 -0.026593141
0000c0 4c 6e 15 be 9d 1e 0c 40 5c 7f 7d bf bc ba b8 bc
       -0.14592856 2.1893685 -0.9902246 -0.02254998
0000d0 3a 39 9b bf ac 3f ac be c1 e6 93 40 da 7a 10 40
       -1.2126839 -0.33642328 4.621918 2.2574983
0000e0 49 f5 6c 40 fa 04 91 3f 8a 05 9c be 23 c1 34 bf
       3.702471 1.1329644 -0.30472976 -0.70607203
0000f0 eb a3 d5 3f fc 18 28 bf 74 4b f2 3f 5e 49 fd 3e
       1.6690649 -0.65663123 1.8929276 0.49470037
000100 aa 62 e2 3e 57 9e 74 3e f6 83 0b bd 2e 1e c0 bd
       0.442159 0.23888527 -0.034061395 -0.09380756
000110 bb 6a e9 bf 21 27 ee bf fe a3 f3 3e f5 5c 9c be
       -1.8235697 -1.8605691 0.47586054 -0.3053967
000120 5c 79 f1 be e4 d9 04 3f cf 7c 54 bf 02 4a 0b c0
       -0.47162902 0.51894975 -0.8300294 -2.176392
000130 78 94 7d bf df 81 b2 bd 80 59 f0 bf 08 ac 87 c0
       -0.9905467 -0.08716177 -1.8777313 -4.23975
000140 f9 bc 8f 3e 8d b8 e3 3e c1 e1 c8 bf df 10 2b c0
       0.28073862 0.4447674 -1.5693895 -2.6729047
000150 a9 25 6e 3f b4 4c 91 bf e5 db 41 3e 4d 3f 4f c0
       0.93026215 -1.1351533 0.1893154 -3.2382386
000160 19 ad e4 3d 2f a4 6d c0 59 fa 5e bd fe 0e 88 be
       0.11165828 -3.713146 -0.05443797 -0.26573938
000170 f1 be 48 bd 3c d5 f3 3e 68 2d 19 be d7 8a 04 c0
       -0.04901022 0.47623622 -0.14958727 -2.070974
000180 42 2d f3 be 64 3d 15 bf a8 92 8f 3e ae b7 df bf
       -0.47495466 -0.582968 0.28041577 -1.747793
000190 88 8c 25 bf e8 95 3c bf bf 41 ce bd 7c 78 31 c0
       -0.6466756 -0.7366624 -0.10071134 -2.7729788
0001a0 df f5 c1 bd 9f 35 49 c0 f2 18 8e bf 22 2d 01 3f
       -0.09470724 -3.1438978 -1.1101363 0.5045949
0001b0 af b7 77 bf c6 ce 56 3e 01 86 b4 be 68 b5 ec be
       -0.96764654 0.20977315 -0.35258487 -0.46232152
0001c0 c4 82 d2 3e e9 f3 f5 bf 5a 2a a4 3e 83 8e 23 3f
       0.4111539 -1.921506 0.32063562 0.6388933
0001d0 c2 f6 ce bd 93 a7 ff bf db 43 25 3e cb 48 52 bf
       -0.10105659 -1.9973015 0.16139166 -0.82142323
0001e0 78 11 9c be e1 45 a6 3f 61 00 29 3f a6 fa 0b c0
       -0.30482078 1.2990075 0.66016203 -2.1871734
0001f0 df d8 90 bf 38 5d c7 3e 9a ae 75 bf 8f 38 1d bf
       -1.1316184 0.38938308 -0.95969546 -0.61414427
000200 f6 9f 41 bc 19 75 ec 3e 09 37 a7 be ab 2b 03 bd
       -0.011817923 0.46183088 -0.32659176 -0.032024067
000210 20 f7 aa bd 53 86 a8 3e 3a 3c 5f bf 1d 7a e0 3d
       -0.083479166 0.3291498 -0.87201273 0.10960791
000220 8d b7 cb be 1d e7 9b bd 7d fa 41 be 67 1d 33 be
       -0.39788476 -0.07612441 -0.1894321 -0.17491685
000230 61 1a 2a be dd 2e 6f bd c1 3d 45 c0 de f0 ee bd
       -0.16611625 -0.0583943 -3.0818942 -0.116670355
000240 f8 2a 07 3e 6c 5a 1f 3e c5 8a b2 bf cb d4 6b 3e
       0.13199985 0.15561837 -1.3948599 0.23030393
000250 2b b5 3a be 40 9e 69 3e 92 97 e6 3d 96 e2 50 bd
       -0.18233173 0.22814274 0.112593785 -0.05099734
000260 e8 89 1e be 81 d0 ff 3d 21 e7 7c bc 26 57 6e 3e
       -0.15482295 0.12490941 -0.015435965 0.23275432
000270 b8 91 63 bd ea 36 32 3f ba 2a a7 3d 22 65 b1 3d
       -0.05555889 0.6961504 0.08162446 0.08661868
000280 ae d1 b6 bb a8 44 ce be cf 35 96 bf 4a e6 a4 3e
       -0.005579195 -0.40286756 -1.1735171 0.32206947
000290 7d 6e fe bf ab 10 e6 bd ca 00 1b 3e 94 4a 29 3d
       -1.9877468 -0.11233648 0.1513702 0.04133089
0002a0 13 83 19 3f d9 de 6e 3e 4a 80 0e c0 45 ea 5b bd
       0.5996563 0.23327197 -2.2265801 -0.053690214
0002b0 cd 43 0a c0 3b 6f f5 be 39 43 c1 bf a6 f8 74 bd
       -2.1603882 -0.47936425 -1.509864 -0.059807442
0002c0 14 40 26 3e f1 b6 53 bd 6a 74 95 bd b0 34 86 3e
       0.16235381 -0.05168814 -0.07297595 0.26212072
0002d0 b5 4f 0b bf 2d 67 21 c0 81 2c 2b b9 d6 ee cc bd
       -0.544185 -2.5219223 -0.0001632441 -0.10006492
0002e0 5b 04 61 3d 24 82 a2 3d ad b6 9c 3e ae eb 3a be
       0.054935794 0.079349786 0.3060812 -0.18253967
0002f0 e1 b1 38 3c c6 29 cf be 6d 09 34 3f 8d d7 fe bf
       0.011272878 -0.40461558 0.7032688 -1.9909531
000300 36 90 b3 bd 0e 54 9d 3b 9e 88 f3 bd c7 76 07 be
       -0.087677404 0.00480128 -0.11891292 -0.13228904
000310 1e d4 86 bd aa b7 1c bf 58 70 01 3f b0 52 e3 bf
       -0.06583427 -0.6121775 0.5056205 -1.7759609
000320 66 af f8 3e 19 39 bf 3f a5 cf 28 bf e0 58 99 bf
       0.48571318 1.49393 -0.6594184 -1.1980247
000330 e9 83 cc bf fa b4 6e c0 4e 64 47 be 3a 8b ab bc
       -1.5977756 -3.729796 -0.19471857 -0.020940412
000340 10 38 24 3d d4 9d 44 bf 51 a6 a2 bf f3 35 0c 3e
       0.040092528 -0.76803327 -1.2707006 0.13692455
000350 40 c7 e6 3d ad 4d 15 bf 6b cc 01 3e f4 20 5c be
       0.11268473 -0.5832165 0.12675636 -0.21496946
000360 34 ab 8f be 3d c7 23 be 77 42 83 c0 e9 19 23 3e
       -0.28060305 -0.15993972 -4.1018634 0.15927853
000370 cb 8b 3e be cc c2 22 be 66 6e 84 c0 80 36 85 be
       -0.18608014 -0.15894622 -4.1384764 -0.26018143
000380 f1 22 c0 bd 7b 0c 94 be c0 a8 45 3f 44 14 4d be
       -0.093816645 -0.28915772 0.7721062 -0.20027262
000390 d4 f0 82 3e 14 f6 6e bf 5f d4 24 be 35 ea 92 bd
       0.25574362 -0.93344235 -0.16096638 -0.07173578
0003a0 fa a1 3d 3e 28 3d 52 bf 19 39 31 3d 85 28 39 c0
       0.1851882 -0.8212457 0.043267343 -2.893098
0003b0 bf 9d d3 3d 02 1e 21 3f 18 e0 46 3f 45 7b 82 c0
       0.10332822 0.62936413 0.7768569 -4.0775476
0003c0 04 d2 d3 be a7 84 eb bf 88 49 8f 3f 56 ee 33 c0
       -0.41371167 -1.8399857 1.1194315 -2.8114219
0003d0 da 63 3d 3d 96 1f a8 bd 3e f9 0f be b4 ee ad bf
       0.046237804 -0.082091495 -0.14059922 -1.3588471
0003e0 6f ab 70 3d 48 0f 94 3b f0 5c d0 be 82 e6 70 3e
       0.05875724 0.004518423 -0.40695906 0.23525432
0003f0 c3 61 b9 be a1 de ea 3e e5 1a 9b bf ac 8d 21 3e
       -0.362074 0.45872977 -1.2117583 0.157767

feature.8.bias f4 [32]
000000 b6 1c 4d 41 0f 7d 35 40 f1 35 8e 41 51 3d 7f 41
       12.8195095 2.835758 17.776339 15.95247
000010 ba c6 ce 40 45 f5 84 41 92 c9 2a 41 78 ae a6 40
       6.4617586 16.61976 10.6742115 5.2087975
000020 cc e5 40 c0 9c 2f d4 40 7f 1a e4 40 fc 23 bb 40
       -3.0140257 6.6308117 7.1282344 5.8481426
000030 36 8d 85 41 cd 82 44 41 31 9a 25 41 ae 8d 5e 41
       16.69395 12.281934 10.350144 13.90959
000040 24 97 45 41 b6 dd a5 40 3e 1a 11 41 f2 a6 8e 41
       12.3494 5.1833143 9.068907 17.831516
000050 a6 88 7f 41 b0 51 8d be 60 84 7c 41 49 4a a6 40
       15.970861 -0.27601385 15.782318 5.196568
000060 b1 be 5e 40 2d 41 9e 40 85 55 76 41 ec 64 0c 41
       3.4803889 4.945456 15.395879 8.774639
000070 88 1d 4c 41 85 e3 1c 41 1a e0 92 41 c1 2b 7f 41
       12.75721 9.805547 18.359425 15.948182

feature.10.weight f4 [32]
000000 43 30 e0 3f a1 8d 49 3f 33 30 93 3f d7 d8 8a 3f
       1.7514728 0.78731734 1.1499084 1.0847424
000010 fc 57 9c 3f 26 90 91 3f e1 87 6a 3f 62 ba 3d 3f
       1.2214351 1.1372116 0.91613585 0.7411252
000020 f3 be c5 3f 54 74 61 3f 28 be 64 3f d0 73 5c 3f
       1.5448898 0.8806813 0.89352655 0.86114216
000030 ad 7c 8b 3f 4d f8 da 3f 19 e0 66 3f 2f 3f ad 3f
       1.0897423 1.7107025 0.90185696 1.3534907
000040 cf 4d e1 3f 24 39 4a 3f f7 06 78 3f d7 1f 8f 3f
       1.760187 0.7899344 0.9688563 1.1181592
000050 f4 31 87 3f 5a 80 8c 3f 77 fe 8f 3f 65 eb 4b 3f
       1.056212 1.097667 1.1249532 0.7965606
000060 d6 be 98 3f c5 53 42 3f 31 74 5d 3f ad 60 65 3f
       1.1933239 0.7590907 0.8650542 0.8960064
000070 ee 33 e3 3f 8f 8b 5b 3f f3 94 91 3f 3a 37 8d 3f
       1.7750223 0.85759825 1.1373581 1.1032479

feature.10.bias f4 [32]
000000 4f 4d 3f 3f 0e 1d 43 be fb a1 c2 be f6 bb b1 be
       0.7472734 -0.19054052 -0.38014206 -0.34713715
000010 1a 9c d3 3e 3c 5f af be 1a 39 01 bf bf 5c ae be
       0.41330034 -0.34252346 -0.50477755 -0.34055135
000020 17 51 19 3f 07 4f 28 be 25 4f d8 be aa 48 bb be
       0.5988936 -0.16436397 -0.42247882 -0.36578876
000030 53 05 c3 be 9b e7 37 3f 96 7a 00 bf 7f 1f eb bd
       -0.3809 0.71837777 -0.5018705 -0.11480617
000040 fb 75 41 3f f8 63 bb be 3b 27 1e be e4 f4 cf be
       0.7557065 -0.36599708 -0.15444653 -0.40616524
000050 03 12 b5 be 15 34 19 3e 69 95 cb be c9 60 99 be
       -0.35365304 0.14961274 -0.39762428 -0.29956654
000060 45 4b c5 3e ce bd c7 be 15 89 d4 be 14 23 f7 be
       0.3853399 -0.39011997 -0.41510835 -0.4826895
000070 41 99 3f 3f 0a 58 da be 59 b6 be be 33 c6 b5 be
       0.7484322 -0.42645293 -0.37248495 -0.35502777

feature.10.running_mean f4 [32]
000000 34 3c cf 41 a7 16 47 40 56 d7 72 41 0e 8b 48 41
       25.904396 3.1107576 15.177572 12.533949
000010 83 35 2b 41 05 79 60 41 94 27 ed 40 d5 35 8d 40
       10.700564 14.029546 7.4110813 4.4128213
000020 c5 6b 3c 41 cd 39 00 41 af 7e ba 40 35 31 9c 40
       11.776311 8.0141115 5.8279643 4.8810067
000030 50 ee 64 41 1c 44 c8 41 7f 25 e6 40 bc 5b 45 41
       14.308182 25.033257 7.192077 12.334896
000040 13 4b c7 41 b7 39 8e 40 eb 6b 20 41 06 fd 73 41
       24.911657 4.4445453 10.026347 15.249273
000050 31 37 48 41 c4 bf d6 40 13 a7 48 41 86 06 90 40
       12.513474 6.710909 12.54079 4.5007963
000060 33 b2 11 41 1b 5a 88 40 2b 81 45 41 05 5d c3 40
       9.106006 4.260999 12.344035 6.105105
000070 65 62 cc 41 36 be d8 40 54 2a 7c 41 1f 54 47 41
       25.548044 6.773219 15.760334 12.458037

feature.10.running_var f4 [32]
000000 e7 a7 7a 44 c5 ba a7 41 aa 02 9b 42 78 25 a1 42
       1002.6235 20.966196 77.5052 80.57318
000010 4d f8 1a 43 27 de 90 42 ba 06 51 42 c2 01 20 42
       154.96992 72.43389 52.25657 40.001717
000020 93 77 0a 44 b5 2c 90 42 2f 4e 1f 42 5e 6e 15 42
       553.86835 72.08732 39.82635 37.35778
000030 2a e7 93 42 f5 68 75 44 1b 47 53 42 b0 aa 88 42
       73.95149 981.63995 52.81944 68.333374
000040 4c 32 61 44 08 c6 23 42 07 39 a4 42 8e 35 9c 42
       900.7859 40.94339 82.11138 78.1046
000050 f4 93 a1 42 5a 61 d4 42 84 dd a2 42 bc 3b 1c 42
       80.78897 106.19014 81.43265 39.058334
000060 f6 b2 6a 43 94 db 14 42 ab 1d 9f 42 82 92 30 42
       234.69907 37.21443 79.557945 44.143074
000070 41 ce 76 44 c2 a3 45 42 ff f5 9d 42 b1 f0 9f 42
       987.2227 49.40992 78.98046 79.9701
