Exploratory data analysis/relumodel4.pt (torch, 92322 bytes, 27 tensors)

feature.0.weight f4 [128, 65]
0	0xbccd7a18	-0.025082633
1	0x3d2259ee	0.039636545
2	0xbfbc9d51	-1.4735509
3	0x3d0d9907	0.034569766
4	0x3f95efdc	1.1713824
5	0xc13bf958	-11.748375
6	0x412c001f	10.75003
7	0x411fd061	9.988374
8	0x3e07af21	0.132504
9	0x3c93350f	0.017969636
10	0x3dd372ae	0.10324608
11	0xbdd6cc63	-0.104882024
12	0x3f4273b6	0.7595781
13	0xc0afbd4f	-5.491859
14	0xbf26bae0	-0.651289
15	0xc188bc72	-17.092014
16	0xbe222db0	-0.15837741
17	0xc10557ca	-8.333933
18	0x3f5fa304	0.8735812
19	0xc0d2c770	-6.5868454
20	0x3fb2fe38	1.3983831
21	0xc0d6274c	-6.692297
22	0x414f7949	12.967111
23	0x417c659d	15.774808
24	0x415d5b04	13.834721
25	0x41ec6937	29.551374
26	0xbfaef5e4	-1.366879
27	0x3cb1baaf	0.021695463
28	0xbbab26f8	-0.0052231513
29	0x3ddb125c	0.10696861
30	0x3dfb3ef8	0.1226787
31	0xbe0580f5	-0.13037474
32	0x3ab5cc47	0.0013870083
33	0x3d2d6678	0.04233405
34	0xbe1635ab	-0.1466891
35	0xbdb2d957	-0.087328605
36	0x3d34fa07	0.044183757
37	0x3de80f0a	0.113309935
38	0xbe4cd3c7	-0.20002662
39	0xbe8f9f91	-0.28051427
40	0x4004a838	2.0727673
41	0x3934a8f0	0.00017229072
42	0x3e3969ab	0.18106715
43	0x40bde98d	5.9347596
44	0x40afb143	5.4903884
45	0x40170b13	2.360051
46	0x4114a65e	9.290617
47	0x40db34de	6.8502035
48	0x408c5f7e	4.3866568
49	0x40fd96b1	7.924645
50	0x40c67a70	6.202446
51	0x40bcbc9f	5.898025
52	0x40c2cf44	6.087801
53	0x40b4a54b	5.6451774
54	0x40b1e551	5.5592427
55	0x40d83aee	6.7571936
56	0x409f0293	4.969064
57	0x40f03809	7.50684
58	0x4090ecd7	4.528911
59	0x3fe1938f	1.7623156
60	0x411a79ed	9.654767
61	0x4083ab61	4.1146703
62	0x40ef94cf	7.486915
63	0x408c3501	4.38147
64	0x41186e2f	9.5269
65	0x3a781e34	0.000946495
66	0xbdaff0d4	-0.08590856
67	0x3ef4b567	0.4779465
68	0xbd4278da	-0.047478534
69	0xc085a282	-4.1760874
70	0x406f8ef5	3.7431004
71	0x414bf8f5	12.748281
72	0x413f5d82	11.960329
73	0xbdf6a878	-0.120438516
74	0x3df07e67	0.11742859
75	0x3c7088b3	0.014681029
76	0x3d60fce8	0.05492869
77	0x4061d8b8	3.5288525
78	0xc19b0a49	-19.380022
79	0x4097bbaa	4.741658
80	0x4144a9a9	12.291421
81	0x3fec740f	1.8472918
82	0x3fb5fdb2	1.4218047
83	0xbfd7a905	-1.6848456
84	0x4064a3db	3.572501
85	0xbf323902	-0.69618237
86	0x40c222d7	6.066753
87	0x41820353	16.251623
88	0x415f78de	13.967009
89	0x414da077	12.851676
90	0xc1f2f2a6	-30.36848
91	0xc0e4c582	-7.14911
92	0x3d088da2	0.033338197
93	0x3d477804	0.04869844
94	0x3e355a31	0.17710187
95	0xbdb8fe84	-0.0903292
96	0x3df078bf	0.117417805
97	0x3b9c0a5f	0.0047619785
98	0xbd23faca	-0.040034093
99	0xbc880aaf	-0.016606657
100	0xbd78579b	-0.060630422
101	0xbc33e807	-0.010980613
102	0xbd803358	-0.06259793
103	0x3e05b6be	0.13057992
104	0xbf74a8d2	-0.955701
105	0xc142a2eb	-12.164775
106	0xbf776e24	-0.96652436
107	0xc0dee8b0	-6.965904
108	0x40b56d81	5.669617
109	0x4119cb38	9.612114
110	0x40c7be0c	6.241949
111	0x411b43ec	9.7040825
112	0x4116b983	9.420291
113	0x40cb2bd6	6.349101
114	0xbf3e0235	-0.7422212
115	0x41599ff9	13.601556
116	0x40cc93e1	6.3930516
117	0x4113a3f9	9.227532
118	0x40c1f186	6.060733
119	0x411940dc	9.578335
120	0x40c1c6f0	6.0555344
121	0x4127f9ac	10.498455
122	0x41282769	10.509622
123	0x408d4597	4.414745
124	0x3ff8c012	1.9433615
125	0x41451e29	12.319863
126	0x41057ba4	8.342686
127	0x40f55a4b	7.667272
128	0xc0ea388a	-7.3194017
129	0x417e229f	15.883452
130	0xbc081f42	-0.008308234
131	0x3c35eb20	0.011103421
132	0xc093220b	-4.5979056
133	0xbe8ed24b	-0.27894816
134	0xc08854ce	-4.260352
135	0xc0e6d619	-7.213635
136	0xc0963f42	-4.695222
137	0xbff2fd0e	-1.8983476
138	0xbdf4ad68	-0.11947137
139	0xbd955366	-0.072912976
140	0xbc24e695	-0.010064741
141	0xbd598273	-0.05310292
142	0xbeb84acb	-0.35994563
143	0x3ea757e8	0.32684255
144	0x403d552f	2.9583242
145	0xc14fb0fb	-12.980708
146	0x40045f1e	2.0683055
147	0xc0d87af1	-6.7650075
148	0xbee59a26	-0.44844168
149	0xbcd2e659	-0.025744604
150	0xbfb10a95	-1.3831354
151	0x413fcf6e	11.988142
152	0xc1d82f37	-27.023054
153	0xbfadb0d5	-1.356959
154	0xc1024099	-8.140771
155	0x424e592c	51.587082
156	0xc1041896	-8.256002
157	0x3d6a8752	0.057257958
158	0x3d432ebe	0.047652
159	0xbe3d2e19	-0.18474616
160	0x3dbed7d0	0.09318507
161	0x3e12be8b	0.14330499
162	0x3cdd65d7	0.0270261
163	0x3c6b1a52	0.014349537
164	0x39f00d90	0.00045786472
165	0x3c3b1509	0.011418589
166	0x3c89fc16	0.016843837
167	0x3dd3de9c	0.10345194
168	0x3dc40b4d	0.09572468
169	0xbfa23847	-1.2673424
170	0x3f477870	0.7791815
171	0xc0143d6b	-2.3162487
172	0xc0a71528	-5.2213326
173	0xc0a2a2bb	-5.0823646
174	0x3fdae9b7	1.7102574
175	0xbf0d2dde	-0.5514811
176	0xc028a386	-2.6349807
177	0xbfe73763	-1.8063778
178	0xbfcf067e	-1.6173856
179	0xc0556fd8	-3.3349514
180	0xbf9ab9ec	-1.2087989
181	0xc0a9edcf	-5.3102794
182	0x3fc6ba2f	1.5525569
183	0xc03e6990	-2.975193
184	0xbd282296	-0.04104861
185	0xbf67ed40	-0.9059639
186	0xc042dc10	-3.0446815
187	0xbffb60e3	-1.9638942
188	0xbffaa980	-1.9582977
189	0xc06f964c	-3.7435484
190	0x3ead2c11	0.33822682
191	0xc0145caf	-2.318157
192	0xbf66546c	-0.8997257
193	0xc0b16d3f	-5.5445857
194	0xbedd5a9c	-0.43233192
195	0x3c5005fe	0.012696741
196	0x3e910273	0.2832218
197	0x40a7922a	5.2365923
198	0xbe463475	-0.19355948
199	0xc0d377da	-6.6083803
200	0x42523659	52.553074
201	0x410b6af1	8.713609
202	0x41028f5c	8.16
203	0xbdddeb7f	-0.10835933
204	0x3e6d7d8f	0.23192428
205	0x3daf2e28	0.085537255
206	0x3d5cb256	0.053881012
207	0x4022ddd3	2.544789
208	0x419a8713	19.315954
209	0x419be9f9	19.489244
210	0x41e1bcb1	28.217134
211	0xbf37601f	-0.71631044
212	0x3e51418d	0.20435162
213	0x3e745657	0.23861061
214	0xbf973ff1	-1.1816388
215	0xbf00da88	-0.5033345
216	0x40298f28	2.6493626
217	0x40c4f0cb	6.1543937
218	0x410007b0	8.001877
219	0x4107e431	8.493211
220	0x410bd674	8.739857
221	0xc0bc45a6	-5.883502
222	0xbd7a5ec8	-0.061125547
223	0x3f376a4c	0.7164657
224	0x3d0d7a13	0.034540247
225	0xbf9f8cce	-1.2464845
226	0x3dda1770	0.106490016
227	0xbfb4e5e1	-1.4132653
228	0xbe768b06	-0.2407647
229	0x4103c88b	8.236461
230	0xbdab8487	-0.08374887
231	0x3eb2de9f	0.3493547
232	0xbe478631	-0.19484784
233	0xc002ba2b	-2.0426128
234	0x3df5fcc9	0.120111056
235	0x3fc6ef98	1.5541868
236	0xc1347a4d	-11.279859
237	0xc0e1edf6	-7.060298
238	0x41220170	10.125351
239	0x3bea930f	0.007158644
240	0x4126a9cd	10.416455
241	0xbfe98814	-1.8244653
242	0xc0b30ce9	-5.595326
243	0x415e2604	13.884281
244	0x40bead2d	5.9586396
245	0x40a1595a	5.042157
246	0x40b9ee9f	5.8103786
247	0x4089aeea	4.302602
248	0x40d85fe6	6.7617064
249	0x40316151	2.7715647
250	0x40a2c2e0	5.0862885
251	0x409c941c	4.8930798
252	0x4108ac90	8.5421295
253	0xbe996cec	-0.29965913
254	0x40027a95	2.0387318
255	0x40e4fb1e	7.155654

feature.0.bias f4 [128]
0	0x41626f46	14.152166
1	0x4153c6a8	13.236
2	0xc11c4007	-9.765632
3	0x4106bb6e	8.420759
4	0xbfe94572	-1.8224318
5	0xbea80eea	-0.3282388
6	0x3e982211	0.2971349
7	0xc099133e	-4.783599
8	0xc100900d	-8.035169
9	0x3ec002eb	0.37502226
10	0x40d442ec	6.633169
11	0x412a80d9	10.656457
12	0x3f062185	0.52394897
13	0xc0ac35e7	-5.38158
14	0xc0d5f34d	-6.68595
15	0xc172a9c2	-15.166445
16	0x414397a4	12.224522
17	0x3fd47fe6	1.6601532
18	0xc07e7428	-3.9758396
19	0xc084e486	-4.152896
20	0x40d8a890	6.7705765
21	0xc11609fa	-9.377436
22	0xbed610a6	-0.41809577
23	0x3f63587b	0.88806885
24	0xc126cbde	-10.424772
25	0x4118be64	9.546482
26	0xc087d160	-4.2443085
27	0x3f76ecef	0.9645528
28	0xc0c634a7	-6.1939273
29	0xc098f27e	-4.779601
30	0x40a4792a	5.1397905
31	0x3f8ff9b0	1.1248074
32	0xc1009f61	-8.038911
33	0x3eaaf9d3	0.33393726
34	0x414929a1	12.572663
35	0xc1140df2	-9.253405
36	0xbfe74142	-1.806679
37	0x40cac43b	6.336454
38	0x40972425	4.723162
39	0xc0b94e2a	-5.7907915
40	0xc11e6d67	-9.90171
41	0xbfb2b320	-1.3960915
42	0x3ed9e3a7	0.42556497
43	0x401744c3	2.363572
44	0xc0af9c0a	-5.4877977
45	0x3fa4c990	1.2874012
46	0xc1303b0e	-11.014418
47	0x40b28d7e	5.579772
48	0xc00d1469	-2.2043707
49	0x4062c284	3.5431223
50	0xc0d7534e	-6.728919
51	0xc123bac2	-10.233095
52	0x3e4fcb28	0.20292342
53	0xc145a695	-12.353169
54	0x409e540a	4.9477587
55	0x41326035	11.148488
56	0x4045f301	3.0929568
57	0x4190bc41	18.09192
58	0xc115dee0	-9.366913
59	0xc18a87fd	-17.3164
60	0xc0cd9b8e	-6.4252386
61	0x41467f38	12.406059
62	0xc0167621	-2.35096
63	0xbf5e4597	-0.86824936
64	0x417d5a79	15.834588
65	0x405d7259	3.4601042
66	0x40599d53	3.4002273
67	0x411d10f5	9.81664
68	0xc16e85fc	-14.907711
69	0x41130e5a	9.191004
70	0x411785f6	9.470205
71	0x414100aa	12.062662
72	0x3d656531	0.056004707
73	0xc089ab0b	-4.3021293
74	0xbfe63e47	-1.7987756
75	0xc0fc765a	-7.889447
76	0xc0cea0e4	-6.45714
77	0xc10eb89f	-8.9200735
78	0x4193e6c7	18.487684
79	0x4033bf79	2.8085616
80	0xc0c286e6	-6.078967
81	0xc0dced80	-6.9039917
82	0xc0d990a4	-6.7989063
83	0x3f98b6fa	1.193084
84	0xc11d5c27	-9.834998
85	0x411b4e95	9.706685
86	0x40a02a4d	5.0051637
87	0x3f04b791	0.518426
88	0x40f17690	7.545723
89	0x3fab40c7	1.3379143
90	0xbfb2e617	-1.3976468
91	0x3f112164	0.56691575
92	0x4078498d	3.8794892
93	0x4080b074	4.0215397
94	0xbee9fb82	-0.45699698
95	0xc0ebc80f	-7.368171
96	0xc0fb73d8	-7.857891
97	0x3fca3229	1.5796558
98	0xc1021f63	-8.132663
99	0xbfac43f2	-1.3458235
100	0xc061e23b	-3.529433
101	0x416095a8	14.036537
102	0x4087754b	4.233068
103	0xc08edbde	-4.4643393
104	0x4045b804	3.0893564
105	0x4185f688	16.745377
106	0xc0336c17	-2.8034723
107	0xc05eca5a	-3.4811006
108	0xbd8a3deb	-0.06750091
109	0x407a4cdd	3.9109414
110	0x3f4f12cd	0.8088806
111	0x414bf734	12.747852
112	0x40f96fcd	7.7948976
113	0xc0e93ba1	-7.288529
114	0x3f166156	0.5874227
115	0x4108b7b1	8.544847
116	0x412e6d7f	10.901732
117	0x40da0d53	6.8141265
118	0x40ecea68	7.403614
119	0xc1543619	-13.263207
120	0xc0dfb1d6	-6.9904585
121	0x40809d8d	4.0192323
122	0xc031833e	-2.7736354
123	0xc095773c	-4.670805
124	0x3fe97c01	1.8240968
125	0xc1397fd8	-11.593712
126	0xc0b30d2f	-5.5953593
127	0x411241c0	9.141052

feature.2.weight f4 [128]
0	0x3f5af488	0.85529375
1	0x3fa95134	1.3227906
2	0x3f880473	1.0626358
3	0x3ed72011	0.42016652
4	0x3f9218bd	1.14138
5	0x3f39427e	0.72367084
6	0x3fc34cb4	1.5257783
7	0x3faf08cc	1.367456
8	0x3ffb2d82	1.9623263
9	0x3ef42356	0.4768321
10	0x3fbd67cc	1.4797301
11	0x3f2b549c	0.6692598
12	0x3f45577d	0.7708662
13	0x3f63d9cb	0.890042
14	0x3f6757c8	0.9036832
15	0x3f21f687	0.63266796
16	0x3f400789	0.750115
17	0x3f393df7	0.72360176
18	0x3f34be38	0.7060275
19	0x3faec765	1.36546
20	0x3fd0e770	1.6320629
21	0x3f3c85e6	0.7364181
22	0x3fe6de10	1.8036518
23	0x3fa3c756	1.2795208
24	0x3fe7ff34	1.8124757
25	0x3fc3f3f9	1.530883
26	0x3f290336	0.66020525
27	0x4000ca89	2.0123618
28	0x3f696ef3	0.9118492
29	0x3f9a8ad1	1.2073613
30	0x3f28de6d	0.65964395
31	0x3f843125	1.0327498
32	0x3fcb7cc8	1.5897455
33	0x3f127795	0.5721372
34	0x3fd323ee	1.649534
35	0x3ee68aa4	0.4502765
36	0x4000915b	2.0088718
37	0x3e9c04a0	0.3047228
38	0x3f26b7b8	0.6512408
39	0x3f4d881b	0.80285805
40	0x3f80a692	1.0050833
41	0x3f99e6f0	1.2023602
42	0x3f13a008	0.57666063
43	0x3fd2e0c0	1.6474838
44	0x3f3eabf0	0.74481106
45	0x3ff2b838	1.8962469
46	0x3fc9d108	1.5766916
47	0x3fd8c8fa	1.6936333
48	0x3f70e048	0.94092226
49	0x3fa13024	1.2592816
50	0x3fae1564	1.3600278
51	0x3f2cbfa1	0.674799
52	0x3fbd55e3	1.4791836
53	0x3f84160c	1.0319228
54	0x3f1fc5ce	0.624112
55	0x3f48dcf2	0.78462136
56	0x3facf718	1.3512907
57	0x3f5f1aa9	0.87150055
58	0x3f3f46df	0.74717516
59	0x3f180812	0.59387314
60	0x3f9137fb	1.1345209
61	0x3f03ab69	0.51433426
62	0x3fcd7296	1.6050594
63	0x3f98591b	1.1902193
64	0x3f928e80	1.1449738
65	0x3faee9c3	1.3665088
66	0x3fa2ef37	1.2729253
67	0x3f7aefcb	0.98022145
68	0x3f8f1a68	1.1179934
69	0x3f510c4f	0.81659406
70	0x3fc9f823	1.577885
71	0x3ff1efbe	1.8901289
72	0x3f45fd24	0.77339387
73	0x3ffe4f91	1.9868032
74	0x3f38863a	0.72079813
75	0x3fa0ef01	1.2572938
76	0x3fbb0c58	1.4613142
77	0x4002e699	2.0453246
78	0x3fe3a660	1.7785149
79	0x3f9bef92	1.2182486
80	0x3f5bfd07	0.85932964
81	0x3fae8e39	1.3637153
82	0x3fc36300	1.5264587
83	0x4025a080	2.5879211
84	0xbf4fdb8c	-0.81194377
85	0x3fad11a4	1.3521008
86	0x3fb42dbc	1.4076457
87	0x3ff0e52f	1.8819941
88	0x3f25c15b	0.6474816
89	0x3f125f18	0.5717635
90	0x3f86842b	1.0509084
91	0x3f4ddfc8	0.8041959
92	0x3f99ad98	1.2006102
93	0x3fb0dcd0	1.3817387
94	0x3f935ead	1.1513268
95	0x3f4d70e7	0.802504
96	0x3f25a3d1	0.6470309
97	0x3f44b568	0.76839304
98	0x3fe82e41	1.8139116
99	0x3f914455	1.1348978
100	0x3fc533be	1.5406415
101	0x3f56e27f	0.83939356
102	0x3f8d231f	1.1026343
103	0x3f48df93	0.7846615
104	0x3e8fd3fd	0.28091422
105	0x3ffada6b	1.9597906
106	0x3fc1a32e	1.5127923
107	0x3fb66419	1.4249297
108	0x3fcce869	1.6008426
109	0x3f950dc0	1.1644821
110	0x3f0b8246	0.54495656
111	0x3f7eee6a	0.9958254
112	0x3fb08911	1.3791829
113	0x3fbb1451	1.4615575
114	0x3fb60f0b	1.4223341
115	0x3f289aac	0.6586101
116	0x3f510a59	0.81656414
117	0x3f61192e	0.87929046
118	0xbf953d24	-1.1659284
119	0x3f42ff61	0.7617093
120	0x3fe1c986	1.7639625
121	0x3f338530	0.70125103
122	0x3f436e37	0.7634005
123	0x3fbea2a2	1.4893382
124	0x3f8b282f	1.0871638
125	0x3f2e4959	0.6808067
126	0x3f8498a8	1.0359087
127	0x3fd5741f	1.6676062

feature.2.bias f4 [128]
0	0x3ef06987	0.4695551
1	0x3f08d102	0.5344392
2	0x3f32cc51	0.6984301
3	0x3e14152d	0.14461203
4	0x3e9249a1	0.285718
5	0x3e2d49bd	0.1692266
6	0x3eb79783	0.35857782
7	0xbe9400cd	-0.2890686
8	0x3f0610ad	0.52369195
9	0x3d7bad81	0.061444763
10	0x3ebf3a8a	0.3734935
11	0x3f02d4ee	0.51106155
12	0x3d744adc	0.059641704
13	0x3ec7c0b7	0.39014217
14	0x3eb45bf1	0.35226396
15	0xbb1aefc1	-0.002364144
16	0x3f0b34e8	0.54377604
17	0x3e641c37	0.22276388
18	0x3dee7376	0.11643116
19	0x3f1c74d0	0.6111574
20	0x3e9793c0	0.29604912
21	0x3c7ec329	0.0155494595
22	0x3ef402a9	0.4765828
23	0x3e88f313	0.2674795
24	0x3f2dc20e	0.6787423
25	0x3eb4cbe2	0.353118
26	0x3e1fda22	0.15610555
27	0x3ee59262	0.44838244
28	0x3ea0ebd6	0.3142993
29	0x3e816687	0.25273535
30	0x3e6ac203	0.22925572
31	0x3ddfe53e	0.10932396
32	0x3ec505ff	0.38481137
33	0x3e39c6be	0.1814222
34	0x3ea050ea	0.31311733
35	0x3dc48037	0.095947675
36	0x3f0774f5	0.5291284
37	0xbbf55a53	-0.007487574
38	0x3e12b9f3	0.14328746
39	0xbe00e4fb	-0.12587349
40	0x3ee5f4c4	0.44913304
41	0x3ec4a986	0.38410586
42	0x3e41b286	0.18915758
43	0x3ea8f347	0.32998106
44	0x3e70bd30	0.2350967
45	0x3f02ce3f	0.51095957
46	0x3ef89b46	0.48555964
47	0x3eb2230b	0.3479236
48	0x3f1d169f	0.6136264
49	0x3e85e870	0.26153898
50	0x3edeec5b	0.435397
51	0xbdb8f345	-0.09030775
52	0x3eadc7de	0.3394155
53	0x3f3c3ca0	0.73530006
54	0x3e393b03	0.18088917
55	0x3e82708a	0.25476485
56	0x3ef00e97	0.4688613
57	0x3f020ac6	0.5079769
58	0xbe24002a	-0.16015688
59	0x3d2adae9	0.041712675
60	0x3eb724c5	0.3577024
61	0x3e235bcd	0.15952988
62	0x3f38d97a	0.7220684
63	0x3eb07720	0.34465885
64	0x3ee88bb5	0.45419088
65	0x3f1909a3	0.5978033
66	0x3ee996b3	0.45622787
67	0x3ebae558	0.365031
68	0x3ec0b198	0.37635493
69	0x3ee6a312	0.45046288
70	0x3f071b56	0.52776086
71	0x3eef141e	0.46695036
72	0x3e8a4475	0.27005354
73	0x3f2c2eae	0.6725873
74	0x3e3f07e8	0.1865536
75	0x3e9f4c68	0.3111298
76	0x3ec7896b	0.3897203
77	0xbceb7472	-0.028742049
78	0x3ee2f681	0.44328693
79	0x3ecbd183	0.39808282
80	0x3f01dcb1	0.50727373
81	0x3f0c1177	0.5471415
82	0x3eb29bb8	0.3488443
83	0x3f2a34a2	0.6648656
84	0x3d9aceec	0.075589985
85	0x3e99f2c0	0.30068016
86	0x3e96dd62	0.29465777
87	0x3ee1f99d	0.44135752
88	0x3f0be003	0.5463869
89	0x3e4f34fa	0.20235053
90	0xbea8d626	-0.32975882
91	0x3e1b47d2	0.15164116
92	0x3ed536bf	0.4164333
93	0x3ea20913	0.31647548
94	0x3ea32899	0.3186691
95	0x3ec3d2bc	0.38246715
96	0x3e3ff6de	0.18746516
97	0x3e2e85dd	0.17043252
98	0x3ed160f4	0.40894282
99	0x3ee18602	0.44047552
100	0x3f1db55d	0.61604863
101	0x3f10c1bb	0.5654561
102	0x3e05c0ed	0.13061877
103	0x3ec1c1c2	0.37843138
104	0x3b53d802	0.0032324796
105	0xbd7ecbd7	-0.062206116
106	0x3e9a0d84	0.30088437
107	0x3f150d44	0.58223367
108	0x3e7fe018	0.24987829
109	0x3eb33f03	0.35009012
110	0xbc38c738	-0.011277966
111	0x3ee04442	0.43802077
112	0x3e891456	0.26773328
113	0x3ebe84dd	0.37210742
114	0x3ecf16bd	0.40447035
115	0x3dee76df	0.116437666
116	0x3f11276c	0.5670078
117	0x3e233479	0.15937985
118	0x3ebe7a25	0.37202564
119	0xbeaf70cf	-0.34265754
120	0x3f4f2cc2	0.8092767
121	0x3e500724	0.20315224
122	0x3da7c1a9	0.081912346
123	0x3e55adee	0.2086713
124	0x3eeea48d	0.46609917
125	0xbd0fd9f9	-0.035119984
126	0x3ec6ee1a	0.38853532
127	0x3f0e370c	0.55552745

feature.2.running_mean f4 [128]
0	0x44581dc1	864.4649
1	0x43fa7dbc	500.9823
2	0x450d905e	2265.023
3	0x43ef653c	478.7909
4	0x44f319a5	1944.8014
5	0x44279e9f	670.47845
6	0x4319c2ff	153.7617
7	0x42597b05	54.370136
8	0x434dd924	205.8482
9	0x440fa784	574.61743
10	0x43cf6800	414.8125
11	0x45318891	2840.5354
12	0x43baf7ba	373.93536
13	0x44664534	921.0813
14	0x44673828	924.87744
15	0xc326c709	-166.77748
16	0x44dc8e9d	1764.4567
17	0x43ba85f8	373.04663
18	0x444924e4	804.5764
19	0x4523bb23	2619.696
20	0x42e4fed8	114.49774
21	0xc39b3e23	-310.48544
22	0x443800cd	736.0125
23	0x438eae4f	285.3618
24	0x450864f4	2182.3096
25	0x43808a5c	257.08093
26	0x44839520	1052.6602
27	0x440ccde6	563.21716
28	0x4475ac17	982.6889
29	0x43f5e73c	491.80652
30	0x445e5019	889.2515
31	0x42b1cce2	88.90016
32	0x441f806b	638.00653
33	0x448aab56	1109.3542
34	0x42abe3c9	85.94489
35	0x4486490f	1074.2831
36	0x43bcda5c	377.70593
37	0xc104cb10	-8.299576
38	0x42cc2f97	102.09295
39	0xc3c830b5	-400.38052
40	0x44c59e85	1580.9537
41	0x43b74d1e	366.60248
42	0x4406b2c7	538.7934
43	0x42b8f7d6	92.484055
44	0x4446d615	795.34503
45	0x43cfb0e8	415.38208
46	0x44396dd2	741.71594
47	0x42e38ac1	113.771
48	0x4456659c	857.58765
49	0x43bd3975	378.44888
50	0x444dd840	823.3789
51	0xc31ad0ab	-154.81511
52	0x43d26b93	420.84042
53	0x44e6ee49	1847.4464
54	0x43b5c087	363.50412
55	0x43e588cc	459.06873
56	0x44146f6d	593.741
57	0x44743701	976.85944
58	0xc3a711eb	-334.13998
59	0xc320a804	-160.65631
60	0x4395f415	299.9069
61	0x440e4721	569.1114
62	0x4591132e	4642.3975
63	0x42e995c0	116.79248
64	0x44a24f7c	1298.4839
65	0x44be9957	1524.7919
66	0x4409ca12	551.15735
67	0x44340e8d	720.22736
68	0x44300e03	704.21893
69	0x45134281	2356.1565
70	0x430498d3	132.59697
71	0x42ff0a0f	127.519646
72	0x447b4b97	1005.1811
73	0x4545c48f	3164.285
74	0x44025268	521.2876
75	0x43c86046	400.75214
76	0x43436bab	195.42058
77	0xc2dc8fb5	-110.28068
78	0x4349bc18	201.73474
79	0x447cf2da	1011.79456
80	0x44ade344	1391.102
81	0x43a711eb	334.13998
82	0x4440b918	770.8921
83	0x4353d7d1	211.84303
84	0xc3aa4f11	-340.6177
85	0x434f5db3	207.36601
86	0x432dae66	173.68124
87	0x43ccc7df	409.5615
88	0x4521446a	2580.276
89	0x448f64f3	1147.1547
90	0xc3f7099b	-494.07504
91	0x449b514c	1242.5405
92	0x441fff87	639.9926
93	0x43fbf6d3	503.9283
94	0x442318f2	652.3898
95	0x452db8b9	2779.5452
96	0x43c510f9	394.1326
97	0x4450395a	832.8961
98	0x438e196f	284.1987
99	0x4437ef05	735.7347
100	0x45a76770	5356.9297
101	0x44864b91	1074.3615
102	0x43e12f5b	450.36996
103	0x442c5f00	689.4844
104	0xc24494d4	-49.14534
105	0x428caa96	70.333176
106	0x434cd879	204.8456
107	0x453640f7	2916.0603
108	0x42d6d4d1	107.41566
109	0x443e526d	761.2879
110	0xc286370a	-67.1075
111	0x446bb154	942.77075
112	0x42d2f90b	105.48641
113	0x42da8f1a	109.279495
114	0x431bafff	155.68748
115	0x43569f22	214.62161
116	0x4508ae97	2186.9119
117	0x438fd2b0	287.646
118	0xc27f961c	-63.89659
119	0xc3d4a86c	-425.3158
120	0x460190d2	8292.205
121	0x445d6d0f	885.70404
122	0x4408134d	544.3016
123	0x4315d689	149.83803
124	0x4450cbd3	835.18475
125	0xc3a1cf80	-323.6211
126	0x45153a63	2387.6492
127	0x4404d438	531.3159

feature.2.running_var f4 [128]
0	0x4934ee47	741092.44
1	0x497474bd	1.0012918e+06
2	0x4a559ded	3.4998992e+06
3	0x49ac991c	1.4139235e+06
4	0x4c1c55f4	4.098248e+07
5	0x4aad6ab4	5.682522e+06
6	0x4880f1df	264078.97
7	0x471dc396	40387.586
8	0x48ca3661	414131.03
9	0x4b1fe742	1.0479426e+07
10	0x4a249c4e	2.6969795e+06
11	0x4a89f829	4.5209805e+06
12	0x48659982	235110.03
13	0x49405bde	787901.9
14	0x49788820	1.017986e+06
15	0x4416202b	600.5026
16	0x49b56924	1.4861165e+06
17	0x49367f93	747513.2
18	0x498e09f3	1.1635824e+06
19	0x4bcacd15	2.6581546e+07
20	0x4820e896	164770.34
21	0x457ae15a	4014.0845
22	0x4ae41544	7.473826e+06
23	0x491742f3	619567.2
24	0x4c1b20db	4.0665964e+07
25	0x49aca725	1.4143726e+06
26	0x49998af5	1.2578226e+06
27	0x4a88d32c	4.483478e+06
28	0x4a0dc387	2.3226578e+06
29	0x4a8cffe9	4.6202765e+06
30	0x4a806f60	4.20856e+06
31	0x48038faf	134718.73
32	0x4b1e62d6	1.037999e+07
33	0x4aa71fc8	5.476324e+06
34	0x485de800	227232.0
35	0x4994733d	1.2161036e+06
36	0x4a3c7e82	3.0882885e+06
37	0x46bcb199	24152.799
38	0x485fa7ce	229023.22
39	0x46063713	8589.769
40	0x4a26638a	2.7261145e+06
41	0x49020c90	532681.0
42	0x4983b67c	1.0789915e+06
43	0x487804ce	253971.22
44	0x4b441d41	1.2852545e+07
45	0x4a23aaa6	2.6815135e+06
46	0x4a8a4e5d	4.5320145e+06
47	0x4848a1b9	205446.89
48	0x4937ca0f	752800.94
49	0x48f628c4	504134.12
50	0x4aba81bc	6.111454e+06
51	0x441c0fdb	624.24774
52	0x4a94e22c	4.878614e+06
53	0x4a35823b	2.9738388e+06
54	0x499d71c6	1.2897848e+06
55	0x49df146b	1.8274694e+06
56	0x4a300ec9	2.8845302e+06
57	0x48eb35fb	481711.84
58	0x45aa2792	5444.9463
59	0x4419c510	615.0791
60	0x48affcdf	360422.97
61	0x49adc53d	1.4235276e+06
62	0x4ce00a7f	1.1746201e+08
63	0x480efe2c	146424.69
64	0x49c6a193	1.6271864e+06
65	0x4b1b5035	1.0178613e+07
66	0x49c74a1a	1.6325792e+06
67	0x496dfe8f	974824.94
68	0x49870f49	1.1064091e+06
69	0x4a1bff8f	2.5558758e+06
70	0x4805e944	137125.06
71	0x482ea9e7	178855.61
72	0x4a0186ee	2.1221715e+06
73	0x4cb9dad3	9.744143e+07
74	0x49b245a1	1.4604041e+06
75	0x4a27c91f	2.7489998e+06
76	0x48cec22a	423441.3
77	0x416b8149	14.719064
78	0x48fdcabe	519765.94
79	0x4a8c3086	4.593731e+06
80	0x4984a2bd	1.0865516e+06
81	0x48db5756	449210.7
82	0x4b5cecfa	1.4478586e+07
83	0x4960ac4c	920260.75
84	0x45a5562d	5290.772
85	0x49d1ce56	1.7187308e+06
86	0x485fbd0a	229108.16
87	0x4a8a4afb	4.5315815e+06
88	0x4a89471c	4.498318e+06
89	0x4ae9659d	7.6479505e+06
90	0x46d9358e	27802.777
91	0x4b9f90e7	2.0914638e+07
92	0x4a011e2f	2.1154678e+06
93	0x4957c9ef	883870.94
94	0x4abb3325	6.1341625e+06
95	0x4a9de2f8	5.173628e+06
96	0x4a4d4367	3.3630338e+06
97	0x4b0cbb62	9.22301e+06
98	0x4a32c693	2.9290608e+06
99	0x4a3d4ae8	3.10137e+06
100	0x4d16021e	1.5729507e+08
101	0x49925cdd	1.1990036e+06
102	0x48ec87d8	484414.75
103	0x49033064	537350.25
104	0x486dc357	243469.36
105	0x47d3aff6	108383.92
106	0x49c7670f	1.6335059e+06
107	0x4c0dfd89	3.7221924e+07
108	0x47c2ab98	99671.19
109	0x4a3f3aeb	3.1331148e+06
110	0x48c6dfe7	407295.22
111	0x49ce9e4b	1.6926174e+06
112	0x4835f7e4	186335.56
113	0x481ae526	158612.6
114	0x4898af29	312697.28
115	0x493d3606	775008.4
116	0x4a0de39a	2.3247105e+06
117	0x4a2ef54f	2.8665158e+06
118	0x4658df7e	13879.873
119	0x461d90fb	10084.245
120	0x4da438fa	3.4439968e+08
121	0x496d0f5c	970997.75
122	0x4ad7290b	7.0503735e+06
123	0x499c32ae	1.2795738e+06
124	0x495bb94a	899988.6
125	0x455ec46a	3564.276
126	0x4b82d330	1.7147488e+07
127	0x492ab88c	699272.75

feature.4.weight f4 [64, 128]
0	0xbe7f339f	-0.24922036
1	0xbeb0a6ac	-0.3450216
2	0xbcca7079	-0.024711834
3	0xbfa65e82	-1.2997591
4	0x3e2d886a	0.16946569
5	0xbed6ae75	-0.41929975
6	0x3dcb6d80	0.09932995
7	0xbf03d1da	-0.51492083
8	0x3d179593	0.03700788
9	0xbec3a547	-0.38212034
10	0x3f665403	0.8997194
11	0xbd1fc79d	-0.039008725
12	0xbeac999a	-0.3371094
13	0x3d8e702a	0.06954987
14	0x3e2bba78	0.16770351
15	0x3dec69b0	0.11543596
16	0xbe286631	-0.16445233
17	0xc0043f22	-2.0663533
18	0xbf16bdbe	-0.58883274
19	0xbeb8170e	-0.3595509
20	0x3d0996b5	0.03359099
21	0xbe07d35e	-0.13264224
22	0xbd33e961	-0.04392374
23	0xbe7d71b5	-0.24750407
24	0xbe71e3aa	-0.23622003
25	0x3ef3c37a	0.47610074
26	0x3ef9538b	0.4869655
27	0xc06bdd2f	-3.685375
28	0x3ef0eb8a	0.47054702
29	0x3e14d03b	0.14532559
30	0xbeb54f03	-0.35411844
31	0xbfad02d9	-1.3516494
32	0x3e2f980a	0.17147842
33	0x3f48fcb3	0.7851059
34	0xbf31a01d	-0.6938494
35	0x3f39fa6e	0.7264775
36	0xbe5f288c	-0.21792811
37	0xbf1e8491	-0.6192103
38	0xc005b281	-2.08902
39	0xbe873211	-0.26405385
40	0x3d3b60ad	0.045746494
41	0xbf1d27e3	-0.6138899
42	0xbf8c3aff	-1.0955504
43	0x3e50a8f7	0.20376955
44	0xbdfed126	-0.12442236
45	0x3ebc4d0b	0.3677753
46	0x3e2ef709	0.17086424
47	0x3e3bd026	0.18341121
48	0xbe22a89b	-0.1588463
49	0xbf13f39b	-0.5779359
50	0xbe229b13	-0.15879469
51	0x3d15069b	0.036383253
52	0x3f3262e6	0.6968216
53	0xbe8acad1	-0.27107862
54	0xc035c850	-2.840351
55	0xbf371351	-0.7151385
56	0xbe8737b1	-0.26409677
57	0xbe2ad314	-0.16682082
58	0xbeda6ba9	-0.42660263
59	0x3d700c32	0.05860538
60	0x3d686a3d	0.05674194
61	0xbfe67e00	-1.8007202
62	0xbe2d3df8	-0.1691817
63	0xbde0c3ba	-0.10974832
64	0xbd947faa	-0.072509125
65	0x3f042562	0.5161954
66	0x3d63a14e	0.055573754
67	0xbc94694e	-0.01811662
68	0x3e82deb2	0.25560528
69	0xbe54e0ab	-0.20788829
70	0xbe076ba7	-0.1322466
71	0x3e8145d5	0.2524859
72	0x3eef3026	0.46716422
73	0xbcacea05	-0.021107683
74	0xbfd83659	-1.6891586
75	0xbd5172c8	-0.051134855
76	0x3d100972	0.035165258
77	0xbf0f0f80	-0.55883026
78	0xc0a76913	-5.2315764
79	0x3f8f2a57	1.1184796
80	0xbe32b5a9	-0.1745211
81	0xbec8e427	-0.39236566
82	0x3e5b3497	0.2140678
83	0xc07c5679	-3.9427779
84	0x3da07b1b	0.078359805
85	0xc09d8201	-4.9221196
86	0xbe694fbf	-0.22784327
87	0x3eb730ba	0.35779363
88	0xbe885d19	-0.26633528
89	0xbf9658e8	-1.1745882
90	0x3e054faa	0.1301867
91	0xbf751ed5	-0.9575017
92	0x3eb81835	0.35955968
93	0xbe4a5337	-0.19758306
94	0x3d05c0fd	0.03265475
95	0xbdb182a8	-0.08667499
96	0x3f323bc6	0.6962246
97	0xbfad454f	-1.3536776
98	0xc03d9550	-2.9622383
99	0x3f57857c	0.84188056
100	0xbe7027c3	-0.23452668
101	0x3e5469dc	0.20743507
102	0xbf1b7499	-0.6072479
103	0xbefd5e09	-0.49485806
104	0xc01a2638	-2.4085827
105	0x3d38687e	0.045021527
106	0xbfd016a8	-1.6256914
107	0xbe36d129	-0.17853226
108	0xbeaa4570	-0.33256102
109	0x3f829cef	1.0204142
110	0x3fc909ed	1.5706154
111	0xbd932593	-0.07184901
112	0xbe48f76f	-0.19625638
113	0xbe0d34d0	-0.13789678
114	0x3dc62d70	0.09676635
115	0xc061cb78	-3.5280437
116	0x3b7a413c	0.0038185855
117	0xc105b78d	-8.357312
118	0x3e5ffb56	0.21873221
119	0xbd804290	-0.06262696
120	0xbdbbe3ae	-0.09174286
121	0xbc97cf16	-0.018531363
122	0xbf3e09c1	-0.74233633
123	0xbf5ec774	-0.8702309
124	0xbee99261	-0.4561949
125	0xbe826a3f	-0.25471684
126	0xbe4a4273	-0.19751911
127	0x3da5d1a7	0.08096629
128	0xbe4e5710	-0.20150399
129	0x3e2a1269	0.16608585
130	0xbe35de95	-0.1776069
131	0x3d4580d8	0.048218578
132	0x3ca9f27a	0.020745505
133	0x3e229ec7	0.15880881
134	0x3fb26d41	1.3939592
135	0x3eb653e6	0.35610884
136	0x3ef28101	0.47364047
137	0xbee65790	-0.4498868
138	0xbdff2609	-0.124584265
139	0x3dc61cd7	0.096734695
140	0xc03c0863	-2.938012
141	0xc083c066	-4.117236
142	0xc04c6cd1	-3.1941416
143	0x3ea3bb7d	0.3197898
144	0x3e858b3e	0.26082796
145	0x3ea0dd18	0.3141868
146	0xbf4556e4	-0.7708571
147	0x3c78ae34	0.015178252
148	0xbe663b49	-0.22483553
149	0x3f04174e	0.5159806
150	0x3e11d5ff	0.1424179
151	0x3ec6a0e5	0.38794628
152	0xbe8028a4	-0.25031006
153	0x3e62d918	0.22153127
154	0xbfd8581b	-1.6901888
155	0x3e0fde27	0.14049588
156	0x3e8759ce	0.26435703
157	0x3dda0f48	0.10647446
158	0x3e430b53	0.19047289
159	0xbf1a996c	-0.60390353
160	0xbefc6b8c	-0.49300802
161	0xbf89659a	-1.0734131
162	0xbf046a08	-0.5172429
163	0xbfece4cd	-1.8507324
164	0x3e9e1f5e	0.30883306
165	0x404847b1	3.1293757
166	0x3eaf01a9	0.34180954
167	0x3e6a3818	0.2287296
168	0xc0304ad6	-2.7545676
169	0xc0a01862	-5.0029764
170	0xbd0347af	-0.032050785
171	0x3e6aa9bd	0.22916313
172	0xbecb826d	-0.39747944
173	0xbd83d5d2	-0.06437267
174	0x3dce71d6	0.10080306
175	0x3f5bc805	0.8585208
176	0xbe99c72c	-0.3003477
177	0x3e7d7334	0.24750978
178	0xbd529719	-0.05141363
179	0x3e2ae37d	0.16688342
180	0xbfd305c7	-1.6486138
181	0xbe180bc5	-0.1484824
182	0x3d7aaf9d	0.061202634
183	0x3c5904e1	0.013245792
184	0x3d0f5a6a	0.034998335
185	0xbbee605c	-0.0072746705
186	0x3ecdc580	0.40189743
187	0x3ed4cebe	0.41563982
188	0xc023d762	-2.560021
189	0x3f031838	0.5120883
190	0x3de04174	0.10949984
191	0xbf6ab779	-0.9168621
192	0xbe4cff6a	-0.20019308
193	0xc04249b6	-3.035749
194	0xc080eabb	-4.0286536
195	0x3f2081aa	0.6269785
196	0xbe6208e5	-0.22073705
197	0xbe0a4cf5	-0.1350592
198	0x3f5549a6	0.83315504
199	0xbf43c915	-0.764787
200	0x3ddcdcbe	0.10784291
201	0x3e4317f6	0.19052109
202	0x3e5eecb0	0.21769977
203	0x3ea7f1eb	0.32801756
204	0xbeaf1926	-0.34198874
205	0x3de1a5a5	0.11017922
206	0x3f931d22	1.1493266
207	0xc005407e	-2.0820613
208	0xc0732723	-3.7992637
209	0xbe92be98	-0.28661036
210	0xbf682cdf	-0.9069347
211	0x3f2ca005	0.6743167
212	0xbe7e2d2d	-0.2482192
213	0x3e7466f4	0.23867399
214	0xbee70d9b	-0.45127568
215	0xc03360e3	-2.8027885
216	0x3cfc5e97	0.030806823
217	0x3e5cbdba	0.2155675
218	0x3e91cc4b	0.28476176
219	0x3e0ec712	0.13943127
220	0xc083cea6	-4.1189756
221	0x3f12f189	0.57399803
222	0x3e2b4355	0.16724904
223	0xbbdaf343	-0.006681831
224	0xbe8d170c	-0.27556646
225	0x3d9be690	0.07612336
226	0x3f0444ee	0.5166768
227	0x3f95c326	1.170018
228	0x3d524865	0.051338572
229	0x3e8c10b0	0.27356482
230	0xc00b006e	-2.1719012
231	0xc033951c	-2.805976
232	0x3ed32ecd	0.41246644
233	0x3f633414	0.8875134
234	0xbed8e226	-0.42360038
235	0x3d4c3e8d	0.04986434
236	0x3ed888e1	0.4229193
237	0xbfd4e84c	-1.6633391
238	0x3de9a40e	0.11408244
239	0xbd239fd4	-0.039947346
240	0x3eb93d3e	0.36179537
241	0xbea1326c	-0.3148378
242	0xbd8c1e69	-0.06841738
243	0x3eda31dc	0.42616165
244	0x3decc94c	0.11561832
245	0x3e3fb483	0.18721204
246	0x3f4ee59c	0.80819106
247	0x3f4c058c	0.79695964
248	0x3e0480a5	0.12939699
249	0x3f2b350c	0.6687782
250	0xbf631db8	-0.8871722
251	0x3ecef8e1	0.40424255
252	0xc04318a1	-3.0483782
253	0x3eb3f5db	0.3514851
254	0xbddcd429	-0.10782654
255	0xbf8a3216	-1.0796535

feature.4.bias f4 [64]
0	0x4111b0dd	9.1056795
1	0xc0d139d8	-6.538311
2	0xc0a525fe	-5.1608877
3	0xc1190b97	-9.56533
4	0xc08a1c67	-4.315967
5	0xc07d39ce	-3.956653
6	0xbffa3ab2	-1.9549162
7	0xc09c6a5f	-4.8879848
8	0x3f610d00	0.8791046
9	0xc10c56bb	-8.771174
10	0x3f4a8249	0.7910505
11	0xc007d984	-2.122651
12	0xbee37eaf	-0.4443259
13	0xc0d8bfb5	-6.7734017
14	0xbd087b85	-0.033320922
15	0xc0030578	-2.0472088
16	0xc13c1b3c	-11.756649
17	0xc11ad7ad	-9.677655
18	0xc08ccd05	-4.400027
19	0x4029dff6	2.6542945
20	0xc088eec2	-4.2791452
21	0x3f1a723d	0.60330564
22	0x410e2674	8.884388
23	0xc09ba6cb	-4.8641105
24	0xc109b421	-8.606477
25	0xc09c0797	-4.8759265
26	0xc0700fcf	-3.7509649
27	0x4015d3be	2.3410487
28	0x3fb337f2	1.4001448
29	0xbf581bf2	-0.8441764
30	0xbff6731f	-1.9253882
31	0xbfafc5f2	-1.3732283
32	0xc0b46471	-5.637261
33	0xc111612d	-9.086225
34	0xc0a092cc	-5.0179195
35	0x4080469a	4.0086184
36	0xc11498b9	-9.287286
37	0xc088a04a	-4.2695665
38	0x3f46aecd	0.77610475
39	0xc10f521c	-8.957546
40	0xc084debc	-4.1521893
41	0xc0bffcc5	-5.9996057
42	0x3f76004d	0.9609421
43	0xbf106f35	-0.5641969
44	0xc01276aa	-2.2884927
45	0xc029e0e2	-2.6543508
46	0xc0371155	-2.8604329
47	0xc025f49f	-2.5930555
48	0xc10d104e	-8.816481
49	0xc0deafd8	-6.9589653
50	0xc065cc53	-3.590596
51	0x3ecea287	0.40358374
52	0xc0abc1c5	-5.3674035
53	0xc118da38	-9.553276
54	0x402169ca	2.5220819
55	0xbef198e0	-0.47186947
56	0xc1354d7b	-11.331416
57	0xc0b4ea4b	-5.6536
58	0xbfcef758	-1.6169233
59	0xc0fb58bd	-7.8545823
60	0xbe837c3f	-0.2568073
61	0xc0cab12a	-6.3341265
62	0xbfd32d5c	-1.6498218
63	0x3f1e0ff9	0.6174312

feature.6.weight f4 [64]
0	0x3f329071	0.6975165
1	0x3fa310ec	1.2739539
2	0x3fb26770	1.3937817
3	0x4028187f	2.6264951
4	0x3fcdf77d	1.6091152
5	0x3f8cd0b1	1.1001188
6	0x3f23cc2d	0.6398342
7	0x3f2ee01b	0.6831071
8	0x3fbb8431	1.4649717
9	0x3fde1afa	1.7351983
10	0x3f09536c	0.53642917
11	0x3f48a892	0.7838222
12	0x3f133756	0.5750631
13	0x3fe24573	1.7677444
14	0x3f39da5f	0.7259883
15	0x3fbaf42b	1.4605764
16	0x3fcf1c01	1.6180421
17	0x3fbd813f	1.4805068
18	0x3f2d7e32	0.67770684
19	0x3fa7f781	1.3122407
20	0x3f4104f3	0.75398177
21	0x3f95948a	1.1685956
22	0x3f8fa3d1	1.1221868
23	0x3fa79b76	1.3094318
24	0x3febc51d	1.8419529
25	0x3fac3c7c	1.3455958
26	0x3f3d1c8c	0.73871684
27	0x3f33666a	0.70078146
28	0x3f45f5c3	0.7732813
29	0x3fc45320	1.5337868
30	0x3f97ec73	1.1869034
31	0x3fda16c0	1.7038193
32	0x3fa2ad77	1.2709187
33	0x3fe1ddbb	1.7645792
34	0x3f840a2e	1.0315607
35	0x3f4f4b11	0.8097392
36	0x3f6f2b1e	0.93425167
37	0x3facf014	1.3510766
38	0x3fe174fc	1.7613826
39	0x3fc32f53	1.5248817
40	0x3f3c58fb	0.73573273
41	0x3f17b5f6	0.59262025
42	0x3f2da724	0.6783316
43	0x3f19cee3	0.6008131
44	0x3f32d435	0.6985505
45	0x3f1e00d2	0.6172
46	0x3fad2bbb	1.352897
47	0x3fa9e720	1.3273659
48	0x3ff509b3	1.9143585
49	0x3fc1ea35	1.5149599
50	0x3f967fe2	1.1757777
51	0x3f1d12e2	0.6135694
52	0x3fde8814	1.7385278
53	0x40235c21	2.552498
54	0x3fd152f2	1.6353438
55	0x3ff253bc	1.8931804
56	0x3fa5633a	1.2920907
57	0x3f95e03d	1.1709057
58	0x3fbf325b	1.4937242
59	0x3fa421b3	1.2822784
60	0x3f399ebc	0.72507834
61	0x3fb21747	1.3913354
62	0x3f89b90e	1.0759599
63	0x3fc9ae98	1.5756407

feature.6.bias f4 [64]
0	0xbe0c7c67	-0.1371933
1	0x3eb3f9be	0.35151476
2	0x3e6bdd9c	0.23033756
3	0x3f30b0ea	0.6901995
4	0x3eb66402	0.35623175
5	0x3e212b0d	0.15739079
6	0xbdd5e842	-0.1044469
7	0xbcde8e2f	-0.027167408
8	0x3f3178fc	0.6932523
9	0x3dfd88d9	0.12379617
10	0xbe4ac47a	-0.19801512
11	0x3c003cc3	0.007826987
12	0x3cd9e712	0.02659944
13	0x3f08e55f	0.5347499
14	0x3ccaa128	0.024735048
15	0x3ec2b543	0.38028917
16	0x3ec84415	0.39114442
17	0x3e9d83f3	0.30764732
18	0xbdcd7e0d	-0.10033808
19	0x3efed3d1	0.49770978
20	0x3dc4ac39	0.09603161
21	0x3e04255d	0.12904878
22	0x3e493272	0.1964815
23	0x3e802554	0.2502848
24	0x3eb33a21	0.35005286
25	0x3e331a82	0.1749058
26	0x3d76f4bb	0.060291987
27	0xbeab941f	-0.33511445
28	0xbcd39409	-0.025827425
29	0x3e9d7f88	0.3076136
30	0x3e46026e	0.19336864
31	0x3eca45fe	0.39506525
32	0x3e4d5d88	0.2005521
33	0x3e66145b	0.22468702
34	0x3e038d75	0.1284693
35	0xbe9afe11	-0.30271962
36	0x3e59088c	0.21194667
37	0x3e6f9227	0.23395596
38	0x3f13a2f9	0.5767055
39	0x3ebe0c74	0.37118876
40	0xbdbc198d	-0.09184561
41	0x3d592eb7	0.053023066
42	0xbed5cc71	-0.4175754
43	0xbc6b5690	-0.0143639
44	0xbd734d93	-0.059400152
45	0xbe176645	-0.14785106
46	0x3e801ed5	0.25023523
47	0x3e8eefcf	0.27917334
48	0x3f134555	0.5752767
49	0x3ee3c60b	0.44487032
50	0x3ea66f13	0.32506618
51	0x3cf2a1bb	0.029618135
52	0x3e8f032e	0.27932113
53	0x3f1b8db2	0.60763085
54	0x3f2397bf	0.6390342
55	0x3f29370e	0.6609963
56	0x3e7d3a9e	0.24729392
57	0x3e4c5696	0.19954905
58	0x3ec8a541	0.3918858
59	0x3e79fe9a	0.24413529
60	0x3d999f10	0.07501042
61	0x3e752a67	0.23941956
62	0x3e5d25dd	0.21596475
63	0x3f24f1bb	0.6443135

feature.6.running_mean f4 [64]
0	0x40b905b3	5.7819457
1	0x3f959b1d	1.1687962
2	0x3f78af57	0.9714255
3	0x4056e964	3.357995
4	0x3fdea924	1.7395368
5	0x4015a4c4	2.3381815
6	0x3f2d3ec3	0.6767389
7	0x3de42317	0.11139505
8	0x4136c304	11.422611
9	0x3ea3a594	0.31962264
10	0x3f875b5f	1.0574759
11	0xbc8d5960	-0.017254531
12	0x3f7d4cab	0.9894511
13	0x405df560	3.4681015
14	0x3f6d38dc	0.92664886
15	0x400cc1e2	2.1993337
16	0x3fbc9068	1.4731569
17	0x3f99f06e	1.2026498
18	0xbd5e3301	-0.05424786
19	0x4109c955	8.611653
20	0x3f4f8d39	0.81074864
21	0x3fd8d271	1.6939222
22	0x4119eae5	9.619847
23	0x3faecfe2	1.3657191
24	0x3fc5ac2e	1.544317
25	0x40448ee5	3.0712216
26	0x3e767ce9	0.24071087
27	0x400144e9	2.019831
28	0x4042c602	3.0433354
29	0x3fe83619	1.8141509
30	0x3fdaf31d	1.7105442
31	0x40c8a93f	6.27066
32	0x3f75abc8	0.9596524
33	0x3f7d0d5e	0.9884852
34	0x3f24d032	0.6438018
35	0x4085a6b4	4.1765995
36	0x3f8cd258	1.1001692
37	0x3fe66b28	1.8001451
38	0x40d176df	6.5457606
39	0x4035ebc6	2.8425155
40	0xbdfa8e80	-0.12234211
41	0x3ea7de76	0.32786912
42	0x3fc71eeb	1.555631
43	0x3faf1423	1.367802
44	0x3fa27916	1.2693202
45	0x3d981906	0.07426648
46	0x3ffe715f	1.9878348
47	0x401957e9	2.3959906
48	0x40682213	3.6270797
49	0x404ab71a	3.1674256
50	0x40158e48	2.3368092
51	0x3fcc1968	1.5945253
52	0x3fd818ed	1.6882607
53	0x406333fb	3.5500476
54	0x41957c0c	18.68557
55	0x4097fdac	4.749716
56	0x3fd0e01c	1.6318393
57	0x3f5e1162	0.86745274
58	0x4010096c	2.250575
59	0x3fa56026	1.2919967
60	0x3f942c24	1.1575971
61	0x3f8e6b13	1.1126426
62	0x40840b0d	4.126349
63	0x4185b3e1	16.712831

feature.6.running_var f4 [64]
0	0x421394d2	36.895332
1	0x41ab2acc	21.395897
2	0x41f45c3a	30.545033
3	0x42e26d51	113.21351
4	0x423bcd87	46.95071
5	0x4269ce9d	58.45177
6	0x40d09858	6.5185966
7	0x3ffb2fdb	1.9623979
8	0x4385a51f	267.29
9	0x4104b79d	8.294827
10	0x410bac2f	8.729537
11	0x4019e95d	2.4048684
12	0x4101e2c5	8.117864
13	0x42c412be	98.036606
14	0x418d940e	17.697292
15	0x42452705	49.288105
16	0x421ff13f	39.98559
17	0x4200f795	32.24178
18	0x3ff0fc29	1.8826953
19	0x438375cf	262.92038
20	0x4135ad1c	11.354763
21	0x41f4c37b	30.59545
22	0x429f7f42	79.74855
23	0x41d231f9	26.2744
24	0x420de45f	35.47302
25	0x42d53b92	106.61635
26	0x40769d27	3.8533418
27	0x4192c5ea	18.346638
28	0x41cc4ab8	25.536484
29	0x420c0343	35.003185
30	0x42052b57	33.292324
31	0x43ab06bc	342.0526
32	0x4183e55a	16.486988
33	0x41ae7e30	21.811615
34	0x417a9d35	15.663381
35	0x4233fdf4	44.998
36	0x41fcc1ee	31.594692
37	0x422a3f51	42.561832
38	0x433da1bb	189.63176
39	0x42e5ee6c	114.96567
40	0x3f2df55d	0.6795252
41	0x40c2dee5	6.089709
42	0x414fd8c7	12.990424
43	0x415505e3	13.313937
44	0x4135c400	11.360352
45	0x400dc96b	2.2154186
46	0x422b8900	42.88379
47	0x4273d511	60.958073
48	0x4300b364	128.70074
49	0x42b12c30	88.5863
50	0x4254dfaf	53.21844
51	0x414032a4	12.012363
52	0x424487fc	49.132797
53	0x430918c7	137.09679
54	0x44859c3b	1068.8822
55	0x42d27586	105.22954
56	0x4211fecd	36.49883
57	0x41bbdc8b	23.482687
58	0x4244d43e	49.207268
59	0x41fb4d6b	31.412802
60	0x414fafbc	12.980404
61	0x41b641ba	22.782093
62	0x42cf0d6e	103.52623
63	0x446145a1	901.08795

feature.8.weight f4 [32, 64]
0	0x3e27027d	0.16309543
1	0xbcebbc88	-0.028776422
2	0x3dbf71e8	0.09347898
3	0xbf35a0d5	-0.70948535
4	0xbd8c9c99	-0.06865806
5	0x3f63bd9a	0.88961184
6	0x3c0f571f	0.008748799
7	0xbf0d2d99	-0.551477
8	0x3e8069f8	0.25080848
9	0xbf3abefe	-0.7294768
10	0x3eb3353b	0.3500155
11	0xbf844d23	-1.033604
12	0x3ea00f5c	0.31261718
13	0x3d82b87c	0.06382844
14	0xbb31efb5	-0.0027150933
15	0x40552e19	3.3309386
16	0x3cbaf7b5	0.022823194
17	0x3f4ffe34	0.8124726
18	0xbe74cc89	-0.23906149
19	0xbd9033e3	-0.070411466
20	0x3ea77787	0.3270838
21	0xbf621c10	-0.8832407
22	0xbf493557	-0.78597015
23	0x3d7ee66a	0.06223146
24	0xc0089f97	-2.1347406
25	0x3d0fbb47	0.03509071
26	0x3fd18a6e	1.637037
27	0x3e6e10a9	0.23248543
28	0xbdb6e84d	-0.089310266
29	0xbf398fe2	-0.7248517
30	0xbde618b7	-0.11235183
31	0x3e7818a6	0.24228153
32	0x3ce033a3	0.027368372
33	0xbf14fa0b	-0.58194035
34	0x3f4441c3	0.76662844
35	0xbe457ebc	-0.19286627
36	0x3f75e33c	0.9604986
37	0x3dbaeb8a	0.09126957
38	0xc011d2f4	-2.2785006
39	0x3e4c5359	0.1995367
40	0xbf02ec70	-0.51142025
41	0x3f2c5c40	0.6732826
42	0x3f304512	0.6885539
43	0xbf76c55f	-0.96394914
44	0x40057594	2.0853014
45	0xbf8ac505	-1.0841376
46	0x3e2d5cf3	0.16929989
47	0x3d245797	0.040122595
48	0xbea8a397	-0.3293731
49	0xbd37e5c1	-0.044896845
50	0x3fa3cdb9	1.2797157
51	0x3e7c06d1	0.24611975
52	0x3fd8320e	1.6890275
53	0xc0036e99	-2.0536253
54	0xbe638ea8	-0.22222388
55	0x3d9a3305	0.075292625
56	0x3f1b2616	0.6060499
57	0x3dbe11cc	0.09280738
58	0x405228ea	3.2837472
59	0x4027a24a	2.6192803
60	0x3d611236	0.054949008
61	0x3fab9c6f	1.3407115
62	0xbef40646	-0.47661036
63	0xbebc8329	-0.36818817
64	0xc024e1d2	-2.576283
65	0x3eb22175	0.3479115
66	0xbe986195	-0.2976195
67	0xbe6c2913	-0.23062544
68	0x3ed70118	0.41993022
69	0x3f8531dd	1.0405842
70	0x3feb79b4	1.8396516
71	0xc02a0d58	-2.6570644
72	0x3e9ea1b2	0.3098274
73	0xbd547cd4	-0.051876858
74	0xbf1b853c	-0.60750175
75	0xc00d0543	-2.2034461
76	0xc07965d4	-3.89684
77	0x3de65520	0.11246705
78	0xbfe8c66e	-1.8185556
79	0xc00cb330	-2.1984367
80	0x3e3fb9b0	0.18723178
81	0xbef2b5ea	-0.47404414
82	0xbfac5042	-1.3461993
83	0x3d4d61c2	0.050142057
84	0x3f0fc4d0	0.5615969
85	0xc00ab689	-2.167391
86	0xbc6f9e43	-0.014625135
87	0xbed50eee	-0.41612953
88	0xbee01d3b	-0.437723
89	0x3f340845	0.7032512
90	0xbeb46a48	-0.35237336
91	0xbf14756b	-0.57991666
92	0xbf8a72bc	-1.0816264
93	0x3f2d58fd	0.6771391
94	0x3f7cc250	0.98734
95	0x3d9392dd	0.07205746
96	0x3f155a3b	0.58340806
97	0x3e198b35	0.1499451
98	0x3f67eddb	0.90597314
99	0xbea4ae0f	-0.32164046
100	0x3f6040b2	0.8759872
101	0x4040e874	3.0141878
102	0xbd9becf6	-0.07613556
103	0xbe8cced6	-0.27501553
104	0xbf77b31d	-0.9675768
105	0x3e52605d	0.20544572
106	0xbea47f9d	-0.3212861
107	0xc047686e	-3.115749
108	0xbed5f21c	-0.41786277
109	0xc0062ff4	-2.0966768
110	0x3e63c365	0.22242506
111	0xbf2810d7	-0.65650696
112	0xbf027d94	-0.50972867
113	0x3e9a46e8	0.30132222
114	0x3f789e8a	0.9711691
115	0xc047c64c	-3.121478
116	0x3f8abf6b	1.0839666
117	0xbe380108	-0.17969143
118	0xbb80f15a	-0.0039350213
119	0x3eb2352d	0.34806195
120	0x3e27cf14	0.16387588
121	0xbce9980e	-0.028514888
122	0xc00e90b9	-2.2275832
123	0x3e599381	0.21247675
124	0xc06f9f13	-3.7440841
125	0x3f6a6264	0.9155638
126	0x3dba1a89	0.090870924
127	0xbd8247f6	-0.06361382
128	0xbf02db2c	-0.5111568
129	0x3eb30fd2	0.34973007
130	0x3d10996b	0.03530256
131	0xbed0f2b7	-0.40810177
132	0x3d0e4960	0.034737945
133	0x3f5c2efc	0.8600919
134	0x3c9d9e14	0.019240417
135	0xbf6cb3e5	-0.92462
136	0x3e0d622e	0.13806984
137	0xbf144b06	-0.57926977
138	0x3ec5c7f9	0.3862913
139	0xbfa1c312	-1.2637656
140	0xbf2eb3db	-0.6824319
141	0x3dbc8ba0	0.09206319
142	0xbdc5b41f	-0.09653496
143	0x405557ee	3.3334918
144	0xbdbb5769	-0.091475315
145	0x3f1e9223	0.61941737
146	0xbedca563	-0.4309493
147	0xbe01bf29	-0.12670578
148	0x3e1a1f81	0.1505108
149	0xbf497128	-0.7868829
150	0xbed0eb5e	-0.4080457
151	0x3c0b214e	0.008491827
152	0xbfca35bf	-1.5797652
153	0x3d90f47e	0.07077883
154	0x40248450	2.5705757
155	0xbca4842a	-0.020082552
156	0xbf08329e	-0.53202236
157	0xbe626ff6	-0.22113022
158	0x3e105d5c	0.14098114
159	0x3c806198	0.015671536
160	0xbd8fecfe	-0.070276245
161	0xbeb5ac77	-0.35483143
162	0x3f23e79f	0.640253
163	0xbea42c5c	-0.32065094
164	0x3f82bbfd	1.021362
165	0x3f22f5f7	0.6365656
166	0xbeb02ff8	-0.34411597
167	0x3e0a508c	0.13507289
168	0xbef4baf9	-0.477989
169	0x3e89601f	0.26831147
170	0x3f25c834	0.6475861
171	0xbfd66009	-1.6748058
172	0x3fffbfb7	1.9980382
173	0xbf9f2b86	-1.2435157
174	0x3daa4015	0.08313004
175	0x3f148a3b	0.5802342
176	0xbf023600	-0.5086365
177	0xbd44d825	-0.048057694
178	0x3fbcb6a6	1.474324
179	0xbfa2264c	-1.2667937
180	0x3fd66b52	1.6751502
181	0xbf9685cc	-1.1759582
182	0xbd9c4315	-0.076299824
183	0x3e7be191	0.24597766
184	0x3fb8eb25	1.444676
185	0x3d8f3b26	0.069937035
186	0x4040f4e7	3.0149477
187	0x3fc84647	1.5646447
188	0xbeeb9a00	-0.4601593
189	0x3ff40883	1.9065098
190	0xbe3a69bd	-0.18204398
191	0xbe98e58a	-0.29862624
192	0x3f74d1a0	0.9563236
193	0xbe1bec4f	-0.15226863
194	0x3f22414c	0.63380885
195	0xbe414c09	-0.18876661
196	0x40018f75	2.024381
197	0x3eca6938	0.395334
198	0x3e9369a1	0.28791526
199	0x3e893502	0.26798254
200	0x3edfcea1	0.43712333
201	0x3fcb191f	1.5867041
202	0x3ee3bb1c	0.4447869
203	0xbfdd4848	-1.7287683
204	0xbe191bef	-0.14952062
205	0xbdff4637	-0.12464564
206	0x3db2769d	0.0871403
207	0x3dd7d480	0.10538578
208	0x3faf293a	1.3684456
209	0x3fafdd89	1.3739482
210	0xbfe1c836	-1.7639225
211	0x3f258a69	0.6466432
212	0x3f5b8127	0.85743946
213	0xbf8d78e8	-1.1052523
214	0xc09f0b74	-4.970148
215	0xbe7772f6	-0.24164948
216	0xbc9ad0b6	-0.01889835
217	0x3ff25644	1.8932576
218	0x3ef51a07	0.4787142
219	0x3e87fda5	0.26560703
220	0xc0133be7	-2.3005311
221	0xc0b5a359	-5.67619
222	0x3f35af9b	0.7097108
223	0x4021389e	2.5190806
224	0x3fb106e2	1.3830225
225	0x3f75dace	0.96036994
226	0x401085d8	2.2581692
227	0xc01b5c1a	-2.4274964
228	0x3d213830	0.039360225
229	0x3d4b2a0c	0.049600646
230	0xc09d3ad3	-4.9134307
231	0x3ff8585a	1.9401963
232	0xbf884015	-1.0644556
233	0xbf0f019e	-0.5586184
234	0xbe5aa5e6	-0.21352348
235	0xbf75ae25	-0.9596885
236	0x3f97fcfc	1.187408
237	0x3f8b330c	1.0874953
238	0xbe8107f8	-0.25201392
239	0xbe0fe77d	-0.1405315
240	0x3fa3ee10	1.2807026
241	0x3f9fd103	1.248566
242	0x3f139d5b	0.5766198
243	0xbfca2a81	-1.5794221
244	0xbc922803	-0.017841345
245	0x3f5df8af	0.86707586
246	0x3eaff383	0.34365472
247	0xbfc6b4b4	-1.5523896
248	0x3fd4955c	1.6608081
249	0x3ec49355	0.38393655
250	0x3e24d1f4	0.16095716
251	0xbef0656f	-0.46952388
252	0x3f85a978	1.0442343
253	0x3f47a121	0.7798024
254	0xbdc3b96e	-0.09556852
255	0x3dd356e2	0.10319306

feature.8.bias f4 [32]
0	0x411e1295	9.879537
1	0x4123b614	10.231953
2	0x415a8b92	13.659075
3	0x4018b07d	2.385772
4	0x3e9d7691	0.3075452
5	0x4172d980	15.178101
6	0x40da96dc	6.8309155
7	0x4103aaee	8.229231
8	0x40888aaa	4.266927
9	0x40c7f804	6.2490253
10	0x3f5e27c2	0.86779416
11	0x4176bfc8	15.421822
12	0x41616b0c	14.0886345
13	0x40a96bcd	5.2944093
14	0x4136b942	11.420229
15	0x40a953fa	5.291501
16	0x40daea72	6.841119
17	0x40a4c05b	5.148481
18	0x4178c702	15.548586
19	0x41360eda	11.378626
20	0x40e7390f	7.225715
21	0x40d28c5c	6.5796337
22	0x3f23c74d	0.63975984
23	0x40c4b403	6.146974
24	0x4137e71e	11.493925
25	0x413960ea	11.586161
26	0x4172f0d4	15.183796
27	0x4101d6ab	8.114909
28	0x40d991be	6.799041
29	0x413e464b	11.892161
30	0x41389169	11.535501
31	0x4090e2c0	4.5276794

feature.10.weight f4 [32]
0	0x3fa9cd3a	1.3265755
1	0x3f98808f	1.1914233
2	0x3fd288f3	1.6448044
3	0x3fb36e97	1.4018124
4	0x3fbd50b2	1.4790251
5	0x3f57203f	0.8403358
6	0x3f662f59	0.89915997
7	0x3f9bbc29	1.2166797
8	0x3f869adc	1.0516009
9	0x3f968875	1.1760393
10	0x3fc20e24	1.5160565
11	0x3f64b146	0.89333
12	0x3f9d9705	1.2311713
13	0x3f219a3a	0.63125956
14	0x3fd57dc3	1.6679004
15	0x3f1d4378	0.61431074
16	0x3f596e7b	0.84934205
17	0x3f169d6e	0.5883397
18	0x3f973443	1.1812824
19	0x3fd8184f	1.6882418
20	0x3fcf50aa	1.6196492
21	0x3f60c9f2	0.87808144
22	0x3fc8d4d9	1.5689956
23	0x3f6bce87	0.9211201
24	0x3fda1068	1.7036257
25	0x3fdb0a2a	1.7112477
26	0x3f515249	0.8176618
27	0x3f8a8577	1.082198
28	0x3f604cb0	0.87617016
29	0x3fbb38f3	1.4626755
30	0x3fd5d9be	1.6707075
31	0x3f277134	0.6540711

feature.10.bias f4 [32]
0	0x3ecc2a16	0.3987586
1	0x3e1c75a1	0.15279247
2	0x3f063c68	0.5243592
3	0x3ed1c610	0.40971422
4	0x3ef0fa8b	0.4706615
5	0xbedac532	-0.42728573
6	0x3e6d6a45	0.2318507
7	0x3eab504a	0.33459693
8	0x3e88188b	0.26581225
9	0x3e5d256f	0.21596311
10	0x3ea349ed	0.31892338
11	0xbecc4d98	-0.3990295
12	0x3f06f9b0	0.5272474
13	0xbead3e71	-0.33836702
14	0x3f3830b5	0.7194932
15	0xbebea9d3	-0.3723894
16	0x3e5dab1e	0.21647307
17	0xbea8734a	-0.3290046
18	0x3f0d2403	0.55133075
19	0x3f36d51b	0.71418923
20	0x3f44eda4	0.7692511
21	0x3e4f34f9	0.20235051
22	0x3f15f793	0.58580893
23	0x3d842994	0.06453243
24	0x3f4d2671	0.8013678
25	0x3f46531a	0.7747055
26	0xbeef35e7	-0.46720812
27	0x3dda575d	0.106611945
28	0x3e806cee	0.25083107
29	0x3f0f741b	0.5603654
30	0x3f480740	0.7813606
31	0xbe81afbe	-0.25329393

feature.10.running_mean f4 [32]
0	0x4169d50e	14.614515
1	0x4164f5e9	14.310037
2	0x419531db	18.649343
3	0x41635d8e	14.2103405
4	0x412dd1c6	10.863714
5	0x4137e963	11.494479
6	0x4113d1f1	9.238755
7	0x4156d474	13.426868
8	0x411275e4	9.153782
9	0x4123c1df	10.234832
10	0x40f844a7	7.7583804
11	0x413c4665	11.767186
12	0x41ab3573	21.401098
13	0x4089f5ae	4.31124
14	0x41c3e09b	24.48467
15	0x408bc288	4.3674965
16	0x411716b2	9.443041
17	0x4086a9c2	4.2082224
18	0x41b73d8b	22.90505
19	0x41c3ac9e	24.459286
20	0x415d685a	13.837976
21	0x4117d4dc	9.489468
22	0x413be907	11.744391
23	0x413c78bd	11.779477
24	0x41c7693a	24.92638
25	0x41c40f41	24.507448
26	0x413746d7	11.454795
27	0x4106916f	8.410506
28	0x41169878	9.412224
29	0x41b139d9	22.153246
30	0x41c65daf	24.795744
31	0x40786bd2	3.8815808

feature.10.running_var f4 [32]
0	0x43adbb68	347.4641
1	0x433661d0	182.38208
2	0x43bf27bd	382.31046
3	0x440a4492	553.0714
4	0x43b3d90e	359.69574
5	0x42beb866	95.36015
6	0x42a71492	83.54018
7	0x43b13f36	354.49384
8	0x435063d9	208.39003
9	0x43249107	164.56651
10	0x4360a418	224.64099
11	0x42c44da6	98.15166
12	0x43a3f1d8	327.8894
13	0x424ca7a3	51.163708
14	0x4468dd8d	931.46173
15	0x425156ea	52.334877
16	0x42b49b86	90.30376
17	0x42466689	49.600132
18	0x43a8a7cd	337.31094
19	0x44605073	897.257
20	0x43961872	300.19098
21	0x42b31b6d	89.553566
22	0x43f28ead	485.11465
23	0x433424c4	180.14362
24	0x446cdccd	947.45
25	0x4463d195	911.2747
26	0x42c15344	96.66263
27	0x42b8d4a9	92.41535
28	0x42ac8144	86.25247
29	0x4412a9d7	586.65375
30	0x4467e785	927.6175
31	0x422f124c	43.767868
