src/model_weights.pt (torch, 44962 bytes, 43 tensors)

feature.0.weight f4 [40, 65]
-0.060567893 0.03751305 -1.3850433e-06 -0.0015213828 0.0005586453 -0.002674915 -0.0003861079 -0.0010130601
0.0013079711 0.064174965 -0.1434826 -0.07716032 0.008811691 -0.00014579648 -0.00788527 -0.00046192625
-0.009882256 -0.110249564 0.04580097 0.057322983 0.13950562 0.014294425 -0.006895123 -9.214142e-05
-0.0007910827 -3.6882426e-05 -0.00017119061 0.02595687 0.032500263 -0.014099845 0.06805159 0.0056662224
-0.01759929 0.06458617 0.032317042 -0.13533229 0.12407679 -0.0678757 -0.016020827 -0.00047798752
0.00057985086 -0.00014804171 0.0007505295 -0.00018951595 0.00012949211 -4.8471342e-05 -1.2762243e-05 -0.00017004934
0.00010888581 -0.00019620027 0.00013867782 -0.00010762921 4.7288562e-05 -0.0005597048 0.00050034537 -0.00039299703
0.00032901095 -9.788424e-05 3.315138e-05 -1.0550761e-05 -4.6924826e-05 2.824669e-05 -8.929264e-05 5.7816498e-05
-0.000103919 0.000114131835 -0.011144599 6.209507e-05 0.010558133 -0.013036259 -0.0029557764 0.0072971596
0.001254034 0.10243039 0.0057156207 -0.03074374 0.003925815 -0.047115114 0.0010609174 0.006091984
-0.00054124196 -0.015503971 -0.7347114 0.5299473 -0.029777842 1.8932068 1.7503116 -0.13965476
0.0069487486 -0.0008747695 0.027399834 -0.008915514 -0.003428918 0.0019912533 0.012179344 0.12460382
-0.1022459 -0.00060251897 -0.006227783 0.009949349 0.030613882 -0.011303901 -0.004429505 0.03164659
0.018525014 0.03354299 0.00218583 -0.011315821 0.003298649 -0.003303613 0.003002955 -0.003007972
-0.0032128114 0.0032078095 0.0031797122 -0.0031847467 -0.0035415748 0.0035365988 -0.0012871653 0.0012821717
0.003020834 -0.0030257725 0.004770526 -0.004775404 -0.0065738526 0.006568871 -0.0007237792 0.00071878906
0.0013141981 -0.0013191289 -0.0013985655 -0.031388447 2.7318096e-05 0.005828366 -0.00084034365 0.004398674
0.0015095043 0.0022874463 -0.0879825 -0.0017287574 -0.034279086 0.032126356 0.027869107 0.00031428723
0.01494654 0.0006394489 -0.05279149 0.06311845 0.35212496 -0.056438148 0.29262725 0.22429657
0.01940979 0.00031725902 0.0015588221 0.00091706234 -0.00045899182 -0.020975048 -0.42244172 0.07545996
-0.010841624 0.08338821 0.06679096 -0.004741518 0.042672943 0.01606653 0.07411611 0.022581246
0.06409323 0.0030155021 0.0018287346 0.001239712 -0.00058361527 0.0007100662 -0.0006356465 0.00052419974
-0.00045035663 -1.1246952e-05 8.5022846e-05 -0.0001466065 0.00022136488 -4.1412695e-05 0.00011543948 0.00073379604
-0.00065983564 0.0008157539 -0.0007412382 0.00019348068 -0.000119178076 -0.00033580957 0.00041066483 0.00033632375
-0.00026208517 -0.00027311593 0.00034894832 0.006186613 -0.18527634 -0.00010626084 0.0015779065 0.00024758064
-0.002351849 0.0049937805 0.0047270316 -0.056563586 -0.022305569 0.0598352 0.051013988 0.025773855
8.900436e-05 -0.011213596 -0.00012311702 -0.51923275 -0.00048028195 0.29756784 0.28701192 0.9084987
0.18184626 0.03176751 0.005807342 0.0050518475 0.002218838 -0.0005544722 0.0037283022 -0.1681456
0.02172727 -0.35284606 0.05610607 -0.050742503 0.020733114 0.13631472 -0.06282719 -1.0204389
-0.043397885 -0.01662082 0.0031929575 0.005596621 -0.0007270599 -0.0010811087 -0.0001567511 0.0006595304
0.00011167076 0.00039383452 0.00042701655 8.253046e-05 0.0007211276 -0.00022025977 0.00026279382 0.00023525734
0.00062997197 -0.00012261077 0.00037949928 0.000110648405 0.0004939948 1.9597635e-05 0.00028042583 0.00021928402
00000000: 0a16 78bd 49a7 193d bae5 b9b5 2369 c7ba
00000010: 0d72 123a a04d 2fbb 866e cab9 a8c8 84ba
00000020: 3a70 ab3a 2a6e 833d 1aed 12be 3b06 9ebd
00000030: e95e 103c f2e0 18b9 3831 01bc b12e f2b9
00000040: 30e9 21bc 86ca e1bd cc99 3b3d 81cb 6a3d
00000050: 90da 0e3e 2a33 6a3c 7cf0 e1bb 0c3c c1b8
00000060: a960 4fba 34b2 1ab8 a181 33b9 80a3 d43c
00000070: ff1e 053d 0903 67bc a25e 8b3d b8ab b93b
00000080: 632c 90bc c145 843d e05e 043d 8c94 0abe
00000090: f91b fe3d 6a02 8bbd 1c3e 83bc 669a fab9
000000a0: 2201 183a a53b 1bb9 2fbf 443a cdb8 46b9
000000b0: 46c8 0739 b54d 4bb8 6b1d 56b7 464f 32b9
000000c0: a059 e438 1cbb 4db9 0b6a 1139 feb6 e1b8
000000d0: b557 4638 27b9 12ba 9c29 033a 2b0b ceb9
000000e0: 1a7f ac39 3447 cdb8 060c 0b38 2c03 31b7
000000f0: 26d1 44b8 4ef3 ec37 9f42 bbb8 fe7f 7238
00000100: 17ef d9b8 105a ef38 d697 36bc 0939 8238
00000110: 05fc 2c3c 0996 55bc b3b5 41bb 031d ef3b
00000120: 665e a43a 06c7 d13d 1a4a bb3b 4cda fbbc
00000130: 20a4 803b c7fb 40bd 7b0e 8b3a 449f c73b
00000140: 22e2 0dba 5e04 7ebc 0c16 3cbf a0aa 073f
00000150: a9f0 f3bc 9a54 f23f 360a e03f a801 0fbe
00000160: 54b2 e33b ca50 65ba 9e75 e03c 6012 12bc
00000170: b3b7 60bb b07f 023b df8b 473c 4a30 ff3d
00000180: 4c66 d1bd 5df2 1dba 6e12 ccbb 9802 233c
00000190: f7c9 fa3c ff33 39bc 6225 91bb db9f 013d
000001a0: c5c1 973c 6064 093d 2440 0f3b fe65 39bc
000001b0: 262e 583b 6e81 58bb 3acd 443b 6521 45bb
000001c0: 088e 52bb 1d3a 523b b862 503b 2fb7 50bb
000001d0: c419 68bb 48c6 673b 1ab6 a8ba 8b0e a83a
000001e0: 2ff9 453b 0a4c 46bb 1352 9c3b fe7a 9cbb
000001f0: 7969 d7bb af3f d73b 00bc 3dba 1e6d 3c3a
00000200: 2c41 ac3a 9fe6 acba 1250 b7ba 2c91 00bd
00000210: 2a29 e537 e1fb be3b 824a 5cba c022 903b
00000220: 8fda c53a fbe8 153b 2b30 b4bd 7997 e2ba
00000230: 3a68 0cbd ed96 033d c14d e43c ebc6 a439
00000240: 55e2 743c b0a0 273a e43b 58bd 3f44 813d
00000250: b949 b43e b02b 67bd 3dd3 953e 00ae 653e
00000260: 4801 9f3c c955 a639 6451 cc3a 0367 703a
00000270: d7a4 f0b9 ddd3 abbc 484a d8be c08a 9a3d
00000280: 11a1 31bc 70c7 aa3d b3c9 883d bc5e 9bbb
00000290: d3c9 2e3d f59d 833c 30ca 973d 4efc b83c
000002a0: 5043 833d bb9f 453b 27b2 ef3a d57d a23a
000002b0: c2fd 18ba bc23 3a3a 84a1 26ba 736a 093a
000002c0: d81d ecb9 4bb1 3cb7 4b4e b238 62ba 19b9
000002d0: 2f1e 6839 8bb2 2db8 1918 f238 385c 403a
000002e0: d2f8 2cba 51d8 553a a74f 42ba 13e1 4a39
000002f0: 3eef f9b8 990f b0b9 804e d739 9c54 b039
00000300: 7a68 89b9 0031 8fb9 0df3 b639 12b9 ca3b
00000310: 15b9 3dbe 5bd8 deb8 c2d1 ce3a b6cd 8139
00000320: 7b21 1abb dea2 a33b 37e5 9a3b 38af 67bd
00000330: 2bba b6bc c115 753d 0bf4 503d b123 d33c
00000340: daa7 ba38 3bb9 37bc f918 01b9 70ec 04bf
00000350: 5ace fbb9 d05a 983e 3af3 923e 5f93 683f
00000360: e835 3a3e a61e 023d 844b be3b f889 a53b
00000370: ed69 113b 005a 11ba 8856 743b 5c2e 2cbe
00000380: 63fd b13c 3da8 b4be 7acf 653d 5fd7 4fbd
00000390: 7ed8 a93c 1696 0b3e 8bab 80bd be9d 82bf
000003a0: fbc1 31bd 6328 88bc f040 513b dc63 b73b
000003b0: 2a98 3eba fdb3 8dba 8e5d 24b9 56e4 2c3a
000003c0: c830 ea38 937b ce39 31e1 df39 3414 ad38
000003d0: 0e0a 3d3a 88f5 66b9 97c7 8939 69af 7639
000003e0: b424 253a 1491 00b9 88f7 c639 e90b e838
000003f0: 6e7f 013a 9a65 a437 1e06 9339 9bef 6539

feature.0.bias f4 [40]
-5.4021984e-05 -1.5485267e-06 8.265889e-05 0.0005152085 0.0015591215 0.018842857 -2.477095e-05 -0.0013957958
-9.4305804e-05 -2.4729776e-05 0.00015003471 1.2821807e-05 1.3281578e-05 -0.0072617843 0.027915621 0.007465902
3.430632e-11 5.0746316e-05 -1.765066e-05 -0.0010439977 -7.776338e-05 -0.00047042852 -0.00062672334 0.015763903
-4.4430628e-05 0.002543389 0.0025144038 0.0049379133 -0.0006377052 -0.00061353424 0.00015901052 0.01270111
0.00054082734 0.00045542518 0.00028644787 -0.0003594101 -8.640546e-05 -0.005801077 -0.0031418295 0.0005121039
00000000: aa95 62b8 f9d6 cfb5 2759 ad38 0f0f 073a
00000010: 705b cc3a 565c 9a3c 36cb cfb7 23f3 b6ba
00000020: 0bc6 c5b8 ca72 cfb7 a352 1d39 3e1d 5737
00000030: f1d3 5e37 43f4 edbb 4daf e43c 86a4 f43b
00000040: 7ce1 162e 71d8 5438 8110 94b7 c0d6 88ba
00000050: e614 a3b8 d9a3 f6b9 b14a 24ba 4d23 813c
00000060: 065b 3ab8 fdae 263b b2c8 243b 38ce a13b
00000070: ac2b 27ba 96d5 20ba 10bc 2639 5118 503c
00000080: 4fc6 0d3a 22c6 ee39 622e 9639 356f bcb9
00000090: 9434 b5b8 f616 bebb 27e7 4dbb b63e 063a

feature.2.weight f4 [40]
0.061770488 1.1605132 0.19297948 0.26688498 0.05202561 0.9449537 0.27928522 0.10752346
0.18643774 0.31846058 0.03595843 0.0025256197 0.005762553 0.964919 1.0666907 0.9892167
0.1217263 -0.025912462 -0.013844903 0.9710685 0.028395452 0.89928937 0.5926816 -0.22683702
0.0035809735 1.1159852 1.0887768 -0.16090848 0.82243073 0.21869317 0.041158512 0.17654282
0.19894408 -0.06076578 -0.016708493 0.047048267 0.06772079 0.16666196 0.56414944 0.1390444
00000000: 0d03 7d3d b28b 943f 6a9c 453e 26a5 883e
00000010: ce18 553d 7ce8 713f 79fe 8e3e 4335 dc3d
00000020: 89e9 3e3e 440d a33e 2649 133d de84 253b
00000030: ccd3 bc3b ee04 773f 5289 883f 4e3d 7d3f
00000040: a34b f93d 5f46 d4bc bbd5 62bc f297 783f
00000050: 949d e83c d437 663f fbb9 173f f747 68be
00000060: c4ae 6a3b 9ad8 8e3f 0a5d 8b3f 31c5 24be
00000070: d28a 523f 1af1 5f3e d495 283d a4c7 343e
00000080: ffb7 4b3e 8ae5 78bd 40e0 88bc afb5 403d
00000090: 33b1 8a3d 6fa9 2a3e 196c 103f a861 0e3e

feature.2.bias f4 [40]
-0.007571929 0.26120663 -0.0035300169 -0.0077199396 5.7577824e-07 0.1608467 -0.0019546102 -0.0032909745
0.011729795 0.057091303 0.00038105526 9.4080366e-05 -7.72285e-05 0.20900406 0.032293424 0.12498759
-0.0032061122 0.0011170863 -0.0007542486 0.12080066 -3.5609923e-05 -0.025247205 -0.037239697 -0.011209909
-0.00022159412 0.13659541 0.092930704 -0.017615216 -0.07744176 -0.012600451 0.0054171477 0.014623462
0.024282599 0.005594326 0.00011194006 0.0013208078 -0.012819906 0.0031196107 0.013483244 0.010340577
00000000: f21d f8bb e0bc 853e db57 67bb 8cf7 fcbb
00000010: 2e8f 1a35 ffb4 243e eb18 00bb 64ad 57bb
00000020: 532e 403c 92d8 693d 5fc8 c739 034d c538
00000030: bcf5 a1b8 2905 563e 1c46 043d 7ef9 ff3d
00000040: a31d 52bb 326b 923a c4b8 45ba 5666 f73d
00000050: dd5b 15b8 3ad3 cebc a788 18bd c4a9 37bc
00000060: b85b 68b9 abdf 0b3e 7452 be3d c94d 90bc
00000070: c999 9ebd 1f72 4ebc 5482 b13b 3f97 6f3c
00000080: 4dec c63c 9c50 b73b 5dc1 ea38 f51e ad3a
00000090: 950a 52bc 6272 4c3b d3e8 5c3c 866b 293c

feature.2.running_mean f4 [40]
433.36127 8106.8774 2718.5168 947.61554 0.03004277 436.14825 1252.8693 20.719933
50.705215 559.963 30.801065 0.21132666 0.005253138 926.8977 355.82605 949.9542
2078.0132 0.0005301886 9.0491085 1576.4414 4.2784786 5164.0957 2469.04 6.8799443
0.008281507 694.85425 32.489513 1.4305128 3181.81 906.78503 0.023841944 5.6418424
522.39716 2.9714656 0.27324173 0.3218228 1070.4985 3.9101994 1110.5437 291.1076
00000000: 3eae d843 0557 fd45 45e8 2945 65e7 6c44
00000010: 411c f63c fa12 da43 d19b 9c44 6cc2 a541
00000020: 24d2 4a42 a2fd 0b44 9568 f641 0466 583e
00000030: 8422 ac3b 74b9 6744 bce9 b143 127d 6d44
00000040: 36e0 0145 5bfc 0a3a 26c9 1041 200e c544
00000050: 4ce9 8840 c460 a145 a450 1a45 8128 dc40
00000060: 28af 073c acb6 2d44 43f5 0142 0b1b b73f
00000070: f6dc 4645 3eb2 6244 2e50 c33c f989 b440
00000080: 6b99 0244 7e2c 3e40 57e6 8b3e f5c5 a43e
00000090: f4cf 8544 b540 7a40 66d1 8a44 c68d 9143

feature.2.running_var f4 [40]
134762.2 2.795592e+06 851379.9 585959.25 0.17653836 159395.88 717871.0 612.2332
40355.84 907078.9 342.257 0.05730711 0.026211781 515301.88 153618.0 753396.5
2.1208602e+06 0.0045431186 494.07916 1.8673926e+06 60.502857 1.4930336e+06 2.3994938e+06 233.3301
0.005716056 224511.16 52896.53 26.706564 2.3020175e+06 257887.31 0.25507927 189.51892
453624.1 915.14026 6.832227 3.939353 509620.28 168.83514 946076.5 460175.94
00000000: 8d9a 0348 20a1 2a4a 3edb 4f49 740e 0f49
00000010: 79c6 343e f8a8 1b48 f042 2f49 ed0e 1944
00000020: d7a3 1d47 6e74 5d49 e520 ab43 dcba 6a3d
00000030: 17ba d63c bc9c fb48 8004 1648 48ef 3749
00000040: 7172 014a 71de 943b 220a f743 05f4 e349
00000050: ed02 7242 4d41 b649 1774 124a 8154 6943
00000060: c14d bb3b ca3f 5b48 88a0 4e47 0ba7 d541
00000070: 0681 0c4a d4d7 7b48 c099 823e d884 3d43
00000080: 037f dd48 fac8 6444 9ba1 da40 5c1e 7c40
00000090: 89d6 f848 ccd5 2843 c8f9 6649 feb1 e048

feature.3.weight f4 [35, 40]
0.015602361 0.14405726 0.062159643 0.028796328 0.011969645 0.15787026 0.03970854 -0.0047596213
0.018159946 0.010513784 -0.0073334007 0.0012142226 6.998099e-05 0.057411265 -0.091939405 -0.07566293
-0.033265013 -2.0744304e-05 -0.009446787 -0.33346382 0.01796957 0.17207901 0.14184183 -0.031786982
0.0005340205 0.51444596 0.027484106 0.017573599 0.21276116 -0.03420616 -0.002495386 0.05727253
0.034626 -0.015600503 -0.0043165535 0.0075385496 0.0009978019 0.025203403 0.09299744 0.06250596
-0.007674739 -0.10718246 0.00095479493 -0.010314183 -0.0068843784 -0.13699758 -0.02385571 -0.024810864
-0.07765568 0.038101807 -0.008218333 -0.00011392519 -0.00038910046 -0.3210643 -0.49424407 -0.7556712
0.0019937975 0.0016833884 -0.005760146 0.19450697 0.0024885824 -0.12338292 0.18838786 0.049495485
-0.00043845372 -0.49452808 0.17103565 -0.00462829 0.18649434 -0.026408158 0.0014031414 -0.012638392
0.007759865 0.03212981 0.00035033788 0.009896342 0.019976642 0.02398063 0.20707999 0.037828337
-0.09409695 0.3245067 0.038047157 -0.034460038 -0.011377553 -0.36359632 0.0068619414 0.027775403
-0.0018652527 -0.008906918 0.0055732257 -0.00039660715 0.00026648273 -0.42726436 -0.03439951 -0.27732724
-0.058886178 0.00084037345 0.003911607 -0.02099965 -0.0021398806 0.50586146 -0.051675852 -0.050117563
-0.0010336499 0.15412489 -0.034305148 -0.06079243 0.3033033 -0.0124544855 0.003048883 0.09511532
-0.02367889 -0.005808893 0.005615724 0.0028775516 -0.07330818 -0.029242925 0.09669385 0.035743628
0.05476928 -0.4017136 -0.09364027 -0.0609269 -0.009872593 0.03823053 -0.034599274 -0.07816069
-0.06212595 0.026921548 0.00033386733 -0.00022959089 0.00058272755 -0.13499424 0.22110201 0.004229672
-0.0018806169 -0.0014770611 0.0066128937 -0.1263549 -0.005349035 -0.86447734 0.26018968 0.02497469
-2.947929e-05 0.1541255 -0.12566602 0.0678634 0.117287114 0.0847307 -0.006149978 0.068112895
0.03284144 -0.00039372157 -1.3300421e-05 0.007820553 -0.034794915 0.031531855 0.06973628 0.046145804
-0.035909902 -0.4483796 -0.07884227 -0.018012935 -0.014089627 -0.26195753 -0.05625807 -0.018035585
-0.10583367 0.14111394 -0.0041669533 -0.0005689742 -0.0031074712 0.087936446 0.5139446 0.041502528
-0.1153095 0.009581371 -0.004333137 -0.07973356 0.0035634907 -0.6389328 0.10471916 -0.037910793
0.00051305385 -0.24787933 -0.18999444 -0.003805647 -0.097050436 -0.06965691 0.021694237 0.12769236
0.07236752 0.016012054 0.004378635 -0.0054477556 -0.09786224 -0.03201773 -0.05678497 0.14952664
-0.107497126 -0.30807418 -0.008768586 0.021555861 -0.01181754 0.2155042 -0.015874973 0.053643692
0.03510146 0.06982861 0.002587855 -0.00046567782 0.0010685247 0.29628742 -0.45883447 0.066349424
-0.1697324 0.0014528714 5.877804e-05 0.077511914 -0.0029594526 -0.12751591 -0.3550151 -0.03483937
0.0006760899 -0.29085705 -0.59796405 -0.05785597 0.022252025 -0.22838749 0.008999242 -0.017290497
-0.024861526 -0.040630255 0.0042973147 -0.0014783308 -0.13692793 -0.025604947 -0.3085612 0.035097957
-0.07874902 -0.36492223 0.012871856 0.02806329 -0.014583602 0.29989892 -0.027981002 0.02646203
-0.03320958 0.024499709 -0.0014850186 -0.0013604301 -0.0014349003 -0.5311031 -0.43042725 -0.38646588
00000000: 0ca1 7f3c bf83 133e 1c9b 7e3d 47e6 eb3c
00000010: 541c 443c bea8 213e 6ca5 223d 99f6 9bbb
00000020: 2bc4 943c 0242 2c3c 064d f0bb 8d26 9f3a
00000030: c2c2 9238 1328 6b3d ba4a bcbd 2bf5 9abd
00000040: e540 08bd 0e04 aeb7 b2c6 1abc c5bb aabe
00000050: eb34 933c 7b35 303e fc3e 113e 1133 02bd
00000060: 82fd 0b3a bbb2 033f 5926 e13c 82f6 8f3c
00000070: 10de 593e c21b 0cbd a189 23bb 9a96 6a3d
00000080: fed3 0d3d 4199 7fbc e071 8dbb f005 f73b
00000090: adc8 823a 5e77 ce3c 7175 be3d 2003 803d
000000a0: 617c fbbb 7a82 dbbd 344b 7a3a d2fc 28bc
000000b0: 5a96 e1bb 1849 0cbe 0d6d c3bc 2740 cbbc
000000c0: f109 9fbd a410 1c3d 30a6 06bc 1feb eeb8
000000d0: 2e00 ccb9 8a62 a4be 8f0d fdbe ab73 41bf
000000e0: 5faa 023b 24a5 dc3a 9bbf bcbb d62c 473e
000000f0: 7c17 233b 2fb0 fcbd bfe8 403e c7bb 4a3d
00000100: 43e0 e5b9 c932 fdbe f823 2f3e e9a8 97bb
00000110: 5ff8 3e3e ec55 d8bc 9de9 b73a 4211 4fbc
00000120: 7746 fe3b 8c9a 033d 8ead b739 4424 223c
00000130: 0ea6 a33c 0773 c43c c70c 543e e3f1 1a3d
00000140: e7b5 c0bd be25 a63e 56d7 1b3d f825 0dbd
00000150: eb68 3abc 4c29 babe 23da e03b 3e89 e33c
00000160: 7f7b f4ba 52ee 11bc 9b9f b63b b6ef cfb9
00000170: b5b6 8b39 65c2 dabe 80e6 0cbd d6fd 8dbe
00000180: a232 71bd 824c 5c3a f02c 803b 7507 acbc
00000190: 3d3d 0cbb 2380 013f 0faa 53bd 1348 4dbd
000001a0: 897b 87ba ead2 1d3e 8e83 0cbd 7c01 79bd
000001b0: 924a 9b3e e60d 4cbc c5cf 473b d2cb c23d
000001c0: 3bfa c1bc 8758 bebb 1b04 b83b 4e95 3c3b
000001d0: 9922 96bd dc8e efbc 6d07 c63d e967 123d
000001e0: c155 603d 68ad cdbe 78c6 bfbd 7c8e 79bd
000001f0: a8c0 21bc 9e97 1c3d f8b7 0dbd b612 a0bd
00000200: c877 7ebd 948a dc3c ea0a af39 56be 70b9
00000210: 2fc2 183a ee3b 0abe 9168 623e 0f99 8a3b
00000220: 087f f6ba f299 c1ba f9b0 d83b 2e63 01be
00000230: f546 afbb 634e 5dbf 9537 853e b997 cc3c
00000240: 4b4a f7b7 13d3 1d3e 98ae 00be f7fb 8a3d
00000250: 3a34 f03d 4a87 ad3d c185 c9bb c67e 8b3d
00000260: bf84 063d 6a6c ceb9 e024 5fb7 c721 003c
00000270: 1d85 0ebd 8c27 013d e5d1 8e3d 6203 3d3d
00000280: 4316 13bd 0392 e5be 0e78 a1bd dd8f 93bc
00000290: 2ed8 66bc 4c1f 86be dd6e 66bd 5dbf 93bc
000002a0: 53bf d8bd 2c80 103e f08a 88bb 3627 15ba
000002b0: b7a6 4bbb 0618 b43d e091 033f 8efe 293d
000002c0: 6327 ecbd 2ffb 1c3c fdfc 8dbb 594b a3bd
000002d0: 7489 693b 1a91 23bf 0077 d63d 5948 1bbd
000002e0: 767e 063a 14d4 7dbe e78d 42be 2968 79bb
000002f0: 61c2 c6bd 48a8 8ebd 1db8 b13c c9c1 023e
00000300: 6c35 943d b62b 833c a77a 8f3b 1683 b2bb
00000310: 006c c8bd 0625 03bd 5b97 68bd 831d 193e
00000320: 7427 dcbd e6bb 9dbe 1eaa 0fbc eb95 b03c
00000330: 5b9e 41bc 22ad 5c3e 3b0c 82bc 7db9 5b3d
00000340: 8cc6 0f3d 4d02 8f3d 0199 293b 3826 f4b9
00000350: bd0d 8c3a fcb2 973e 5aec eabe 35e2 873d
00000360: 55ce 2dbe 466e be3a 7188 7638 91be 9e3d
00000370: 60f3 41bb 8893 02be 8ac4 b5be bab3 0ebd
00000380: a03b 313a 37eb 94be 2c14 19bf 62fa 6cbd
00000390: e149 b63c 69de 69be 8f71 133c cda4 8dbc
000003a0: 66aa cbbc e96b 26bd 7dd0 8c3b 8dc4 c1ba
000003b0: d636 0cbe 77c1 d1bc bcfb 9dbe e0c2 0f3d
000003c0: 2b47 a1bd 16d7 babe 7ae4 523c fce4 e53c
000003d0: 0ff0 6ebc 5a8c 993e 6a38 e5bc e6c6 d83c
000003e0: c506 08bd 9db3 c83c f5a4 c2ba 7650 b2ba
000003f0: 4413 bcba 5ff6 07bf f660 dcbe dbde c5be

feature.3.bias f4 [35]
-0.29943657 -0.43489027 0.18977876 -0.37673187 -0.30284488 0.053111367 0.09723207 -0.043099634
-0.052499827 -0.18321675 -0.2442612 -0.41561806 -0.04024587 0.0131572075 -0.06683639 0.07894159
-0.10534469 -0.08735228 0.008772339 0.35470125 -0.18594489 -0.40223005 0.6699517 0.25350183
-0.048575416 -0.20798878 -0.19815324 -0.5753282 0.20063747 0.27972254 -0.038952257 -0.3110417
0.08426124 -0.03427936 -0.04134698
00000000: c04f 99be f0a9 debe 5d55 423e 00e3 c0be
00000010: 7c0e 9bbe 4e8b 593d 9c21 c73d 3e89 30bd
00000020: 0f0a 57bd 2c9d 3bbe 9c1f 7abe e4cb d4be
00000030: dad8 24bd 5491 573c 84e1 88bd 21ac a13d
00000040: f5be d7bd c1e5 b2bd dbb9 0f3c 679b b53e
00000050: 5668 3ebe 19f1 cdbe f481 2b3f feca 813e
00000060: 04f7 46bd 03fb 54be afe8 4abe b548 13bf
00000070: e973 4d3e cb37 8f3e 678c 1fbd dc40 9fbe
00000080: 2891 ac3d 8468 0cbd 735b 29bd

feature.5.weight f4 [35]
0.6011122 0.74611634 0.50886923 0.7081044 0.6597081 0.620844 0.5885978 0.28544432
0.60834515 0.47860953 0.5807657 0.5906533 0.6010821 0.70260733 0.62655216 0.43706593
0.5515149 0.64129937 0.7003221 0.5139322 0.42221558 0.6147455 0.78167033 0.5934423
0.5109014 0.6402402 0.6152958 0.6012957 0.66869885 0.5874716 0.30488583 0.6264508
0.41182685 0.6828372 0.7510376
00000000: 7de2 193f 7b01 3f3f 4145 023f 5446 353f
00000010: a1e2 283f a2ef 1e3f 58ae 163f c225 923e
00000020: 82bc 1b3f 4f0c f53e 10ad 143f 0e35 173f
00000030: 84e0 193f 13de 333f b965 203f 1bc7 df3e
00000040: 1530 0d3f 322c 243f 4f48 333f 1091 033f
00000050: a42c d83e f65f 1d3f 8c1b 483f d6eb 173f
00000060: 6fca 023f c8e6 233f 0784 1d3f 84ee 193f
00000070: d92f 2b3f 8a64 163f ff19 9c3e 145f 203f
00000080: f8da d23e 6bce 2e3f 0044 403f

feature.5.bias f4 [35]
0.13666026 0.074340336 0.049302857 0.21588297 0.03758382 0.011902887 -0.049467977 0.007478773
0.070645586 0.07284507 0.10278288 0.12922738 0.02793273 0.21819387 0.1346372 -0.012158056
0.12216254 0.1382536 -0.18113998 -0.057028692 0.043297254 0.114506364 0.30254886 -0.07254629
-0.007522459 0.07714571 0.3286052 0.1537575 0.09971535 -0.064202346 0.004293002 0.13722125
0.021417124 0.13137506 0.037905805
00000000: abf0 0b3e bf3f 983d cbf1 493d 6d10 5d3e
00000010: 7ef1 193d 5404 433c ef9e 4abd 7f10 f53b
00000020: a2ae 903d cc2f 953d d57f d23d 2f54 043e
00000030: 2ed3 e43c 376e 5f3e 56de 093e 9532 47bc
00000040: 5b30 fa3d 5a92 0d3e c27c 39be eb96 69bd
00000050: 7658 313d 5082 ea3d afe7 9a3e 2693 94bd
00000060: f67e f6bb 92fe 9d3d f13e a83e 9b72 1d3e
00000070: 9037 cc3d 857c 83bd 50ac 8c3b ba83 0c3e
00000080: f772 af3c 2f87 063e 1e43 1b3d

feature.5.running_mean f4 [35]
0.22466466 0.2042277 0.36845565 0.14645964 0.19034502 0.36819717 0.31331527 0.08604361
0.31454113 0.236844 0.33657348 0.19675335 0.3103925 0.31086364 0.25312495 0.29319713
0.26368847 0.23991475 0.39263695 0.4887754 0.09672077 0.17329998 0.79832596 0.4674339
0.27093032 0.2859244 0.22619334 0.07529826 0.36834046 0.45237914 0.0867003 0.23627798
0.20497003 0.28015587 0.32908264
00000000: 7e0e 663e 1121 513e 38a6 bc3e 84f9 153e
00000010: cee9 423e 5784 bc3e dc6a a03e a237 b03d
00000020: 890b a13e 3c87 723e 5c53 ac3e b679 493e
00000030: c4eb 9e3e 8529 9f3e 9899 813e ef1d 963e
00000040: 2d02 873e 36ac 753e b607 c93e c540 fa3e
00000050: 8a15 c63d 8d75 313e 175f 4c3f 7f53 ef3e
00000060: 61b7 8a3e af64 923e 3a9f 673e f935 9a3d
00000070: 1f97 bc3e 3d9e e73e ed8f b13d dbf2 713e
00000080: aae3 513e 9770 8f3e 857d a83e

feature.5.running_var f4 [35]
0.25656128 0.17400546 0.28572285 0.15113144 0.21369071 0.29796058 0.1970842 0.020547474
0.13642661 0.15134723 0.1538501 0.24542184 0.17615263 0.24411903 0.19133468 0.22967894
0.23795347 0.14261812 0.23242131 0.15133289 0.049604904 0.15297979 0.6479693 0.30668
0.21395421 0.19232652 0.15271863 0.043851268 0.2939641 0.22240415 0.021168536 0.23772253
0.06709013 0.27233866 0.25410876
00000000: 005c 833e 7d2e 323e 444a 923e 33c2 1a3e
00000010: bdd1 5a3e 4a8e 983e 71d0 493e 2d53 a83c
00000020: 6bb3 0b3e c5fa 1a3e e18a 1d3e dd4f 7b3e
00000030: 5b61 343e 57fa 793e 3ded 433e f530 6b3e
00000040: 13aa 733e 7c0a 123e daff 6d3e 02f7 1a3e
00000050: 832e 4b3d bca6 1c3e 51e1 253f 2905 9d3e
00000060: d016 5b3e 3ef1 443e 4662 1c3e 639d 333d
00000070: 7682 963e eabd 633e a369 ad3c 896d 733e
00000080: 8d66 893d f96f 8b3e 8b1a 823e

feature.6.weight f4 [30, 35]
0.0469405 0.09545934 -0.20222239 0.07025015 -0.120712206 0.2339334 0.3502735 0.31617156
-0.3265892 -0.23368682 0.21525382 0.10799975 -0.07605857 -0.29710555 -0.085484184 -0.18036835
0.2889013 0.45582986 0.46216345 -0.0964254 -0.13277434 0.33807543 0.22598414 0.27331457
0.12314342 0.09085683 -0.10247133 -0.16841984 -0.30538923 -0.17885791 0.27728024 -0.34544525
0.3618095 0.20223247 0.31367004 -0.1578376 0.020333737 0.22474232 -0.044490088 0.0054494576
0.49198112 0.012712633 0.05829605 0.178786 0.023613168 -0.1130433 0.16717093 -0.7782396
0.065121666 -0.053335436 0.16007896 -0.13627452 -0.07493951 -0.12947333 -0.016085321 0.107150964
-0.037234522 -0.094598174 -0.20556642 -0.1358208 0.28804046 -0.29808196 -0.026695495 -0.19222121
-0.29621294 0.08146574 -0.16501537 0.059779987 0.125102 0.65840596 -0.13975157 -0.25162357
0.0949338 0.045328166 -0.1486903 0.45399368 0.026094936 0.061237935 -0.32515663 -0.17489554
0.16030113 -0.022831133 -0.022630246 0.0862191 -0.12049929 -0.004985422 0.09999039 -0.16304192
0.07673127 0.28595743 0.08671138 -0.21427698 0.32952744 -0.78601617 -0.036402963 0.0069640954
0.18456487 -0.14906882 0.18055667 0.17767696 0.06340764 -0.067437984 0.08258937 -0.24796644
-0.35249737 0.1058697 0.015177486 -0.21414885 0.020330802 -0.1602146 0.1580173 -0.48365262
-0.24650533 0.008963108 0.018535443 0.030192167 -0.28236985 -0.21647795 -0.0939448 -0.14594287
-0.18590221 -0.09849051 0.0036966715 -0.15588816 0.0694059 -0.009609618 0.13261573 -0.09732195
0.08671422 -0.15133198 0.044359174 -0.23481968 0.17784807 -0.01843823 0.10169618 -0.26488152
-0.1375355 -0.40695474 0.0044477894 0.38401362 0.058106653 -0.042539086 -0.09089114 0.12032777
0.13115016 0.2634189 0.44454744 0.11639508 -0.018711913 -0.13985325 -0.5003259 -0.045786545
0.35698745 0.26978585 0.039383624 0.12190862 -0.06919777 -0.18035425 -0.5527081 0.08350018
0.23151246 -0.08190821 -0.17689303 0.10038859 0.15150104 -0.018763125 -0.28225505 0.19883032
-0.08510029 0.35916436 0.14894569 -0.01851727 0.17416415 0.03198243 0.18024401 0.011393462
-0.08648921 -0.0042910776 0.13497381 -0.33850303 -0.09399926 -0.13632493 -0.093236595 0.010668718
-0.22284584 -0.28320754 -0.36214146 -0.068694524 0.287108 -0.10655265 -0.11484849 -0.24314173
-0.32202706 -0.6011132 0.356887 0.17010786 -0.09177292 0.1820414 -0.40696913 -0.029116636
-0.30628005 0.05081945 -0.07675544 -0.047378704 -0.007160598 -0.10340307 -0.045965955 -0.118629664
-0.05011588 -0.18490504 0.049074143 -0.0069552534 0.15459527 0.14576638 0.42465422 -0.053703822
-0.65491486 0.081499375 -0.19299044 -0.24251235 0.30962205 0.10875051 0.3884528 0.064129926
-0.25369257 0.029448662 0.053853974 -0.20722769 0.18004283 0.2045947 -0.07166749 0.04998693
-0.5733318 -0.12318126 -0.014481858 0.21938376 -0.024910783 -0.10957335 0.11991204 0.014877476
0.08606158 -0.03829912 0.0813542 -0.06848965 0.4773809 -0.3691819 -0.071816206 0.025088325
-0.23606941 0.02499328 0.12809305 -0.12808456 0.2579759 -0.21516263 -0.25027016 -0.36412358
00000000: af44 403d 3080 c33d 6313 4fbe 50df 8f3d
00000010: f637 f7bd 3d8c 6f3e 0c57 b33e 3de1 a13e
00000020: b336 a7be 994b 6fbe 7f6b 5c3e f92e dd3d
00000030: 98c4 9bbd 381e 98be 5512 afbd 7bb2 38be
00000040: dfea 933e 8862 e93e b0a0 ec3e ae7a c5bd
00000050: fff5 07be 3918 ad3e 6368 673e e3ef 8b3e
00000060: 9e32 fc3d 2513 ba3d 7ddc d1bd 4076 2cbe
00000070: fa5b 9cbe 8726 37be adf7 8d3e 33de b0be
00000080: 183f b93e 0716 4f3e 5c99 a03e 2ea0 21be
00000090: f092 a63c da22 663e 3d3b 36bd 5d91 b23b
000000a0: f3e4 fb3e a648 503c d7c7 6e3d ad13 373e
000000b0: 6770 c13c 3f83 e7bd db2e 2b3e b63a 47bf
000000c0: 825e 853d 4276 5abd bdeb 233e 8c8b 0bbe
000000d0: e379 99bd a894 04be 5dc5 83bc f771 db3d
000000e0: 3a83 18bd b0bc c1bd 0180 52be 9c14 0bbe
000000f0: 0a7a 933e 339e 98be 83b0 dabc a3d5 44be
00000100: 39a9 97be 83d7 a63d caf9 28be dcdb 743d
00000110: bd1a 003e 4b8d 283f 091b 0fbe ced4 80be
00000120: a76c c23d 07aa 393d 4542 18be dc71 e83e
00000130: 0cc5 d53c a1d4 7a3d ee7a a6be d117 33be
00000140: fb25 243e 5b08 bbbc 1163 b9bc a493 b03d
00000150: 55c8 f6bd c05c a3bb c3c7 cc3d 76f4 26be
00000160: 4925 9d3d 0369 923e bc95 b13d 6d6b 5bbe
00000170: d2b7 a83e 5b38 49bf 461b 15bd 1133 e43b
00000180: 93fe 3c3e 7fa5 18be d9e3 383e f3f0 353e
00000190: dddb 813d ed1c 8abd 9e24 a93d eaea 7dbe
000001a0: 897a b4be 37d2 d83d feaa 783c d649 5bbe
000001b0: c88c a63c 4c0f 24be 49cf 213e 51a1 f7be
000001c0: e56b 7cbe 00da 123c a4d7 973c 9055 f73c
000001d0: c892 90be 65ac 5dbe 2266 c0bd 0c72 15be
000001e0: 265d 3ebe 64b5 c9bd db43 723b 25a1 1fbe
000001f0: ae24 8e3d a971 1dbc 6bcc 073e bb50 c7bd
00000200: 3a97 b13d c5f6 1abe f7b1 353d 9274 70be
00000210: ce1d 363e c50b 97bc 1646 d03d 8d9e 87be
00000220: 1bd6 0cbe 5f5c d0be c3be 913b 6f9d c43e
00000230: 3e01 6e3d 773d 2ebd 2225 babd 686e f63d
00000240: 3a4c 063e d8de 863e b99b e33e 8b60 ee3d
00000250: ba49 99bc b135 0fbe 5c15 00bf ac8a 3bbd
00000260: 0fc7 b63e 5f21 8a3e b950 213d 3aab f93d
00000270: 8fb7 8dbd c9ae 38be 477e 0dbf 2402 ab3d
00000280: 9a11 6d3e 7ebf a7bd 7223 35be 8898 cd3d
00000290: 1723 1b3e 20b5 99bc bc83 90be 2d9a 4b3e
000002a0: 1049 aebd 64e4 b73e 3885 183e 88b1 97bc
000002b0: 1658 323e 0200 033d e391 383e a5ab 3a3c
000002c0: 4121 b1bd 2b9c 8cbb 9336 0a3e 4550 adbe
000002d0: af82 c0bd c398 0bbe d4f2 bebd d9cb 2e3c
000002e0: b331 64be 9400 91be 9b6a b9be b7af 8cbd
000002f0: d2ff 923e 4738 dabd af35 ebbd 25fa 78be
00000300: bbe0 a4be 8ee2 19bf e5b9 b63e c130 2e3e
00000310: 71f3 bbbd 1069 3a3e 425e d0be 0386 eebc
00000320: bdd0 9cbe 0e28 503d f531 9dbd 2c10 42bd
00000330: 73a3 eabb fdc4 d3bd cc46 3cbd 1cf4 f2bd
00000340: 4f46 4dbd bf57 3dbe f801 493d e5e8 e3bb
00000350: 394e 1e3e c843 153e 476c d93e 8af8 5bbd
00000360: 80a8 27bf 25e9 a63d 499f 45be 2855 78be
00000370: c886 9e3e 96b8 de3d 49e3 c63e 8d56 833d
00000380: fee3 81be 523e f13c fc95 5c3d 7f33 54be
00000390: 265d 383e 4681 513e 68c6 92bd 18bf 4c3d
000003a0: dfc5 12bf 7546 fcbd 5145 6dbc 23a6 603e
000003b0: b311 ccbc fe67 e0bd 7294 f53d a8c0 733c
000003c0: 0e41 b03d 8adf 1cbd 089d a63d 4d44 8cbd
000003d0: 456b f43e 6905 bdbe 6014 93bd 0886 cd3c
000003e0: 2ebc 71be b5be cc3c d32a 033e 9928 03be
000003f0: 6b15 843e 9853 5cbe 6923 80be 686e babe

feature.6.bias f4 [30]
-0.0913761 -0.2716639 -0.11577463 0.07715327 -0.37596777 0.24456728 -0.25900733 -0.1288287
0.029919166 -0.12483378 -0.17171368 -0.24819511 -0.011251225 -0.019532707 0.023195675 0.29857147
-0.014721189 -0.113864124 -0.13130963 0.056646597 -0.1334806 0.19854955 -0.16255094 -0.31487304
0.06581383 -0.01631453 -0.09054818 -0.15089042 -0.1397663 0.1245307
00000000: 6523 bbbd 8817 8bbe 401b edbd 8902 9e3d
00000010: d97e c0be d86f 7a3e 9c9c 84be aceb 03be
00000020: 0a19 f53c daa8 ffbd b6d5 2fbe dc26 7ebe
00000030: 0f57 38bc 0e03 a0bc db04 be3c 5cde 983e
00000040: 2431 71bc 9831 e9bd 0876 06be 4306 683d
00000050: 23af 08be 9350 4b3e c173 26be 0a37 a1be
00000060: 67c9 863d 0da6 85bc 5371 b9bd 0583 1abe
00000070: e61e 0fbe f409 ff3d

feature.8.weight f4 [30]
0.5429888 0.5617355 0.35417998 0.37964448 0.44271424 0.37147555 0.50612915 0.43275687
0.37596792 0.4726881 0.47332224 0.4003747 0.4448046 0.45699066 0.36806783 0.36134398
0.41907263 0.39697197 0.41379046 0.48715702 0.40217963 0.44034055 0.32431668 0.3704841
0.4597004 0.30000648 0.4043181 0.2890347 0.33481693 0.520991
00000000: 5001 0b3f e6cd 0f3f 1457 b53e c360 c23e
00000010: 71ab e23e 0b32 be3e ae91 013f 4f92 dd3e
00000020: de7e c03e 2d04 f23e 4b57 f23e eafd cc3e
00000030: 6ebd e33e aefa e93e 6373 bc3e 1402 b93e
00000040: b090 d63e e93f cb3e 58dc d33e a56c f93e
00000050: 7dea cd3e 5174 e13e d60c a63e 18b0 bd3e
00000060: da5d eb3e 739a 993e c802 cf3e 5bfc 933e
00000070: 206d ab3e ab5f 053f

feature.8.bias f4 [30]
0.16608126 0.18883292 0.07117552 0.016136263 0.10948879 0.025110995 0.12523928 0.09607575
0.12983623 0.041185543 0.1733047 0.059851136 0.13859127 0.08205123 0.0058367257 -0.09061245
0.089797236 0.08980665 0.12411193 0.1933559 0.08008916 0.054286886 0.003441789 0.0036187468
0.12722895 -0.023187224 0.0870304 0.02842091 0.032144487 0.09676008
00000000: 3511 2a3e 6b5d 413e 79c4 913d 3230 843c
00000010: a93b e03d 93b5 cd3c ba3e 003e 5dc3 c43d
00000020: caf3 043e 2cb2 283d ca76 313e 7726 753d
00000030: dfea 0d3e 7a0a a83d 0142 bf3b 0593 b9bd
00000040: 9de7 b73d 8dec b73d 652e fe3d 17ff 453e
00000050: c905 a43d ed5b 5e3d a38f 613b 7f28 6d3b
00000060: 4e48 023e 22f3 bdbc ff3c b23d f8d2 e83c
00000070: f0a9 033d 262a c63d

feature.8.running_mean f4 [30]
0.13647027 0.15514866 0.1588688 0.23412766 0.10448855 0.40726134 0.102263615 0.09676634
0.18283822 0.09011665 0.12019523 0.084143184 0.20753196 0.22009496 0.27532482 0.36713222
0.21227579 0.17999214 0.18416454 0.33975393 0.06929177 0.3696531 0.10676126 0.05539326
0.1413627 0.0970469 0.21639314 0.109477684 0.16196507 0.30049604
00000000: ddbe 0b3e 4adf 1e3e 81ae 223e 29bf 6f3e
00000010: 18fe d53d 8f84 d03e 966f d13d 6e2d c63d
00000020: f139 3b3e 148f b83d eb28 f63d 4353 ac3d
00000030: 4283 543e 9360 613e 60f7 8c3e c1f8 bb3e
00000040: d35e 593e dc4f 383e a195 3c3e 3af4 ad3e
00000050: d8e8 8d3d 2c43 bd3e a6a5 da3d 0be4 623d
00000060: 62c1 103e 86c0 c63d 2a96 5d3e d635 e03d
00000070: 2cda 253e 9eda 993e

feature.8.running_var f4 [30]
0.09217477 0.109898396 0.053780634 0.0953366 0.06048813 0.11480056 0.05703981 0.054877967
0.064148806 0.034541406 0.045275487 0.032978468 0.111957565 0.0876639 0.101555325 0.09740971
0.08043559 0.069097884 0.07559905 0.25304714 0.025716392 0.13340902 0.027151566 0.021561183
0.05099071 0.019363869 0.08522889 0.03888523 0.04721017 0.16366418
00000000: 20c6 bc3d 6912 e13d 1549 5c3d d63f c33d
00000010: 67c2 773d 8e1c eb3d 93a2 693d b8c7 603d
00000020: 7360 833d 4a7b 0d3d ca72 393d 6e14 073d
00000030: 024a e53d 2189 b33d 3dfc cf3d be7e c73d
00000040: 6abb a43d 3183 8d3d add3 9a3d 658f 813e
00000050: 2fab d23c 609c 083e f66c de3c 14a1 b03c
00000060: a2db 503d faa0 9e3c 7c8c ae3d 1e46 1f3d
00000070: 745f 413d 9597 273e

feature.10.weight f4 [25, 30]
0.055116702 0.06820682 0.22069518 0.19668142 -0.015278215 0.011143512 0.12248523 0.055350725
-0.09142689 -0.17949988 -0.0020726942 -0.23231488 -0.2925103 -0.21284373 0.124431685 0.20648535
0.00723772 0.012171574 0.07030839 -0.019772127 -0.31687087 0.13853538 0.036708884 -0.00016480223
0.08434507 0.0044299494 0.18703319 0.22903216 0.15486494 -0.49274293 -0.29110238 -0.09793549
-0.21491806 0.061973706 0.09548546 0.1386212 0.006833883 0.056433666 -0.2300767 0.04657876
-0.1965933 0.047260437 -0.22024356 -0.2518614 -0.049895238 0.36490074 -0.008796286 0.26718903
-0.019033479 0.0038932224 -0.050477546 0.12902054 0.18268304 -0.021803306 0.14032957 0.08091142
0.023755968 -0.2789277 -0.40466204 0.05214688 -0.06653447 -0.054508194 -0.075408705 -0.049379427
-0.005964838 0.20073703 -0.43125504 -0.23391755 -0.04307793 0.04000148 0.036231983 -0.032053705
-0.11200733 0.41939658 0.2157124 -0.00021164946 0.0876232 0.0012659286 -0.12770972 0.05787602
0.10138419 0.07202876 0.2002739 0.052168727 -0.5115671 -0.21185236 -0.035586506 -0.018850744
0.15386331 0.123454735 0.12034219 -0.00023644083 0.026887836 -0.007347131 0.02787254 0.10507481
0.10998697 -0.22449253 0.011625603 -0.31929964 0.033136833 0.27155828 -0.021311618 -0.110142425
-0.10333826 0.31640404 -0.14355521 -0.14768954 -0.010746358 -0.059959438 0.20478003 0.30331597
-0.036463544 -0.0014008612 -0.019545967 0.41592997 0.19871522 0.08614616 -0.079095125 0.00905936
0.06256649 0.17702228 0.007014842 -0.0037693225 0.031854738 0.050691325 0.07885779 0.0298376
-0.13218214 -0.077159636 -0.0782637 -0.010516039 0.18015358 0.07865959 0.00875132 -0.054375805
-0.73918396 0.056866985 0.033474207 -0.14175689 0.32165942 -0.01818096 -0.10065647 -0.11756829
0.0769849 0.031024367 -0.5400247 -0.04304096 0.04918399 0.12253602 0.17393944 -0.028774884
-0.22401454 -0.0819401 0.23116802 -0.06231496 0.082145564 -0.14885496 0.08428551 0.06538815
0.02508461 -0.04864096 -0.020043096 0.13382843 -0.24444373 0.06405829 0.07324643 -0.2384244
-0.29835793 0.009489932 0.18670203 -0.00539472 -0.15995944 -0.22338982 0.15006503 0.12764046
-0.49292296 0.07084647 0.27361652 0.095204994 0.40570316 -0.17529699 -0.06852468 -0.16909404
0.22022618 -0.6160621 0.026104042 -0.14551897 0.11204116 0.110740975 0.049503643 0.062031794
0.13664684 -0.041436173 0.045883868 -0.17223552 0.12047798 0.15986092 0.2495201 0.14213546
-0.026272943 0.12995851 -0.069744274 -0.03776134 -0.081072964 0.03841125 -0.012892128 -0.1427674
0.043874197 -0.066796556 -0.00019306487 0.09221058 0.036452483 0.17933124 0.1238813 0.030081755
0.077793255 -0.010565414 -0.03440856 0.014460843 -0.097355165 -0.1425219 0.012619491 0.1104365
-0.28765878 0.05303761 0.0299434 -0.06957873 -0.05228815 -0.013502894 -0.0043613273 0.10456396
0.19047196 -0.071685344 -0.17825136 -0.29062417 0.1379272 -0.15993764 -0.0019231787 -0.6548663
-0.16130994 0.0143835135 -0.023537263 -0.05804331 -0.0989428 0.08075788 -0.17388876 0.08713393
0.13095644 -0.3725884 0.1158205 0.08165553 0.07394378 -0.57650024 -0.23767443 0.10075227
00000000: 0dc2 613d 04b0 8b3d ebfd 613e db66 493e
00000010: 7a51 7abc 4793 363c 89d9 fa3d 71b7 623d
00000020: 053e bbbd d1ce 37be 0ad6 07bb f4e3 6dbe
00000030: e9c3 95be b5f3 59be 0ad6 fe3d e570 533e
00000040: 652a ed3b 486b 473c d8fd 8f3d 28f9 a1bc
00000050: e63c a2be 38dc 0d3e 0e5c 163d c3ce 2cb9
00000060: 1cbd ac3d 1c29 913b a185 3f3e 6887 6a3e
00000070: ea94 1e3e cd48 fcbe 5f0b 95be 6792 c8bd
00000080: 7b13 5cbe 24d8 7d3d e18d c33d b7f2 0d3e
00000090: c4ee df3b fd26 673d 3a99 6bbe 5fc9 3e3d
000000a0: c14f 49be 2994 413d 8787 61be faf3 80be
000000b0: f35e 4cbd 45d4 ba3e 4c1e 10bc 00cd 883e
000000c0: 19ec 9bbc 6f25 7f3b 8bc1 4ebd f61d 043e
000000d0: 4311 3b3e d99c b2bc 8eb2 0f3e e3b4 a53d
000000e0: e09b c23c 9dcf 8ebe dd2f cfbe f897 553d
000000f0: 3943 88bd fc43 5fbd e16f 9abd 1542 4abd
00000100: b074 c3bb 028e 4d3e 76cd dcbe 1588 6fbe
00000110: 7c72 30bd 98d8 233d fd67 143d bf4a 03bd
00000120: 1964 e5bd 26bb d63e b6e3 5c3e 38ee 5db9
00000130: cb73 b33d 84ed a53a 56c6 02be 680f 6d3d
00000140: 84a2 cf3d d183 933d 9a14 4d3e e0ae 553d
00000150: 10f6 02bf d3ef 58be 28c3 11bd e06c 9abc
00000160: 588e 1d3e d6d5 fc3d f775 f63d 1aed 77b9
00000170: e143 dc3c 34c0 f0bb f454 e43c 7631 d73d
00000180: d940 e13d 5fe1 65be 5079 3e3c 3e7b a3be
00000190: 7dba 073d b009 8b3e b495 aebc 5a92 e1bd
000001a0: 02a3 d3bd b6ff a13e 2300 13be ed3b 17be
000001b0: 7e11 30bc 0798 75bd dbb1 513e 3b4c 9b3e
000001c0: cc5a 15bd 1a9d b7ba dd1e a0bc c6f4 d43e
000001d0: 017c 4b3e 666d b03d a0fc a1bd b66d 143c
000001e0: dc22 803d 5445 353e c2dc e53b bd06 77bb
000001f0: 1d7a 023d b5a1 4f3d 3180 a13d fc6d f43c
00000200: c15a 07be df05 9ebd b848 a0bd 774b 2cbc
00000210: 2e7a 383e 4718 a13d b261 0f3c 2ab9 5ebd
00000220: 293b 3dbf 5bed 683d 401c 093d b828 11be
00000230: 8bb0 a43e 3df0 94bc fb24 cebd a5c7 f0bd
00000240: 42aa 9d3d d026 fe3c 0f3f 0abf b84b 30bd
00000250: 2775 493d 2af4 fa3d 2e1d 323e 4eb9 ebbc
00000260: 1164 65be 36d0 a7bd 4fb7 6c3e f93d 7fbd
00000270: ef3b a83d 6f6d 18be e29d ac3d 39ea 853d
00000280: 3d7e cd3c be3b 47bd 6b31 a4bc 520a 093e
00000290: 754f 7abe fe30 833d 3902 963d 8725 74be
000002a0: 5fc2 98be a97b 1b3c d12e 3f3e 31c6 b0bb
000002b0: 68cc 23be 4dc0 64be a6aa 193e 2eb4 023e
000002c0: 6660 fcbe f417 913d 7717 8c3e d6fa c23d
000002d0: 53b8 cf3e 0e81 33be ab56 8cbd fd26 2dbe
000002e0: f982 613e 3fb6 1dbf 25d8 d53c ed02 15be
000002f0: d675 e53d 2acc e23d 55c4 4a3d 0d15 7e3d
00000300: 26ed 0b3e fab8 29bd b9f0 3b3d 825e 30be
00000310: 29bd f63d 95b2 233e 3282 7f3e f58b 113e
00000320: 5b3a d7bc d813 053e 16d6 8ebd a3ab 1abd
00000330: 9509 a6bd 1d55 1d3d 8139 53bc 9e31 12be
00000340: 6eb5 333d a2cc 88bd 7571 4ab9 e7d8 bc3d
00000350: 334f 153d 9ca2 373e 7bb5 fd3d 036e f63c
00000360: 1252 9f3d 8f1a 2dbc fdef 0cbd 2ced 6c3c
00000370: 2562 c7bd 43f1 11be fbc1 4e3c 882c e23d
00000380: 0348 93be f73d 593d dc4b f53c 4b7f 8ebd
00000390: 192c 56bd 3e3b 5dbc 77e9 8ebb a125 d63d
000003a0: 150b 433e c4cf 92bd 8687 36be b1cc 94be
000003b0: ca3c 0d3e b1c6 23be 2b13 fcba 51a5 27bf
000003c0: 6f2e 25be d4a8 6b3c 38d1 c0bc d2be 6dbd
000003d0: 86a2 cabd 6364 a53d e50f 32be 4673 b23d
000003e0: 7219 063e e8c3 bebe 4c33 ed3d 043b a73d
000003f0: d66f 973d 8595 13bf ed60 73be 3557 ce3d

feature.10.bias f4 [25]
0.045263298 0.23801957 -0.05992806 -0.23747373 0.06973331 0.020971237 0.18880956 0.4023566
-0.13224718 0.21479905 0.15852222 -0.06341672 -0.0676601 -0.3011311 0.29188684 0.097777404
0.3625153 0.08130762 0.31144282 -0.09124963 0.2699765 0.28084785 -0.179805 -0.16018155
-0.02909686
00000000: 0266 393d 67bb 733e 2077 75bd 502c 73be
00000010: 56d0 8e3d dfcb ab3c 4b57 413e af01 ce3e
00000020: ce6b 07be 48f4 5b3e a653 223e a0e0 81bd
00000030: 6191 8abd db2d 9abe 3172 953e 853f c83d
00000040: 9b9b b93e 9c84 a63d 6f75 9f3e 16e1 babd
00000050: 5c3a 8a3e 4acb 8f3e cd1e 38be a206 24be
00000060: 8a5c eebc

feature.12.weight f4 [25]
0.5159122 0.41916156 0.37188587 0.3939673 0.52672935 0.4392654 0.5362646 0.4820052
0.41039324 0.50656104 0.48299223 0.37695327 0.33493447 0.47309396 0.43928328 0.40201586
0.66634196 0.32182568 0.6079634 0.5248587 0.51102 0.5422585 0.42645907 0.47240445
0.5789466
00000000: d212 043f 589c d63e d367 be3e 15b6 c93e
00000010: bcd7 063f 65e7 e03e a348 093f 63c9 f63e
00000020: 101f d23e fcad 013f c24a f73e 0500 c13e
00000030: 887c ab3e 5f39 f23e bde9 e03e 06d5 cd3e
00000040: 6395 2a3f 56c6 a43e 7da3 1b3f 245d 063f
00000050: 35d2 023f 74d1 0a3f d858 da3e ffde f13e
00000060: d835 143f

feature.12.bias f4 [25]
-0.086798444 -0.14827502 -0.023471555 -0.031703543 -0.0042310045 0.057166386 0.08079416 -0.06477158
-0.015426982 -0.0949408 -0.048133027 0.07589629 -0.00078163476 0.0040538847 0.003572329 -0.13251735
0.052789073 -0.019855632 0.084308915 0.13050155 -0.026630396 -0.053731818 0.007706913 0.11898451
0.064701974
00000000: 62c3 b1bd 68d5 17be 6b47 c0bc 93db 01bd
00000010: 3da4 8abb 4d27 6a3d 6977 a53d f6a6 84bd
00000020: 74c1 7cbc 5270 c2bd 2327 45bd 846f 9b3d
00000030: 9fe6 4cba 73d6 843b bc1d 6a3b a1b2 07be
00000040: 5b39 583d 47a8 a2bc 27aa ac3d 33a2 053e
00000050: fd27 dabc e515 5cbd 468a fc3b 27ae f33d
00000060: 7882 843d

feature.12.running_mean f4 [25]
0.24779329 0.25315398 0.12986717 0.076216035 0.2595127 0.23615952 0.42380404 0.4198846
0.11211899 0.30764014 0.30459383 0.14234868 0.09398393 0.15938388 0.29052034 0.14867626
0.4021567 0.11246163 0.3875507 0.16303991 0.2521186 0.29945278 0.16839704 0.13413051
0.21546517
00000000: 86bd 7d3e 669d 813e e6fb 043e 2717 9c3d
00000010: d9de 843e cdd3 713e d8fc d83e 1dfb d63e
00000020: a49e e53d 0283 9d3e b9f3 9b3e dac3 113e
00000030: a67a c03d 8735 233e 15bf 943e 973e 183e
00000040: 7ce7 cd3e 4852 e63d 0c6d c63e eff3 263e
00000050: b015 813e e051 993e 4670 2c3e 8259 093e
00000060: e7a2 5c3e

feature.12.running_var f4 [25]
0.11951425 0.08782076 0.0630881 0.029656395 0.12729448 0.101203255 0.25269756 0.124161154
0.04268164 0.13235973 0.14788377 0.061442506 0.026281778 0.12334345 0.09109094 0.046287812
0.19380435 0.03288788 0.18507601 0.076847345 0.102284245 0.1246627 0.08182248 0.07291241
0.15575437
00000000: e3c3 f43d 5fdb b33d 5534 813d f8f1 f23c
00000010: 7c59 023e a743 cf3d 9361 813e 3448 fe3d
00000020: f1d2 2e3d 4f89 073e d86e 173e 23ab 7b3d
00000030: e24c d73c 7e9b fc3d e38d ba3d 4a98 3d3d
00000040: a674 463e 71b5 063d 9184 3d3e 2462 9d3d
00000050: 677a d13d 284f ff3d 8b92 a73d 1a53 953d
00000060: 137e 1f3e

feature.13.weight f4 [20, 25]
-0.33209014 -0.1677949 -0.3028558 -0.08732041 0.05850658 0.14506061 -0.1093059 -0.20925334
0.25886074 0.1591338 0.11516007 -0.003985689 -0.08543107 0.13030076 -0.31821212 0.16531907
0.040706385 0.053116683 0.25494516 0.40080732 -0.3356706 0.117758095 0.00819338 0.13324535
-0.2735504 -0.102313496 -0.10092871 -0.10049333 -0.093046755 0.035129238 0.10813465 0.22725514
0.5140473 0.1553607 0.042894106 -0.084362455 -0.01964004 0.01907637 0.14917211 -0.27098927
-0.030049546 -0.45080242 0.05306287 0.12161939 -0.14719662 0.39654112 0.47169456 0.23046774
-0.07195304 -0.1329255 -0.061261863 0.19677173 -0.23817708 -0.2657509 -0.30944178 0.08447201
-0.31840366 0.21575843 -0.380378 0.059311066 0.05363099 0.33507955 0.08687229 -0.24793155
-0.01456829 -0.07364855 0.027378839 -0.453711 -0.18280093 0.1857865 0.2438118 0.19308048
0.14701523 -0.1388777 0.15011944 -0.05990689 0.34409383 0.0064512454 0.21023618 -0.09855291
0.3141292 -0.29304555 0.20060344 -0.21175146 -0.1067882 0.10334882 -0.114390366 0.1293939
-0.14611556 -0.27253184 -0.31834912 0.36175346 0.3762283 -0.20509045 -0.10360663 0.20244552
-0.16124888 -0.036004283 -0.51498365 0.14451818 -0.6421515 0.011704338 -0.040042277 0.14808556
-0.20370217 -0.2850575 -0.07599799 0.27760386 -0.11284777 0.26877552 0.076861344 0.06169017
-0.13734894 0.08298469 -0.042422164 -0.33180895 0.22488056 0.08892119 0.076198064 0.21675621
0.51736563 0.09182596 -0.13436663 -0.042592976 -0.36499456 -0.1041512 0.25038475 0.2756683
-0.055627838 -0.14681977 0.02367227 0.018698312 -0.22771926 -0.09302713 -0.005737738 -0.019125635
-0.25382364 0.08591005 -0.083721414 -0.2815137 -0.054254964 0.25677767 -0.19322787 -0.44685683
-0.29454654 0.10839887 -0.09389161 0.086522035 0.017672725 -0.3642096 -0.08465818 -0.44675335
-0.06173481 0.15167442 -0.011236193 -0.1481026 -0.06499271 0.06445947 -0.32915738 -0.20617294
-0.015878743 0.15410781 0.35128772 0.11407757 -0.12549555 -0.26334795 0.43213546 -0.04305151
0.02844255 0.28872198 0.07060229 -0.27411017 0.16173004 -0.18228446 -0.042470865 -0.08507173
0.17567447 -0.0317863 -0.029367696 -0.1167782 0.043199465 -0.04518054 0.38013703 -0.13834769
-0.01007569 -0.11021581 -0.07830371 0.33548513 0.0050488818 -0.018013246 -0.06728692 0.20258056
0.06429923 -0.038074903 -0.19839971 0.005796021 -0.20045115 -0.04623823 0.0603325 -0.050129477
0.031728975 0.048721712 -0.15518911 -0.02913923 -0.35293794 -0.49440968 -0.016895063 0.13998592
-0.2954498 0.0049844026 0.041767694 -0.13782915 -0.15529966 -0.0040549166 -0.040662088 -0.06641021
0.53487587 -0.13188612 -0.4139136 -0.15995325 0.074292116 0.18386382 -0.17143916 -0.19820292
-0.022910284 0.041399214 0.09671985 -0.07605725 -0.103844374 -0.058137715 -0.20532492 0.19530687
-0.14434725 0.046323664 -0.40269175 0.22286686 -0.08516638 0.09405727 -0.26431105 -0.10614891
-0.33138746 -0.2769975 0.035519388 -0.09696609 -0.06638437 0.09535757 -0.2651285 0.03539329
0.17268614 0.18481971 -0.046924382 0.09232791 -0.29142886 -0.1907662 -0.055157367 0.14026837
00000000: b807 aabe 6dd2 2bbe ea0f 9bbe 0bd5 b2bd
00000010: 98a4 6f3d c58a 143e c6db dfbd 8246 56be
00000020: 6589 843e f9f3 223e 0bd9 eb3d 629a 82bb
00000030: 7cf6 aebd 906d 053e b3ec a2be 6749 293e
00000040: bdbb 263d e190 593d 2c88 823e 9e36 cd3e
00000050: 04dd abbe 282b f13d 873d 063c 7871 083e
00000060: cc0e 8cbe bd89 d1bd b6b3 cebd 72cf cdbd
00000070: 4c8f bebd ade3 0f3d b375 dd3d 92b5 683e
00000080: 9b98 033f e016 1f3e bbb1 2f3d 39c6 acbd
00000090: 26e4 a0bc 0c46 9c3c 93c0 183e 1bbf 8abe
000000a0: 772a f6bc 93cf e6be 7458 593d 9613 f93d
000000b0: b6ba 16be 7007 cb3e f381 f13e bcff 6b3e
000000c0: 1e5c 93bd 9f1d 08be b8ed 7abd 877e 493e
000000d0: b1e4 73be 8110 88be 276f 9ebe a9ff ac3d
000000e0: ce05 a3be c7ef 5c3e e8c0 c2be 29f0 723d
000000f0: 2bac 5b3d 8c8f ab3e 19ea b13d c5e1 7dbe
00000100: d6af 6ebc 0dd5 96bd 9649 e03c cf4c e8be
00000110: 2b30 3bbe d13e 3e3e cda9 793e e4b6 453e
00000120: 298b 163e f535 0ebe e9b8 193e ed60 75bd
00000130: 112d b03e f864 d33b 2748 573e 1cd6 c9bd
00000140: 8bd5 a03e 110a 96be fd6a 4d3e 60d5 58be
00000150: c6b3 dabd 8ca8 d33d 7f45 eabd d67f 043e
00000160: 519f 15be 4b89 8bbe a8fe a2be c037 b93e
00000170: ffa0 c03e 3b03 52be b62f d4bd e14d 4f3e
00000180: 6d1e 25be 3a79 13bd f8d5 03bf 93fc 133e
00000190: 0a64 24bf 8dc3 3f3c 5f03 24bd bea3 173e
000001a0: 4d97 50be 0ef3 91be d6a4 9bbd 1822 8e3e
000001b0: bb1c e7bd f29c 893e 7b69 9d3d d5ae 7c3d
000001c0: 33a5 0cbe e1f3 a93d ddc2 2dbd dde2 a9be
000001d0: 1747 663e 501c b63d bb0d 9c3d 57f5 5d3e
000001e0: 1372 043f 400f bc3d 6897 09be f975 2ebd
000001f0: 91e0 babe 394d d5bd 6e32 803e 6524 8d3e
00000200: 04da 63bd ec57 16be 59ec c13c 342d 993c
00000210: 3d2f 69be 0285 bebd a303 bcbb 5dad 9cbc
00000220: 2cf5 81be 9cf1 af3d 2276 abbd 9022 90be
00000230: 743a 5ebd 5d78 833e 87dd 45be 6bca e4be
00000240: cece 96be 3a00 de3d 3f4a c0bd 7732 b13d
00000250: 64c6 903c ae79 babe 4561 adbd dbbc e4be
00000260: a4dd 7cbd 8a50 1b3e 0218 38bc 35a8 17be
00000270: e61a 85bd 5403 843d 5187 a8be 001f 53be
00000280: 2314 82bc 70ce 1d3e fcdb b33e 80a1 e93d
00000290: e881 00be 8bd5 86be dc40 dd3e c856 30bd
000002a0: 5a00 e93c 5ed3 933e ef97 903d 2b58 8cbe
000002b0: 8f9c 253e c7a8 3abe eef5 2dbd 163a aebd
000002c0: 02e4 333e 5a32 02bd 8694 f0bc 6929 efbd
000002d0: ecf1 303d 3b0f 39bd 52a1 c23e 04ab 0dbe
000002e0: 8214 25bc d4b8 e1bd b25d a0bd b5c4 ab3e
000002f0: 1771 a53b 8490 93bc bacd 89bd 4771 4f3e
00000300: 51af 833d 6ef4 1bbd 4b29 4bbe 8cec bd3b
00000310: 1143 4dbe 4c64 3dbd 361f 773d 9154 4dbd
00000320: 3ef6 013d 6b90 473d e5e9 1ebe 65b5 eebc
00000330: 48b4 b4be 4423 fdbe 8467 8abc 7858 0f3e
00000340: 3245 97be 3354 a33b 9a14 2b3d 1623 0dbe
00000350: e006 1fbe 1bdf 84bb 4a8d 26bd 1402 88bd
00000360: a0ed 083f 280d 07be 7cec d3be c9ca 23be
00000370: 7726 983d cc46 3c3e bf8d 2fbe b5f5 4abe
00000380: 59ae bbbc 3992 293d 0f15 c63d e7c3 9bbd
00000390: 5cac d4bd d021 6ebd b240 52be 86fe 473e
000003a0: c4cf 13be e2bd 3d3d 9d2d cebe 3637 643e
000003b0: b66b aebd 19a1 c03d c753 87be 9a64 d9bd
000003c0: 9eab a9be 9ed2 8dbe c77c 113d 2896 c6bd
000003d0: 87f4 87bd d44a c33d ecbe 87be 8ef8 103d
000003e0: a3d4 303e 6141 3d3e c833 40bd 6a16 bd3d
000003f0: 2a36 95be 3758 43be b1ec 61bd 83a2 0f3e

feature.13.bias f4 [20]
0.22582288 0.023372145 0.008431411 -0.026053715 0.07270539 0.06580431 0.25648752 -0.34435117
-0.22178075 -0.020234078 -0.19992541 -0.047245003 -0.20539916 0.105681464 0.00737437 0.28640917
-0.019199971 0.024779638 0.016241455 0.059318993
00000000: 1d3e 673e f176 bf3c e723 0a3c 9a6e d5bc
00000010: 90e6 943d 69c4 863d 5552 833e cc4e b0be
00000020: 7e1a 63be f0c1 a5bc 3fb9 4cbe fa83 41bd
00000030: 2854 52be 866f d83d b3a4 f13b 39a4 923e
00000040: 4249 9dbc abfe ca3c cd0c 853c 79f8 723d

feature.15.weight f4 [20]
0.47234842 0.50377643 0.51677537 0.42741382 0.40933815 0.41935417 0.44088498 0.3670636
0.49952677 0.31874448 0.3862525 0.4328213 0.32283378 0.45765007 0.40167955 0.5853014
0.4202446 0.47435308 0.47899255 0.48859772
00000000: a7d7 f13e 7ef7 003f 644b 043f fcd5 da3e
00000010: c594 d13e 97b5 d63e adbb e13e c3ef bb3e
00000020: f9c1 ff3e 7a32 a33e e3c2 c53e c19a dd3e
00000030: 784a a53e 1c51 ea3e f1a8 cd3e 50d6 153f
00000040: 4d2a d73e 68de f23e 833e f53e 7b29 fa3e

feature.15.bias f4 [20]
0.109948285 0.13091332 0.109382905 -0.16583155 -0.041029967 0.09614884 -0.09227531 0.076353386
-0.031833574 0.07660642 0.0073216576 0.14534234 0.013650234 -0.13752984 0.010115971 -0.034756973
-0.08807087 0.08384788 -0.057574067 0.21278717
00000000: 912c e13d 240e 063e 2504 e03d bfcf 29be
00000010: 0a0f 28bd afe9 c43d d6fa bcbd 2a5f 9c3d
00000020: ec63 02bd d4e3 9c3d 84ea ef3b 9fd4 143e
00000030: 3ba5 5f3c 9fd4 0cbe 75bd 253c 545d 0ebd
00000040: 805e b4bd 70b8 ab3d c9d2 6bbd e1e4 593e

feature.15.running_mean f4 [20]
0.4083964 0.17471173 0.2050434 0.15516154 0.31714115 0.18870202 0.46264768 0.026511509
0.09838878 0.21481606 0.089679405 0.16245721 0.05600233 0.2900766 0.20665045 0.46127886
0.17766163 0.18667576 0.23902474 0.2603142
00000000: 5519 d13e a2e7 323e e6f6 513e abe2 1e3e
00000010: 5360 a23e 1a3b 413e 28e0 ec3e aa2e d93c
00000020: 0f80 c93d bef8 5b3e d6a9 b73d 2f5b 263e
00000030: b362 653d ec84 943e 2d9c 533e be2c ec3e
00000040: eeec 353e ee27 3f3e e7c2 743e e747 853e

feature.15.running_var f4 [20]
0.145791 0.07995215 0.08655692 0.06203988 0.13834934 0.06516556 0.12272411 0.0064811246
0.037788194 0.07556418 0.024936236 0.052162424 0.024629615 0.092152685 0.06342943 0.19423166
0.058586843 0.073517166 0.085318975 0.10175586
00000000: 3c4a 153e f4bd a33d c144 b13d 871d 7e3d
00000010: 73ab 0d3e 8575 853d c756 fb3d 9d5f d43b
00000020: cbc7 1a3d 65c1 9a3d 1447 cc3c 44a8 553d
00000030: 0cc4 c93c 8cba bc3d 4ae7 813d aae4 463e
00000040: c2f8 6f3d 2b90 963d b7bb ae3d 6065 d03d
